shared_storage/models-scalers/britain_best_MLPClassifier.ckpt (torch, 664920 bytes, 30 tensors)

feature_extractor.0.weight f4 [32, 5]
000000 59 d9 c3 3e 90 fc fc be ed cd 8a 3e b0 58 70 3f
       0.3825176 -0.4941144 0.27110234 0.93885326
000010 ca 5f 91 be 38 cd 2b 3f b7 4d 78 3e 2b 93 02 3e
       -0.28393394 0.67110014 0.24248396 0.12751453
000020 6f 9c 0f 3f 65 86 fc 3d 31 8a eb be 94 0d 29 3f
       0.56098074 0.12330321 -0.4600387 0.66036344
000030 1c 18 07 3d 75 b5 7b bf 6e 57 a9 3b ac 7f 91 3d
       0.032981977 -0.98323756 0.005167893 0.071044296
000040 96 38 d1 3e ca c6 75 be d9 01 0d 3f cc 59 ac be
       0.40863484 -0.24001613 0.55080944 -0.3366226
000050 40 1e 53 be 06 50 01 be e6 ac 89 be c8 e3 2c 3d
       -0.20617008 -0.12628183 -0.26889724 0.042209417
000060 f7 26 e2 be 82 0f 38 3f 68 3b 35 bf a3 7c 95 3e
       -0.44170353 0.71898663 -0.7079377 0.29196653
000070 1f 10 01 3f 90 d7 73 be 43 79 16 3f 3b 75 2d bd
       0.50415224 -0.238127 0.5877878 -0.042348128
000080 5e ed 77 3e 31 54 33 3f e1 b5 3e be e8 cf 9b 3e
       0.24211642 0.7005034 -0.18624069 0.30432057
000090 7d 35 13 3e 4a 0c 82 bd 3f df 86 3f 04 25 c4 3d
       0.14375873 -0.0635 1.0536879 0.09577373
0000a0 a4 33 48 be a0 2d 84 3e 98 e0 a3 3d b8 8f 68 3e
       -0.1955095 0.2581606 0.08001822 0.22711074
0000b0 78 8f 8b be a4 a9 e2 be a3 82 3f be 82 ed b6 be
       -0.27257895 -0.4427005 -0.18702178 -0.3572808
0000c0 e1 94 b4 3e ba 9a ea 3d 10 b0 3d 3e ac d4 10 3e
       0.35269836 0.11455293 0.18524194 0.14143628
0000d0 00 ed fe bb 4a 32 b3 3e 4e b0 a2 be 93 81 0b be
       -0.0077797174 0.34999305 -0.31775135 -0.13623647
0000e0 b1 78 25 bf 0a 26 1c 3e 1f f9 99 bd 9b 38 26 3e
       -0.64637285 0.15248886 -0.07518219 0.16232531
0000f0 fe b4 ba bd 64 55 df 3e d4 73 c5 be b6 59 22 bf
       -0.09116553 0.43619835 -0.38564932 -0.6341814
000100 42 dd 6a bd b0 61 ac 3e f8 67 85 3c 18 d6 c1 3e
       -0.057339914 0.3366828 0.016284928 0.37858653
000110 61 51 ca be a2 b1 03 bf 35 ab 62 be 06 15 04 bf
       -0.39515212 -0.5144292 -0.22135623 -0.5159458
000120 20 85 c9 3d 75 ea 3f 3f 20 75 b1 3e 54 2c 17 bf
       0.09839845 0.7496713 0.34659672 -0.59052014
000130 4c 76 5c bf e6 45 dd 3d 6b 1d 43 bf d3 a3 13 3e
       -0.86118007 0.10804348 -0.76216763 0.14417963
000140 b1 28 ae be 38 66 bb 3e 50 8c 84 be 70 84 28 bf
       -0.3401542 0.36601424 -0.258883 -0.65827084
000150 9f c7 24 3e dc b1 a2 3e 30 46 89 be f6 10 66 3e
       0.16091774 0.3177632 -0.2681136 0.22467408
000160 42 ef 82 3f 9e f7 89 be b2 7b 74 be 86 a9 d1 3e
       1.0229266 -0.2694673 -0.23875311 0.4094965
000170 ae 86 1a be 80 59 22 be ab 8d dd be 8c 18 ff be
       -0.15090439 -0.15854454 -0.43272147 -0.49823415
000180 2a 9e af 3e 28 6f 15 3d a3 9a 8f bf a6 e0 0c 3d
       0.34300357 0.03648296 -1.1219066 0.03439393
000190 a1 47 02 3d cb 97 84 bd 95 2c 7c be 89 34 1c be
       0.031806592 -0.06474265 -0.24626382 -0.15254416
0001a0 d1 ad f6 be 36 75 09 3f 16 bd 9b 3e 8c f5 2b 3e
       -0.48179486 0.53694475 0.304177 0.16792887
0001b0 c5 ff 0c bf 66 0e 7c be 24 6e 18 be 20 38 8f 3d
       -0.55077773 -0.24614868 -0.14885765 0.06993127
0001c0 82 7a c9 be 20 51 45 be 44 14 89 be 00 71 a2 3a
       -0.3935128 -0.19269228 -0.26773274 0.0012393296
0001d0 48 67 2a be c0 de fd bc be 28 9b be 8c 2a 9d be
       -0.16640961 -0.030990005 -0.3030452 -0.30696523
0001e0 5e 95 85 be 06 c1 1c be 6c b9 b4 be be fc bf 3e
       -0.2609052 -0.15308008 -0.35297716 0.37497514
0001f0 9c c5 b5 bd 65 24 2d 3f b5 3e 0d be ae 40 c4 be
       -0.088755816 0.6763366 -0.13793452 -0.38330597
000200 2a c0 05 3f f0 e2 54 3c fc 8a 2f be 64 10 be be
       0.52246344 0.012993559 -0.17142862 -0.3712188
000210 e5 a2 e3 be 00 06 03 3e 40 12 c8 bd 9d 60 e3 3d
       -0.44460216 0.12795258 -0.09769106 0.11102412
000220 00 5a 54 bf ee 6d 61 3e b3 3d 29 bf 26 39 16 be
       -0.8294983 0.22014591 -0.6610977 -0.14670238
000230 49 f4 81 3e 0f a3 8b 3e da c3 77 3e 0a 28 9e 3f
       0.25381687 0.2727284 0.24195805 1.2355969
000240 66 ac d4 be 3e e7 eb bc e7 12 9e be a0 f0 88 bd
       -0.4153778 -0.028796788 -0.30873796 -0.066865206
000250 5d cf af bf 40 57 8a 3e 45 1d ba be 35 6f 1a 3f
       -1.3735157 0.2701969 -0.36350456 0.6032594
000260 93 6a 95 3e fe db e2 bd 20 1d 1b be 39 69 d2 3e
       0.29182872 -0.110771164 -0.15147829 0.41095904
000270 35 81 d0 3e 01 d6 73 3d 46 5b a1 bf 40 16 9b 3d
       0.40723577 0.059530262 -1.260598 0.07572603

feature_extractor.0.bias f4 [32]
000000 ac fc 0a be cf 6d a9 be c8 e6 70 3e c2 7e a4 3e
       -0.13572949 -0.3309159 0.23525536 0.3212796
000010 02 5f 7d be 69 ea 36 be 06 3a 3c bd ab ea 6b 3d
       -0.24743274 -0.17862858 -0.045953773 0.057596844
000020 b0 0a ea bd 49 f2 89 be 12 d2 1c be 82 d2 fe be
       -0.1142782 -0.2694266 -0.1531451 -0.4976998
000030 7d 12 bc 3e dd 01 ac 3e a2 f5 f1 be f5 ec 40 3e
       0.36732855 0.33595172 -0.47257715 0.18840392
000040 7d 17 5d 3e 08 3d 36 3e 0c 16 23 be 8a 5e 81 3e
       0.21590991 0.17796719 -0.15926379 0.2526744
000050 23 39 00 3f 85 cb d9 3d 2c f1 a0 bd 9c 87 f2 bd
       0.50087184 0.106345214 -0.078585 -0.11842272
000060 58 f7 43 3d 71 a3 c8 3d f6 77 08 be 9e 9c d7 3e
       0.047843307 0.09796799 -0.13327011 0.42111677
000070 38 60 c5 3e 46 1c 78 bd cf 35 87 be 08 c2 05 be
       0.38549972 -0.06057384 -0.2640824 -0.13062298

feature_extractor.2.weight f4 [128, 32]
000000 cc 58 3a 3e 18 da 97 3d f2 26 58 3c 68 5b 13 3e
       0.18197936 0.07414645 0.013192879 0.14390337
000010 1e 9b 85 bd 94 24 93 3e e7 90 fd 3d bc f4 4c 3d
       -0.06523727 0.28738844 0.123811536 0.050038084
000020 73 46 da bd 13 8d fa bd b0 26 22 be 0a 96 28 be
       -0.10657968 -0.12233939 -0.1583507 -0.16463485
000030 63 d2 01 3f 27 3a 2b 3e 88 a5 6e 3c b6 36 c8 be
       0.5071165 0.16721402 0.014565833 -0.3910424
000040 1e 0b f0 bd 98 fe f8 3d e5 1b 2f 3e 25 70 78 be
       -0.117208704 0.12157935 0.17100485 -0.2426153
000050 3d f8 0d 3d 43 44 47 3e d3 e4 89 bd e2 54 ea bd
       0.034660567 0.19459634 -0.06733098 -0.11441971
000060 ab 1f 04 3e 34 d4 fd 3d 48 27 11 bd 8b 7c 69 be
       0.12902705 0.1239399 -0.035437852 -0.22801416
000070 92 2c 9b 3e 0c af 01 be 8c ea 3f 3e f8 80 80 be
       0.30307442 -0.12664431 0.18741816 -0.25098395
000080 b8 31 9d be 4f ad a9 bd 3d dd 5e 3e 0b 8f cd bd
       -0.30701995 -0.08285009 0.21764083 -0.10037049
000090 1d 54 18 3e 15 b3 64 3e 4b 56 e6 3d 75 ad 2d bd
       0.14875837 0.2233394 0.11246928 -0.04240175
0000a0 92 aa 09 be d8 9f 0c be f2 50 29 be 15 8c 69 bd
       -0.13443974 -0.1373285 -0.16534784 -0.05701836
0000b0 71 1d ac 3d 5c 37 3f bd 29 7b 2d be 27 25 3d bd
       0.08404053 -0.046683654 -0.16941513 -0.04617801
0000c0 0d 98 dd bc 88 ab 82 be 2c 2f 70 3d 43 8e 34 3e
       -0.027050043 -0.25521493 0.058638737 0.17632394
0000d0 ef 85 9f 3d a1 32 11 3e 34 ca 04 be c8 82 ff bc
       0.07789218 0.1417947 -0.1296776 -0.031190291
0000e0 4f 7f af bd 3c bd 3a 3e 61 54 2c be 8c ec 15 3e
       -0.08569204 0.1823625 -0.16829063 0.14641017
0000f0 af 1a ea be 8c ee 48 3e 3f 61 12 3f 7f 58 af 3e
       -0.45723483 0.19622248 0.57179636 0.34247205
000100 84 79 32 be 3f 5b b6 3d 65 d1 f8 bd 66 57 86 3d
       -0.17429167 0.089041226 -0.12149314 0.06559639
000110 77 ff 29 3e 86 d4 81 bd a7 52 24 bd 19 a6 9e bd
       0.16601358 -0.06339364 -0.040117886 -0.07746524
000120 fa 25 17 be 4e be ad 3d 7d b3 33 be 69 bd 9c 3d
       -0.1476058 0.08483563 -0.17548938 0.076533146
000130 77 71 07 3e 45 59 03 3e 07 48 9f bd 72 2e 37 be
       0.13226877 0.12827022 -0.0777741 -0.17888811
000140 64 cb 22 3d f1 dc 70 3d 8d 2b 34 be d2 18 8e bd
       0.03974475 0.058804456 -0.17594738 -0.06938328
000150 ac 06 d9 bd 43 eb 5d bd 48 33 b2 bd 5b fd 93 bd
       -0.10596976 -0.05417944 -0.08701187 -0.07226058
000160 62 dd 65 bd fe 05 2c be 19 87 14 3e 47 e5 e0 3d
       -0.05611933 -0.16799161 0.1450466 0.10981231
000170 e1 73 88 bd ec e6 e7 bc f6 ab e2 bd 4e 53 46 be
       -0.06662727 -0.028308354 -0.11067955 -0.19367716
000180 44 f6 47 be 35 c5 2d 3d 23 6b f6 bd 0f bf e8 bd
       -0.19527537 0.0424244 -0.120321535 -0.113645665
000190 b0 fa 61 bc 1c 26 a7 bd b6 b8 a4 bd 65 3c 90 bc
       -0.013792679 -0.08161566 -0.08043043 -0.017606923
0001a0 f8 95 19 bd 10 4f 79 bd a4 58 ad bd 89 51 13 be
       -0.037496537 -0.060866416 -0.084641725 -0.14386572
0001b0 37 c9 17 3e 1a e2 90 bd e2 08 c1 3c c9 46 ad bd
       0.14822851 -0.070743755 0.023563806 -0.08460767
0001c0 e6 69 11 bc 46 f3 10 3e a6 cc a6 3d 0d df 1c be
       -0.008875346 0.14155301 0.08144502 -0.15319462
0001d0 b4 b1 8f 3d d1 d4 2b 3e 20 7e 3e 3d 3a b8 f2 3d
       0.07016316 0.16780402 0.046507 0.11851545
0001e0 f7 76 32 3e 89 9a 4d bd 14 49 16 3d b0 98 15 be
       0.17428194 -0.050196204 0.036690786 -0.14609027
0001f0 a0 81 74 bd 8a 82 dc 3d 93 0b 8b 3d 2d 2a 09 be
       -0.059693933 0.10767086 0.06789317 -0.13394995
000200 86 24 41 be 56 dc 19 be ca 55 76 be 17 09 e9 bd
       -0.18861589 -0.15025458 -0.24056163 -0.11378687
000210 fc 0f 33 bd df 3e cf 3d 0c 7d c7 bc 46 14 48 be
       -0.043716416 0.101194136 -0.02435162 -0.19538984
000220 d2 37 11 be f2 1a b4 3d 50 a6 06 be c0 4e b2 bc
       -0.1418145 0.08794202 -0.1314938 -0.021766067
000230 9d fa bf 3d 54 76 16 be d2 52 be bd 6e af 05 be
       0.093739726 -0.14693576 -0.092931405 -0.13055202
000240 49 7d a9 bd 97 e8 2b be 1a 5e 21 be 4b ed 6b be
       -0.08275849 -0.16787945 -0.15758553 -0.23039739
000250 a2 25 be bd 61 b5 05 3e b8 de ae bd 7d 1e f3 bd
       -0.09284522 0.13057472 -0.08538574 -0.118710496
000260 1c 83 2f 3d c7 ce 05 3e 52 5d c6 3d 72 5e 4e 3d
       0.042849645 0.1306716 0.09685768 0.05038304
000270 ae 45 cd 3c 17 cd 41 be 2a c8 f5 3c c1 e8 19 3e
       0.02505764 -0.18925892 0.030002672 0.15030195
000280 13 df 92 bd 52 d6 62 bd 38 73 62 3e 70 56 85 3e
       -0.07171454 -0.055380173 0.22114265 0.2604251
000290 ee 1f ce bd 57 e3 8a be e8 7d 1a 3d 75 21 31 3e
       -0.10064684 -0.27126572 0.03771773 0.17297919
0002a0 a8 48 20 3d 17 54 aa 3c 65 48 09 be 7c 25 f4 be
       0.03913179 0.02079205 -0.13406523 -0.47684848
0002b0 e1 ac a3 bd 46 05 26 3e 05 d2 2f 3e ac db 47 be
       -0.079919584 0.16212949 0.1716996 -0.19517392
0002c0 46 05 01 bb ac 0c 9b bd eb a7 ae bd 81 5e bb 3c
       -0.001968698 -0.07570776 -0.085281216 0.022872211
0002d0 f1 0b b1 3e cd e0 40 3e e8 31 26 be 86 10 f2 3d
       0.34579423 0.18835755 -0.16229975 0.11819558
0002e0 d0 57 ff bd af 0a 96 3d cf 2f 19 3e 27 ef c5 bd
       -0.12467921 0.073262565 0.14959644 -0.09664755
0002f0 cd 38 b0 3e 4a 17 57 be 15 2d 94 3d 4c 66 1d 3d
       0.34418336 -0.21004978 0.07235161 0.038427636
000300 d0 c0 1d bd 04 38 14 bd 0b e5 96 bd 32 8e f9 3d
       -0.03851396 -0.036186233 -0.07367905 0.12185325
000310 c6 94 b1 3d d8 07 68 3d dc 73 cb bd 3f f1 12 be
       0.086709544 0.056648105 -0.09934208 -0.1434984
000320 20 a2 9c 3c 60 87 56 3d 55 28 a7 bd 5c 98 4a bd
       0.019120276 0.052375197 -0.081619896 -0.049461707
000330 5e 82 f4 3d 20 b8 66 3c 40 ad 02 3c 20 32 32 bd
       0.11938928 0.014081985 0.007975876 -0.043504834
000340 e3 ed 23 be 6c 34 2a be 58 0f ad bd 31 08 b8 bd
       -0.16008715 -0.1662156 -0.08450192 -0.089859374
000350 c0 96 61 3d 64 c9 52 bd 35 a3 8d bd d7 96 2c 3e
       0.055075407 -0.051461592 -0.06915895 0.16854416
000360 74 36 7c 3d 91 0c 01 3e 7d 44 af bd 7b e1 93 bd
       0.061575368 0.1260245 -0.08557985 -0.07220741
000370 5a 10 85 3d a5 37 f1 bd 88 aa ec bd 10 e4 0b bc
       0.064972594 -0.117781915 -0.11555964 -0.008538261
000380 59 96 10 bf f7 b1 2f be 5e 51 b5 3d 7c cd 39 be
       -0.5647941 -0.17157732 0.0885341 -0.18144792
000390 a8 ec ea 3c 30 8b 70 be f9 ce 87 be 50 83 b6 bd
       0.0286773 -0.23490596 -0.26525095 -0.089117646
0003a0 f4 56 38 3d c0 c6 c7 3d 78 12 b7 bc 14 c0 39 bd
       0.0450048 0.097547054 -0.022347674 -0.045349196
0003b0 5f 4b a7 3e 4b 50 b2 bd 1a 09 e7 3d 4c 47 98 3d
       0.3267469 -0.08706721 0.11281033 0.07435474
0003c0 53 bc 13 3d 62 39 0c be a0 92 af 3c 88 54 aa 3d
       0.03606827 -0.13693765 0.021432221 0.08316904
0003d0 b0 d2 a4 bc 2e cf 88 bd b9 4d 0d 3e eb 0b 2e 3e
       -0.020119995 -0.066801414 0.1379918 0.16996734
0003e0 c9 61 b0 bd 9f 5d 2e 3d 6f 3b 11 3e c5 52 70 3e
       -0.08612401 0.042569753 0.14182828 0.23469074
0003f0 0a c8 ae be b9 b1 09 3e 9e 50 1f bf ca eb cf bd
       -0.34136993 0.13446702 -0.6223239 -0.10152395

feature_extractor.2.bias f4 [128]
000000 b3 fe e2 bc 96 b9 fe 3a 2e 2a 36 be c3 7d 89 bc
       -0.02770934 0.0019433971 -0.17789528 -0.0167836
000010 ce 0d 3a 3c 28 7c 95 bd c6 4e c0 bd 82 82 2a 3e
       0.01135583 -0.072990716 -0.09390025 0.16651347
000020 69 7e 24 3c c7 ff 10 bc fa 9d 3e bd c7 52 bc bc
       0.010039904 -0.008850045 -0.046537377 -0.02298869
000030 ee f6 17 3e 63 e3 55 be 91 59 29 3b 50 b2 1a 3e
       0.1484029 -0.20887522 0.002584074 0.15107083
000040 b0 c5 9f be 17 84 ad 3c fb 5d 52 3c f1 3d 50 be
       -0.3120551 0.02118115 0.0128397895 -0.20336129
000050 46 38 92 3d 2a 39 89 be 82 7c c2 bd 01 2a 98 bd
       0.071396396 -0.26801425 -0.09496404 -0.074298866
000060 db 53 18 3e 99 e2 d9 3c 89 63 04 be 2b aa f4 bd
       0.14875738 0.026597308 -0.12928595 -0.119465195
000070 db 72 28 bd db f1 b6 bc 6b be 7d 3d 55 fd 05 be
       -0.04112516 -0.022332123 0.061949175 -0.1308492
000080 89 27 31 3e 5c ab 5d be 0a 1a cf bc cf 1f b8 3d
       0.17300238 -0.216474 -0.025280971 0.08990442
000090 ad 08 31 3e d6 28 e4 bd b1 a8 2e be 33 b9 03 3d
       0.17288466 -0.11140601 -0.17056538 0.03215904
0000a0 66 e1 11 3e c6 92 79 bd 0a 01 f4 bd da ab 44 be
       0.14246139 -0.06093099 -0.11914261 -0.19206181
0000b0 df ba a1 bc 45 67 45 be ad 7e 4b 3d 60 ca 81 3d
       -0.019742427 -0.19277675 0.049681354 0.06337428
0000c0 7b ae 15 3e 2f de ea 3d 0e 9a 43 bd af 86 c8 3d
       0.1461734 0.114681594 -0.04775434 0.09791314
0000d0 cd c6 25 bd 3a 22 1c be 02 8b 0c 3d aa a8 f7 bd
       -0.040472794 -0.15247431 0.034312256 -0.12092717
0000e0 48 4c f8 3d 5f 77 9d bd 5c 3b 0a 3d 78 81 d1 3c
       0.121239245 -0.07688784 0.033748016 0.02557443
0000f0 32 5c 79 3c 86 f2 2f bc 7e 4f 03 be 37 28 0d 3d
       0.015219735 -0.010738974 -0.12823293 0.03446218
000100 0d f5 22 3e 6e 89 bc bd 1f 7b b8 bd 6d e3 cc bd
       0.15913792 -0.092059 -0.090078585 -0.100043155
000110 df 26 b0 bd 39 9d 1c be fd 70 da bd 4d e4 a7 bd
       -0.08601164 -0.1529435 -0.10666082 -0.08197842
000120 3b 7d 47 3b 66 57 85 39 90 c6 c3 bd 33 5b b2 bd
       0.0030439633 0.00025432854 -0.09559357 -0.08708801
000130 5c ec 2b be 7a 0c c7 bd d4 e2 c7 bd f7 7f 2f be
       -0.16789383 -0.097191766 -0.09760061 -0.17138658
000140 50 32 13 3e d9 ff 0f be d9 f8 b5 3c 5e 55 b2 3d
       0.14374661 -0.14062442 0.022213386 0.08707689
000150 50 aa 06 be be 56 f6 bd 21 ef a0 be 8b dc 24 3c
       -0.13150907 -0.120282635 -0.3143244 0.010062347
000160 86 cb 29 3d cd 4d 8a bd e0 65 b1 3d 8c 3e 0a 3e
       0.04145386 -0.067531206 0.08662009 0.13500422
000170 72 52 2b be 54 e5 05 bd 6c c2 43 bd e3 fe d0 3c
       -0.16730669 -0.032689407 -0.047792837 0.025512164
000180 62 e9 07 3e 19 d2 34 3c d8 70 fb bd 41 75 23 3e
       0.13272622 0.011036419 -0.122773826 0.15962698
000190 32 9b a9 be 78 4c a1 bd d4 90 88 3c a4 d4 47 3e
       -0.33126217 -0.078759134 0.016670622 0.1951471
0001a0 55 c6 22 3e b8 19 2a bd c1 d7 bb bb d6 44 cd bd
       0.1589597 -0.041528434 -0.005732507 -0.10022895
0001b0 b6 ae 22 be 20 c2 59 bd a6 3b ee 3d 5b 11 4b be
       -0.1588696 -0.053163648 0.11632471 -0.1983084
0001c0 73 da e9 3d 82 b0 27 3d 73 f6 30 3e 9a 5c 78 3c
       0.11418619 0.040939815 0.17281513 0.015158797
0001d0 f5 ce c8 3d 10 58 88 bd 44 3b 10 3d ff 32 cd 3d
       0.09805099 -0.066574216 0.03521277 0.10019492
0001e0 89 21 a8 bd 2a eb cf 3d 11 10 d1 bd b3 d5 fb 3d
       -0.08209521 0.10152276 -0.102081425 0.12296619
0001f0 47 e3 30 be 80 03 fb bd be 9f 7f 3c 8e dc 2f be
       -0.172742 -0.12256527 0.01560205 -0.17173979

feature_extractor.4.weight f4 [256, 128]
000000 9c 33 eb bd 5e b2 a0 bd 9b 89 91 3d 78 d4 9e 3c
       -0.11484453 -0.07846521 0.07106324 0.019388422
000010 44 08 e7 bc dd 30 0e bd a2 c7 9d bd bd f6 aa bd
       -0.028202184 -0.03471457 -0.077040926 -0.08347843
000020 36 6f ac bd 04 20 af bd 96 30 6e 3d 8a 60 fd bc
       -0.08419649 -0.08551028 0.058151804 -0.030929822
000030 88 41 62 bd 4e e2 9b bd 0d 2e 87 bc d0 45 59 bc
       -0.055238277 -0.076115236 -0.01650145 -0.0132612735
000040 b2 78 76 bd d7 49 ce 3c ea b2 32 3d e0 06 81 bd
       -0.060173698 0.025181694 0.043627657 -0.063001394
000050 01 94 98 3c 98 25 6b bc 80 c0 5a ba ea 19 1a 3d
       0.018625261 -0.014352225 -0.0008344725 0.03762237
000060 1c 03 84 bc 7a a1 32 3d 02 c0 5e 3d c6 02 6b bd
       -0.016114764 0.043611027 0.05438233 -0.05737569
000070 ba 52 5c bd 9d 5a b3 bd 68 01 36 bb 0c 29 88 bd
       -0.05378983 -0.087575175 -0.0027771834 -0.06648454
000080 b2 38 d8 bd 0d 0e 68 bd ff e2 f2 bd 54 57 ce bd
       -0.10557689 -0.056654025 -0.11859702 -0.1007525
000090 81 76 a1 3d c2 3a 4a 3d 49 63 a0 3d 8b 2f 98 bd
       0.07883931 0.049372442 0.07831437 -0.07430943
0000a0 b5 3d 88 bd 34 0e fe bc 00 44 e2 3a ef ed 81 bd
       -0.06652395 -0.031012632 0.0017262697 -0.0634421
0000b0 1b 56 97 bc b8 07 68 bd 5f 94 8d bc 8a 15 4c 3d
       -0.018473675 -0.056647986 -0.017282663 0.04982523
0000c0 7e 5f 82 bc 87 87 07 3d 72 ec 80 bd 92 07 2a bd
       -0.015914675 0.033088233 -0.06295098 -0.041511126
0000d0 14 8d 5f bd 10 ab 20 bc 92 04 10 bd b4 8f 4d bd
       -0.054577902 -0.0098064095 -0.03516061 -0.050185874
0000e0 84 42 ef bd c9 3d 06 bd 62 ca 9d bc 98 c2 7e bc
       -0.11682609 -0.032773767 -0.019261543 -0.015549324
0000f0 77 da e8 bd ec 7f 0f 3d 35 39 86 3d 08 46 5a bd
       -0.11369794 0.035034105 0.0655388 -0.053289443
000100 ed c2 b7 bc 9e 65 70 3d 58 5b e5 bd de f2 9f bd
       -0.022431815 0.05869066 -0.11199063 -0.07809995
000110 fa e1 48 3d 80 75 e5 ba e4 92 e6 3c b4 ff 89 bd
       0.049043633 -0.0017506331 0.028146215 -0.067382246
000120 b0 cc 7e bc 6a 1e 70 3d cc 24 b1 bc 58 67 75 bd
       -0.015551731 0.058622755 -0.021623991 -0.05991301
000130 59 5d ac bd 58 76 5f bc 52 69 65 3d 9a f0 e9 bd
       -0.08416242 -0.013639055 0.056008644 -0.11422844
000140 f0 ba df bb 8e 05 0a 3d 8c a9 ce bc 51 f0 82 bd
       -0.0068277046 0.033696704 -0.02522733 -0.06393493
000150 98 67 da bc ba ae 12 bd 00 53 2d 3c a2 ea ea bd
       -0.026660725 -0.035811163 0.010578871 -0.11470534
000160 67 90 68 3b 40 13 56 bd 78 60 38 bc 34 c8 17 bd
       0.003548646 -0.052264452 -0.011253469 -0.037056163
000170 4e 3f 4a 3d b6 e2 60 bd 24 64 e3 bd 26 5a 93 bd
       0.04937678 -0.05490371 -0.11103085 -0.07194929
000180 48 cb 84 bd 54 0f 92 bd cd f8 8e 3d 83 1e cc bd
       -0.06484085 -0.0713183 0.06981049 -0.09966757
000190 02 d1 54 bd 50 91 93 bd c6 56 95 bd 79 cb 0a bd
       -0.051957138 -0.072054505 -0.07291941 -0.033885453
0001a0 bb 3f ae bd 80 e9 74 3a a4 b1 f4 3c 21 4d 3d bd
       -0.08508249 0.00093426555 0.029869862 -0.046216134
0001b0 86 34 1c 3d fc 26 a6 3c 92 62 5c 3d 00 de 93 bb
       0.038136028 0.020282261 0.05380494 -0.0045125484
0001c0 b5 1b 39 3d 3c 34 0f 3d de 24 2f 3c 6b 02 a1 3c
       0.04519244 0.034961924 0.010689942 0.019654473
0001d0 3c 75 72 bd 63 a8 b9 bd 92 15 ca 3b a3 6f 80 3a
       -0.059193835 -0.0906532 0.006167122 0.0009798895
0001e0 b9 5b a3 3d 05 51 2d bd bc 27 2b bd 1a 58 ee 3c
       0.07976479 -0.042313594 -0.04178594 0.029094744
0001f0 78 57 e5 bc eb f1 a9 3d 22 f8 9c bd 3c 92 ed bc
       -0.02799581 0.08298095 -0.07664515 -0.029000394
000200 cd 2e 87 3e bd ee a0 be 9e b1 9e bd 4c ae ca bc
       0.26402894 -0.31432143 -0.077487215 -0.024741314
000210 0e ea 1b 3d c8 a4 8d 3e 22 f4 7f 3d 13 29 c4 3d
       0.03806501 0.2766478 0.062488683 0.09578147
000220 0a 90 c6 be 87 91 7d bc 98 79 bd 3e 6f e8 df be
       -0.38781768 -0.015476591 0.3700683 -0.4373202
000230 e8 21 64 3d fb 58 57 bb e8 61 a9 3e 3b f1 62 3e
       0.055696398 -0.0032859433 0.3308251 0.22162335
000240 8f 79 0a be 67 db b7 3d 5f cf 00 be 99 62 96 bc
       -0.13522933 0.089773946 -0.12579106 -0.018357562
000250 66 50 42 be d4 42 07 be 7c c4 41 bd 56 c5 19 3d
       -0.18975982 -0.13209087 -0.047306523 0.03754171
000260 db 7e 43 3d 7d 18 9e 3d 2f 5b 9e bd d2 05 ed bd
       0.0477284 0.077195145 -0.07732236 -0.11573376
000270 77 f4 c7 3d 3d df a2 bd a0 8a 8c be 04 2e cb bc
       0.09763425 -0.079527356 -0.27449512 -0.024802215
000280 61 81 07 3e ca ad c8 bc 9c 53 0f 3d c4 29 78 be
       0.13232948 -0.024496932 0.034991845 -0.24234682
000290 46 dd 89 be 25 b4 54 3d 40 14 97 bb 8a 70 6e 3e
       -0.2692663 0.05192961 -0.0046105683 0.23285118
0002a0 04 ec b7 be 66 07 de 3e fb 52 46 3b 7a c1 82 bd
       -0.35922253 0.4336502 0.0030261863 -0.06384559
0002b0 bf a6 44 3e 9a 58 79 be d6 73 c0 3d 75 c5 0b 3e
       0.19204234 -0.24350205 0.09397094 0.13649543
0002c0 d3 d9 02 3f cd 46 96 bd 69 3d 45 be c4 f6 20 be
       0.51113623 -0.07337723 -0.19261707 -0.15719134
0002d0 f8 9e db bd 70 e1 20 bc 06 fd ae 3e d6 21 3a bd
       -0.1072368 -0.0098193735 0.34177417 -0.045442425
0002e0 a7 46 82 be 5a d1 84 bd 83 05 5d be c8 a3 82 3e
       -0.25444528 -0.06485243 -0.21584134 0.2551558
0002f0 f8 f2 58 3d 02 d2 40 3c 13 72 9b bd 5e 53 d8 3d
       0.052966088 0.01176882 -0.07590117 0.10562776
000300 af c9 8a be 51 ce a9 3d 42 89 ce bd 25 7f f1 bd
       -0.27106997 0.08291305 -0.100847736 -0.11791829
000310 4e a1 94 bd 33 49 27 bd c1 e6 b2 be be b3 58 be
       -0.07257329 -0.040841293 -0.34941676 -0.21162316
000320 7f 7e 80 bd d6 46 2a bf c1 fa 26 be 4a 3f 89 bb
       -0.06274127 -0.6651434 -0.16306593 -0.004188453
000330 50 09 97 bc f5 56 a9 3c b3 aa 61 3d 0c 4d 92 be
       -0.018437058 0.020671347 0.055094432 -0.28574407
000340 ef e2 58 3f d7 aa e4 3d 10 02 d4 3d 22 b7 a7 bd
       0.84721273 0.111653976 0.10351956 -0.08189227
000350 09 75 16 bd 70 8d a8 be 71 7b fd bd 9a e6 37 be
       -0.036732707 -0.32920408 -0.1237706 -0.17959061
000360 f6 60 ca 3e 12 0e f9 bb c5 db a1 3e 83 39 8d be
       0.395271 -0.0076005543 0.31612983 -0.2758294
000370 de 47 3d 3d 1c 2f 8f 3c 33 5c c2 bd 30 c7 48 be
       0.046211116 0.017478518 -0.09490242 -0.19607234
000380 00 4c 1c be bc e5 73 be 7b 5c a7 3d 77 89 d8 bd
       -0.15263367 -0.23818105 0.08171936 -0.10573094
000390 6d 5b 5f bd bf 06 c1 bc b3 60 3f be 63 58 8c be
       -0.05453055 -0.023562787 -0.18689232 -0.27411184
0003a0 16 2b 60 3e f8 d9 8f bc fb 9a e2 3d ff cb a9 be
       0.21891436 -0.01755999 0.110647164 -0.3316345
0003b0 fe 18 2f be 85 b4 f4 bd 17 74 5e 3d 25 4b c2 bd
       -0.17099378 -0.11948494 0.05430993 -0.09486989
0003c0 a8 ee 80 be 6e de 24 be 44 a5 87 3d cd c3 ff 3b
       -0.2518208 -0.16100475 0.06623319 0.0078053237
0003d0 d5 5b 82 3e 9a 77 7f 3c e7 d8 3e 3d 66 0c 89 bd
       0.25460687 0.01559248 0.046593573 -0.06691818
0003e0 2b 33 d2 bd 23 15 aa 3e fb 71 a3 3b 0d 39 28 3d
       -0.10263666 0.3321925 0.0049879528 0.041070033
0003f0 d9 21 11 be 20 e7 81 bb a6 b0 a2 bc c1 a5 ae 3d
       -0.14173068 -0.00396432 -0.019859623 0.08527709

feature_extractor.4.bias f4 [256]
000000 b8 a7 98 bd 3b d3 d7 3c 5b 3c 0a 3e 1b f9 e5 bd
       -0.07453865 0.02634584 0.13499586 -0.11229154
000010 81 46 43 3d b3 28 12 bc d6 99 dc bd 49 bb e0 3d
       0.04767466 -0.008920836 -0.107715294 0.10973222
000020 9c 0d 88 be ed 25 a5 bd 5e 31 fc 3d b9 70 de bb
       -0.26572883 -0.080638744 0.123141035 -0.00678834
000030 0f ab 93 3d a8 3a 17 3e 49 3e a8 3d 44 9d b6 bd
       0.07210361 0.1476847 0.08215005 -0.08916715
000040 38 7a b9 bd b7 e3 57 3d c6 de c2 bd b9 1b c6 bd
       -0.090565145 0.0527074 -0.09515147 -0.096732564
000050 87 2a 95 3d 3e 46 d6 3d aa 6a 5e be b9 9d b8 bc
       0.07283502 0.104626164 -0.21720377 -0.022536146
000060 29 32 58 bd 28 36 00 3d eb d7 23 bd bd c2 48 bd
       -0.05278221 0.031301647 -0.040000837 -0.049013842
000070 16 e1 a4 bb 18 ac 1c 3e c1 45 9c 3d c9 21 70 bd
       -0.005031715 0.15300024 0.07630492 -0.05862597
000080 fb af 05 3e c9 6b b8 bd ca f5 39 bd 06 71 f0 3b
       0.13055412 -0.090049334 -0.04540042 0.007337692
000090 88 17 e7 3c d3 6d cc 3c 00 fe 07 bc db 30 a7 bd
       0.028209463 0.024954712 -0.008300304 -0.08163615
0000a0 57 6d e1 3d b9 f4 93 bd e0 16 1c 3e 54 14 1d 3d
       0.11007183 -0.072244115 0.15243101 0.038349465
0000b0 e0 20 50 bd 96 fd cd bb a6 e6 04 3e 41 43 62 bd
       -0.050812602 -0.0062863333 0.1297861 -0.05523992
0000c0 71 94 e1 bd 55 fc 21 bc ee aa 2f be 85 76 19 bd
       -0.11014641 -0.009886821 -0.17155048 -0.037466545
0000d0 c3 f4 4f 3d 10 38 56 3d ba af ee bc 0e f9 5b bd
       0.050770532 0.05229956 -0.029136527 -0.053704314
0000e0 80 53 c9 bd 92 05 5c bd 07 08 d0 3c ba 13 e4 bb
       -0.098303795 -0.05371625 0.025394453 -0.0069603594
0000f0 bb 46 26 be 91 96 e1 bc 1a ff 82 bd 3c 56 b2 bc
       -0.16237919 -0.027537616 -0.06396313 -0.021769635
000100 6d 37 1d 3e ac df 36 bd 68 b4 f4 bd 36 4b f9 3d
       0.15353175 -0.044646904 -0.11948472 0.121725485
000110 78 31 9b bd 47 fe d8 3c 30 be cb 3b f0 d7 8c bd
       -0.07577795 0.026488436 0.0062177405 -0.06877124
000120 fb 4c b5 bd d5 d4 70 3d ca 53 17 3c aa 8a d3 3d
       -0.088525735 0.058796722 0.009236285 0.103291824
000130 e9 12 75 bd 38 9d 79 3d ae 84 04 3e 1a 30 62 bd
       -0.059832487 0.06094095 0.12941238 -0.055221654
000140 38 45 eb bd a9 40 c9 bd d8 ce 01 be 84 64 8c 3d
       -0.11487812 -0.09826786 -0.12676561 0.06855109
000150 93 36 11 bd f3 ae 49 3c 37 1d fd 3d 5e c0 da 3d
       -0.035452437 0.012309778 0.12359088 0.106812224
000160 dc af 11 bd cc 46 87 3c b9 4a f1 3d aa be 40 3d
       -0.035568103 0.01651325 0.1178183 0.04705683
000170 34 4d 79 bd c4 d7 c2 bc 45 d8 06 3e ce e3 f3 3c
       -0.060864642 -0.023784526 0.13168438 0.029771712
000180 cb a2 a0 3c 2b b2 9e 3d 2d b5 a5 3d 86 d9 80 3d
       0.019608876 0.077488266 0.08091197 0.06291489
000190 60 3e d9 3d a0 82 05 bd 35 62 a7 3d 54 95 aa bd
       0.106076 -0.032595277 0.081730284 -0.08329263
0001a0 96 f6 73 bd 21 b9 1f 3d c1 75 aa bd ff 81 fc 3c
       -0.059561335 0.038994912 -0.08323241 0.030823706
0001b0 b7 35 42 bc 5e 54 a0 bd 2c f6 22 bd db d4 42 3d
       -0.011853627 -0.07828592 -0.03978555 0.047566276
0001c0 0d 4a 44 3d bc 4c 36 bd 14 af 37 3d a0 a4 d4 3c
       0.047922183 -0.044506773 0.044844702 0.025957406
0001d0 de 72 2f bc 7b 01 19 3e 10 c7 85 3a 9a 7d 1e be
       -0.010708539 0.14941971 0.001020642 -0.154776
0001e0 82 9c 4b be ec b1 89 3d 4b 9e 12 3c ac 9c 22 3c
       -0.19883922 0.06723389 0.008948873 0.009925049
0001f0 93 c5 9b 3b 60 a9 0e bd 34 be 7b ba 8c 7f 19 be
       0.0047537773 -0.034829497 -0.00096032326 -0.14990062
000200 27 89 86 3c d3 19 91 bd cc 41 8d 3d 91 67 e4 bd
       0.016422821 -0.07085004 0.068973154 -0.11152566
000210 27 0d c5 3d 79 df e5 bc 18 a6 92 3c e9 30 7c 3d
       0.09621649 -0.028060662 0.017901465 0.06157008
000220 c5 fd ec bd 2f e1 9b bd e7 dd 7c 3d 7a cc 98 bd
       -0.1157184 -0.0761131 0.06173506 -0.07460876
000230 8c f0 6b bd 98 f1 d9 bd 64 79 a0 3d ff 6e cc bd
       -0.05760245 -0.106417835 0.078356534 -0.09982108
000240 aa 19 e8 bd 90 7e 48 bd a9 72 cd 3c f3 cb 68 bd
       -0.1133302 -0.048948824 0.025079088 -0.056835126
000250 6d f2 a2 3c a8 5d 18 bd 4c ad 20 bd 0d e1 14 be
       0.019890988 -0.037198693 -0.03922777 -0.14538975
000260 41 89 8f bc 52 3a 0e 3d d2 58 66 3c 6e 98 a5 3d
       -0.017521502 0.034723587 0.014059262 0.08085714
000270 c0 9a ae bd d6 17 b5 bd 95 7c 10 bd b1 28 ef bc
       -0.0852561 -0.08842437 -0.03527506 -0.029194208
000280 be 04 a8 bd f9 f9 a8 bd 0b dd f9 3c 91 b5 a7 bd
       -0.082040295 -0.082508035 0.03050091 -0.08188928
000290 7c c0 08 3c 0e 58 8e be a0 ab f5 3c 81 73 d2 bd
       0.008346673 -0.27801555 0.029989064 -0.10275937
0002a0 64 ca fe bd 18 3a 9c bd cd 9f 71 bd 3f 2f 96 bd
       -0.12440947 -0.07628268 -0.05899029 -0.0733323
0002b0 71 a5 27 3d ce f9 b7 3d 90 8e d7 bc e3 7d 85 bd
       0.04092926 0.08983193 -0.026313096 -0.065181516
0002c0 17 ad c9 3d 47 38 10 bd c3 c1 f4 3c 57 0e 7f bc
       0.098474674 -0.03520992 0.029877549 -0.015567384
0002d0 71 a8 39 bd 65 a1 be 3d e2 8c 45 bc 7f b8 83 3c
       -0.045326654 0.09308127 -0.012057515 0.016079186
0002e0 fe 51 00 be e4 f3 1f bd 1f 17 7b bd f0 c2 95 3c
       -0.12531278 -0.03905095 -0.061301347 0.01828143
0002f0 97 cf c6 3d 42 bb 52 bd 38 de fb bd 9e 38 0c 3e
       0.09707563 -0.051448114 -0.12298244 0.13693473
000300 c1 ec 7c bd 32 6b 0f 3d cb 98 fc bc e8 99 19 3d
       -0.061749224 0.03501434 -0.030834576 0.037500292
000310 77 ff 20 bd e0 96 00 3e 3c f0 53 bd c2 c9 c4 3d
       -0.03930613 0.12557554 -0.051742777 0.09608795
000320 52 2c b9 3c f3 f4 c1 3c 70 d2 8c bd 1c 70 91 3d
       0.022604141 0.023676371 -0.06876075 0.07101461
000330 d9 49 e5 3b 3c ba 86 bd 11 e8 a0 be 1b a5 7b 3b
       0.0069973287 -0.0657849 -0.31427053 0.003839797
000340 0b 86 32 3e e5 ef 85 bc 92 13 d5 3c ef 78 ed bb
       0.17433946 -0.016349742 0.026010308 -0.0072470824
000350 12 fc 74 bd b5 ee 20 3e 97 62 1a 3d 4e c5 45 3d
       -0.059810705 0.1571606 0.03769168 0.048283868
000360 87 e5 9b 3d aa d3 1b 3b c1 e1 cd 3c de cf 16 bd
       0.07612138 0.0023777285 0.025132062 -0.03681933
000370 e0 c6 07 bc 52 97 e1 bc 79 42 c8 bd dd cb 96 bc
       -0.008287162 -0.027537975 -0.09778304 -0.018407756
000380 15 4a 21 3d 2b 63 89 be 67 31 77 bd e6 1f fc 3d
       0.03937729 -0.26833472 -0.060349848 0.12310772
000390 ad e0 59 bd 6a 5d 59 bb ae c1 b4 3d 1b 39 84 bd
       -0.053192783 -0.0033167251 0.08826004 -0.064562045
0003a0 d6 bd 81 bd 05 94 c2 bd 24 ab 36 3d d1 e6 90 bc
       -0.063350365 -0.09500889 0.044596806 -0.017688187
0003b0 71 0a 2c 3e 90 b7 40 bd 1a 42 11 3d 1f 91 80 3d
       0.16800858 -0.04705006 0.03546343 0.0627768
0003c0 ec 13 77 3d 60 b8 83 3d 2a 93 4c bc 5e 20 a2 bd
       0.060321733 0.06431651 -0.0124862585 -0.0791633
0003d0 c2 f6 cf bc 24 63 a8 bd 36 15 34 bd 03 7f 48 3d
       -0.025386218 -0.082220346 -0.04396554 0.048949253
0003e0 2e fe 14 bd 66 d8 56 3d e6 1d 19 bd 60 d6 8f 3b
       -0.036375217 0.052452467 -0.03738203 0.004389569
0003f0 cd a2 2f bd 19 29 95 bc 58 e5 16 bc e7 09 f9 3b
       -0.04287987 -0.018208073 -0.009209953 0.0076000574

feature_extractor.6.weight f4 [64, 256]
000000 30 a5 ae 3c 37 66 62 bd b5 bb 05 bd da 66 17 bc
       0.021319002 -0.05527326 -0.032649714 -0.00924083
000010 ba 0d b6 3b 1a 07 ef 3c 67 ce 33 be f2 92 65 3d
       0.0055558356 0.029178191 -0.17559205 0.05604834
000020 f2 7b 23 3e 7f 17 0a bf 47 6e 19 bd 26 68 83 bd
       0.1596525 -0.539421 -0.037458684 -0.06416349
000030 9a 17 67 3d df 96 86 bd 60 a8 99 3c 8e f0 79 3d
       0.056418993 -0.06571745 0.018757045 0.061020426
000040 f6 b2 b1 3c 25 d4 4a bd b4 7a af be 94 63 80 3c
       0.02169178 -0.049518723 -0.34273303 0.015672483
000050 cf 61 51 3d 2b ef 3e 3d 06 95 6f 3d ba 2a 2d bd
       0.05111867 0.046614807 0.05849173 -0.042277075
000060 c3 80 35 bd d9 c6 63 3d 06 15 39 bd a4 cb 26 bc
       -0.04431225 0.055609558 -0.045186065 -0.010180388
000070 63 0f 11 3d 20 51 9a bd 37 90 9f bc 32 89 aa 3c
       0.035415065 -0.075350046 -0.019477947 0.020817373
000080 47 e6 34 3e 27 f8 3b bd 20 a6 0b 3d 96 10 77 bc
       0.17665969 -0.045890953 0.034093976 -0.015079638
000090 1d 68 bb bc f3 52 5a 3b 1b c1 84 3c 4d bc 07 3d
       -0.022876794 0.0033313602 0.016205361 0.033138562
0000a0 05 88 b7 bd 86 7a 0c 3d a1 91 69 3d 0e 99 1c bb
       -0.089614905 0.034296535 0.05702365 -0.0023894939
0000b0 04 2b c5 3d 0c 5b db bc f1 a8 d2 bd a3 bd 99 bd
       0.09627345 -0.026776813 -0.10286129 -0.075068735
0000c0 95 44 a7 3d 45 a7 0f 3d 42 4f 11 3e 28 23 5f 3d
       0.08167378 0.03507163 0.1419039 0.054476887
0000d0 89 84 13 bc 06 12 77 3d aa e5 18 bd e5 fa 19 3e
       -0.009003767 0.060319923 -0.0373284 0.15037115
0000e0 d6 9b 91 bd 8a 12 41 3d ad 1c a8 bd 4a 5b 06 3d
       -0.071098015 0.04713682 -0.082085945 0.032801904
0000f0 0a 5e b8 3d 53 16 62 bc 6f 4b 4f 3c 42 9b fe bd
       0.090023115 -0.013799268 0.012652262 -0.12431957
000100 d4 27 8f 3d a7 c6 e0 3c fa 87 2e 3d 63 4a 69 bd
       0.069900185 0.027438475 0.042610146 -0.056955706
000110 e2 a9 ce 3c 28 f2 f2 bc 16 6b 24 3d fe 5e 5d bc
       0.02522749 -0.029656485 0.040141188 -0.013511417
000120 0c dc 10 bd c9 31 3f 3d b4 e5 f2 bc f2 df 30 3d
       -0.035366103 0.04667834 -0.029650547 0.04318232
000130 39 e3 80 3d 7a 79 0a 3d 60 9b 2a be e0 f4 25 bd
       0.06293339 0.033807255 -0.16660833 -0.040516734
000140 24 1c 05 3b c0 3e 81 3d 51 60 af 3d e9 6b 1e bc
       0.0020310963 0.06310797 0.08563293 -0.0096692825
000150 a6 b1 0b bd 01 80 a6 bd a7 50 0b bd e3 d5 bd bc
       -0.034104966 -0.081298836 -0.034012463 -0.023173278
000160 13 2a c1 bd 1d d4 a2 bd 8b 7e b6 bb 36 eb 39 bd
       -0.09431853 -0.07950614 -0.0055692843 -0.04539033
000170 5e 5b 59 bb 33 e2 97 3d ac 47 c8 bb 09 bb a0 bc
       -0.0033166031 0.07416191 -0.0061120596 -0.019620435
000180 b9 ec 41 3c 73 c8 22 bd 99 de c2 3d 80 ec 80 3c
       0.011836224 -0.039741945 0.095151134 0.015737772
000190 59 8a 49 bd f4 7e 8a bc cb 2f 80 bd b4 db 2a 3d
       -0.049204204 -0.01690624 -0.06259116 0.04171343
0001a0 9f b5 5c 3d cb 99 6b 3d 28 2a b4 3d 6c 20 8a bc
       0.053884145 0.057519715 0.08797103 -0.016861163
0001b0 74 e6 09 3c 70 c4 c8 3b 51 83 39 3d 4c 67 85 3d
       0.008416761 0.006126933 0.04529125 0.06513843
0001c0 ad 30 49 3c 65 33 5a 3c ab 1a 88 bc 95 7b 3f bd
       0.012279672 0.0133179175 -0.016614279 -0.046748716
0001d0 b4 82 d4 3c 7d af bd bd 2c 33 28 bd 9c 89 d9 3e
       0.02594123 -0.09261987 -0.041064426 0.424878
0001e0 1c 69 19 3d 28 5f d6 bd bd 6a 51 3c cc 09 b4 3d
       0.037453756 -0.10467368 0.012781796 0.08790931
0001f0 7a d5 50 bd af e0 dd 3b 30 e5 8c 3d c3 89 f9 bc
       -0.050984837 0.006771169 0.068796515 -0.030461198
000200 b4 59 9a be 21 2b a5 be 2d 45 5f bd a1 4f 82 bd
       -0.30146563 -0.32259467 -0.05450933 -0.06362844
000210 df 30 26 bd 16 85 97 3d d0 0b 0c 3c 15 d6 25 3c
       -0.04057395 0.07398431 0.008547738 0.010121842
000220 de 91 22 bd 78 9f f8 3d 52 9e af bd 9b 3f 3e 3d
       -0.03968989 0.12139791 -0.08575119 0.046447378
000230 b4 8f e8 3d c2 1a c9 3d 88 f2 b2 3d 8d 08 0b 3c
       0.11355534 0.09819557 0.087376654 0.008485925
000240 d8 fa 62 3e 49 d4 85 3b 89 78 0e 3c 15 b2 a4 3d
       0.22166002 0.0040841443 0.00869573 0.08041779
000250 36 5b b2 3c b0 65 3a 3d 54 35 56 3d 28 9d 50 3e
       0.021772008 0.045507133 0.05229695 0.2037245
000260 8c 30 17 bd 6e 2d fd 3c c7 8a af 3c 4c 7c b3 3d
       -0.036911532 0.030905452 0.021428479 0.08763942
000270 fd 75 1e bd 6c db 76 3c a8 68 09 bd c4 81 f4 bb
       -0.03868674 0.015066963 -0.033547074 -0.0074617583
000280 be 13 3e 3b 54 9b 00 bf a5 15 ff bb 08 01 15 3e
       0.0029003466 -0.5023701 -0.0077845627 0.14551175
000290 d9 84 bd 3d e6 7a 32 3e 2d bf 5a 3d f0 81 37 bb
       0.09253854 0.17429695 0.053404976 -0.0028001033
0002a0 2b 04 b6 3d ed 38 b8 bd ea 1b 20 3d 1e 84 ed bc
       0.08887514 -0.08995233 0.03908912 -0.028993662
0002b0 74 b6 ab bd 77 0c 82 3d 69 c2 7c 3c 5a 41 30 3d
       -0.083844095 0.06350034 0.01542721 0.043031074
0002c0 55 38 e9 bd 85 bd 0e 3d 80 36 5d bd 0e 63 b8 3c
       -0.113876976 0.03484871 -0.054007053 0.02250817
0002d0 99 81 03 3c 42 e9 7a bd ce 18 5c 3d df 16 e9 bd
       0.008026504 -0.06125761 0.053734593 -0.113813154
0002e0 aa 88 8f 3e d0 33 42 3d e8 2c 03 bc 90 d0 9d bd
       0.28033954 0.047412694 -0.008006312 -0.07705796
0002f0 33 4a 40 bc 6e d2 83 bc 0a 93 75 3d 4a 4b 85 3d
       -0.0117364405 -0.016091552 0.05995468 0.06508501
000300 e6 ff 8d be 49 82 4b bd 75 27 c2 3d 9f d1 f7 3d
       -0.27734298 -0.049684796 0.09480182 0.12100529
000310 b9 5b 86 3d 12 c2 54 bd 54 4c c8 39 cd 58 97 3c
       0.065604635 -0.051942892 0.00038203842 0.01847496
000320 16 a1 2d 3e 6d a2 14 3e 0c 67 d4 3c 9b 6a 48 3e
       0.1695598 0.14515086 0.025928043 0.19571917
000330 c5 aa a6 bd 50 96 59 bd 1b d0 d7 3d f9 90 e0 3d
       -0.081380405 -0.053121865 0.1053774 0.10965151
000340 ff 5f 30 be 2f ca 2c bc a6 85 13 3d ba bf 50 3d
       -0.1722412 -0.010546251 0.03601613 0.050964095
000350 4d d5 be bd 6f eb 6e bd f6 35 9e 3d 52 b1 a2 3d
       -0.09318028 -0.058329996 0.07725136 0.079439774
000360 2d 97 c6 bd 8d a8 18 bd e0 65 57 3d a6 0e 47 3d
       -0.09696803 -0.037270118 0.05258739 0.048597954
000370 18 d3 ad bc 97 6e c0 bc 48 ff 54 bd be 84 f0 3d
       -0.021218821 -0.023490233 -0.052001268 0.117440686
000380 cc d0 09 bd 6b 07 30 3e 6d ac d2 bc 07 d9 7f bd
       -0.03364639 0.1719033 -0.025716985 -0.062462833
000390 c1 19 d7 bc a8 ef a5 3c 8a 69 7b bd e5 9f d0 bc
       -0.026257398 0.020255879 -0.061379947 -0.025466869
0003a0 df 82 1b 3d e7 b6 6a 3d 49 e7 7b 3d d0 c3 73 bd
       0.037966605 0.057303336 0.061499868 -0.059512913
0003b0 52 6e 55 bd 26 11 5e bd 14 12 8e 3d 5d 60 8d 3d
       -0.052107163 -0.054215573 0.06937042 0.069031455
0003c0 21 04 f1 bd d0 83 09 bc 8b 25 1a 3d 38 83 b8 3c
       -0.11768366 -0.008393243 0.03763346 0.022523507
0003d0 80 b6 92 3c 6c c5 31 3c 86 69 9c bd 43 41 42 3d
       0.017909288 0.010850292 -0.076373145 0.04742552
0003e0 a0 97 67 bc ed 82 34 3c 16 1e 97 bb b9 19 9d bd
       -0.014135271 0.011017543 -0.004611741 -0.07670922
0003f0 a1 7e 9a 3c 42 6e 85 3c 0e 38 6e 3d 63 e4 fb bc
       0.01885921 0.016287927 0.058158927 -0.030748552

feature_extractor.6.bias f4 [64]
000000 fd 54 08 be a4 86 95 bd 14 c4 97 3b 74 af f2 bd
       -0.1331367 -0.07301071 0.0046315286 -0.11849871
000010 44 01 ab 3d e7 82 2c 3c cc 75 1d 3c e8 4e 52 bd
       0.08349851 0.010529256 0.0096106045 -0.051344782
000020 ac 5d 24 3e be ec 22 3e e5 19 d5 3d 4d e9 f4 3c
       0.16051358 0.15910622 0.104053296 0.029896403
000030 a5 db 4d be 05 12 0a 3e 3b af d3 3d ea f8 09 bd
       -0.20103319 0.13483436 0.10336157 -0.03368465
000040 89 d2 f8 3d 15 0e 2b 3c 91 df 11 3e 94 4b 97 bd
       0.121495314 0.010440369 0.1424544 -0.07387462
000050 fc 97 b1 3d 42 4a 1f bd 68 8c eb bc 76 83 eb 3d
       0.08671567 -0.038889177 -0.028753474 0.114996836
000060 2f e6 93 bd 02 68 75 3b c2 60 94 bd 1a 8a 94 3c
       -0.072216384 0.0037446027 -0.072450176 0.018132258
000070 c3 c4 c6 bc 64 51 f0 3d d1 34 3c 3e c9 be 13 bc
       -0.024263745 0.11734274 0.18379523 -0.009017655
000080 a6 05 48 bd 04 0b 86 3c 06 4d 85 bd b0 a2 e3 3b
       -0.04883351 0.016362675 -0.06508832 0.006946884
000090 ec 92 b1 bd 1f af a2 bd 68 06 ce bd c0 bc 51 3b
       -0.08670601 -0.07943558 -0.10059816 0.0032003373
0000a0 b1 86 99 3c 26 d5 8e 3e 26 f5 5a 3d 00 c5 b4 3d
       0.018740984 0.27896994 0.053456448 0.08826637
0000b0 85 4f 2e 3e 53 7e 01 bd da 97 3a ba d9 ef 78 3d
       0.17022522 -0.031614613 -0.00071179646 0.06077561
0000c0 ec 68 b3 3c 7d b9 9b bd ec e5 a1 3d d0 ca 72 3d
       0.021900617 -0.076037385 0.07905182 0.05927545
0000d0 ef 96 8c 3d ca e0 62 3c 11 09 90 bc 06 28 ee bc
       0.06864726 0.013847539 -0.017582448 -0.029071819
0000e0 5e 8e 90 3d 05 10 1a 3d 87 88 93 bd 6f 01 f8 bc
       0.070584044 0.037612934 -0.07203775 -0.030274121
0000f0 4c 6f c3 bd cd d6 f8 bc b0 86 14 bd 1d 6a d3 bc
       -0.095427126 -0.030375862 -0.03626126 -0.025807435

classifier.weight f4 [4, 64]
000000 14 42 93 3d 57 2f 7b 3d b5 00 1c ba 71 fb 37 3d
       0.07190338 0.061324444 -0.0005951033 0.044917528
000010 39 3e db 3d f2 7a 5d bd db 36 83 3c 29 b3 87 bd
       0.107052274 -0.054072328 0.016017368 -0.06625969
000020 4d d5 7b 3d 2f 8d 28 bd 47 d8 39 be 64 42 cb 3d
       0.061482716 -0.04115027 -0.1814891 0.099247724
000030 ad 02 21 3e f5 23 06 3d b3 41 52 bd aa 75 9b 3d
       0.15723677 0.032749135 -0.051332187 0.07590802
000040 2f 8f f5 3d 48 a8 06 39 09 bd 30 be ff 9a 1f bd
       0.11990201 0.00012841925 -0.17259611 -0.038966175
000050 b7 e0 77 3d 55 c1 af 3d d4 0d f5 3d 0a e7 be 3d
       0.06051704 0.08581797 0.11965528 0.09321411
000060 1f 79 70 bc e2 e3 ba 3d b9 97 dc bb 5c 41 39 bd
       -0.014677315 0.091254964 -0.006731954 -0.045228347
000070 16 1e dd bd 5c 3d 8a 3d 87 08 4a be f1 2c 4f 3d
       -0.10796754 0.067499846 -0.19729815 0.05057997
000080 e8 5c bc bc 03 0e fb 3d f0 aa 25 b9 7e 5b 7a bd
       -0.02299352 0.12258532 -0.00015799305 -0.06112241
000090 9c b3 bc bd 42 8b 73 3d e2 b2 ad 3c 03 6f ac 3d
       -0.09213945 0.05945898 0.021203462 0.08419611
0000a0 2f b9 6d bd e7 f6 8e bc 7e 12 81 be 4f 60 32 3e
       -0.058037933 -0.017451717 -0.2520942 0.17419551
0000b0 7d 34 d4 bd a9 7e 11 be ac e2 c3 3d 1a 3e 39 be
       -0.10361574 -0.14208473 0.095647186 -0.18090096
0000c0 81 b1 4d 3d 6d de 20 bc a8 d2 22 be 59 1c af bd
       0.05021811 -0.009818655 -0.15900671 -0.08550329
0000d0 17 4a ea 3d fc 6c 4c bd 52 7d a7 3d 7b f8 1a 3b
       0.11439913 -0.049908623 0.081782 0.002364664
0000e0 14 a0 09 be 18 6a 7b 3e b8 00 7d 3c 0e ea 91 3d
       -0.13439971 0.2455219 0.015442066 0.071247205
0000f0 37 79 76 3d b3 9c 8c 3d c9 06 59 3d bb ad ce 3c
       0.060174193 0.068658255 0.052984986 0.025229326
000100 b8 9e 1f bd 78 03 ca 3d cd 03 e5 be 94 39 52 bc
       -0.038969725 0.09863943 -0.44729462 -0.0128311105
000110 a1 13 1f bf 3a c8 5e c0 92 c2 bd bd 07 8e 13 be
       -0.62139326 -3.4809709 -0.09265627 -0.14409648
000120 c0 f9 1f bf d1 f5 e7 be 6c 3a 1d bf c9 16 88 3d
       -0.62490463 -0.4530473 -0.6141727 0.06644971
000130 83 2c 38 bd a9 22 12 bf 66 94 e7 be ce fe 34 be
       -0.044964325 -0.5708414 -0.45230407 -0.17675325
000140 ca d1 1d bf 86 f1 20 bd 5d 11 05 bf a7 39 81 3d
       -0.6164824 -0.039292835 -0.5197962 0.063098244
000150 f3 57 5f bf d3 59 14 3d 2b 89 97 3d 83 40 3c bf
       -0.87243575 0.036218476 0.073992096 -0.7353594
000160 a0 0a 8a 3d 69 a6 8c 3d 54 33 05 bd 95 27 b3 3c
       0.06740308 0.06867678 -0.032519653 0.02186946
000170 69 dd b9 3d b1 5a 4b bf f1 35 2a bf 3c 65 ae 3d
       0.09075434 -0.7943526 -0.6648856 0.08515403
000180 94 aa f3 3d e6 46 f4 be f8 38 5d bd df 2d 9b 3d
       0.118977696 -0.4771034 -0.054009408 0.075771086
000190 29 ab 5e 3d b0 91 e6 3d e0 58 4c bd e3 e6 51 bc
       0.05436245 0.112582564 -0.049889445 -0.012811395
0001a0 e5 4c a4 be 9c 58 bc c0 e3 2b 01 bf d1 18 18 bf
       -0.32089916 -5.8858166 -0.5045759 -0.59412867
0001b0 f9 01 da be 04 6d af 3c 93 bf 5b be 76 91 dd be
       -0.4257963 0.021414287 -0.21459799 -0.4327504
0001c0 4d cb a6 be c8 8e 88 bd 11 9e 4f be d6 c3 f7 be
       -0.3257698 -0.06667858 -0.20275141 -0.48391598
0001d0 31 ee 83 bf 02 fd 3c 3d 4f 4a 45 3d e5 24 a7 3d
       -1.0307065 0.046139725 0.04816657 0.08161334
0001e0 33 db 0d bf e3 4e 74 c0 03 05 87 bd 00 68 32 3c
       -0.55412596 -3.8173149 -0.06592753 0.010889053
0001f0 e0 6c cb bd 35 f1 b0 3d 3a 3f 8a 3d 28 8e 9a bd
       -0.09932876 0.086397566 0.06750341 -0.075466454
000200 43 5f 42 be 73 95 c8 3d e1 58 f3 be 38 bd dc 3a
       -0.18981652 0.0979413 -0.47528747 0.001684106
000210 40 28 2d bf 22 84 5d c0 bf 49 16 bb 8d 90 60 be
       -0.6763954 -3.4611897 -0.002293214 -0.21930142
000220 88 3b 28 bf fe 39 15 bf d0 7b 23 bf d2 99 e6 3d
       -0.6571584 -0.58291614 -0.638608 0.11259808
000230 7c c3 70 3c 8d 1e 37 bf 5a 4e 82 be 4c 16 9d be
       0.014695045 -0.7153099 -0.25450402 -0.30681074
000240 b8 af 5b bf 30 1c a4 3d 57 d7 14 bf e0 b7 d2 bb
       -0.85815 0.08013189 -0.5814108 -0.006430611
000250 3a 03 77 bf 45 93 13 bc 60 34 dd 3d 33 ba 4c bf
       -0.964893 -0.00900728 0.10801005 -0.7997162
000260 57 a6 d9 3d 9d aa 21 bc 96 c9 f2 3c 2d 88 d1 3d
       0.1062743 -0.0098673375 0.02963714 0.102310516
000270 8e 92 90 3b c2 d4 3d bf 93 75 41 bf 63 ac 98 bd
       0.004412002 -0.7415277 -0.7557003 -0.07454755
000280 d4 86 52 3d 64 ca 00 bf ae 75 be bd d7 e6 af 3d
       0.051398113 -0.50308824 -0.09299789 0.08588951
000290 da d4 cc bc 4b 9a b7 3d 4b de 44 be 77 cb 87 bb
       -0.02500384 0.08964976 -0.19225423 -0.004144128
0002a0 0f b8 73 be 86 69 bc c0 98 a4 05 bf f7 65 fc be
       -0.23800682 -5.8878813 -0.52204275 -0.49296543
0002b0 e2 f5 04 bf 95 20 4b bd 7b 38 68 be ee e9 ee be
       -0.5193769 -0.04959162 -0.22677796 -0.4666285
0002c0 86 0c cb be 60 ca c0 bd e4 88 29 be d9 b5 f8 be
       -0.39657992 -0.094136 -0.16556126 -0.4857624
0002d0 25 b4 89 bf 8a 9c a9 bd a2 82 a6 3d 97 fe 85 3d
       -1.0758101 -0.082818106 0.08130385 0.065427
0002e0 79 59 e5 be a7 ed 6d c0 d3 4b 82 bd d3 3b b6 3d
       -0.44794825 -3.7176301 -0.063621186 0.08898129
0002f0 65 91 40 3c 27 99 a4 3c 91 de 03 be 3a 89 98 bd
       0.011753415 0.02009256 -0.12877871 -0.07448049
000300 e0 b0 65 3c fb 83 7e 3d eb b7 69 3d b3 2f 94 3d
       0.014019221 0.062137585 0.057060163 0.072356604
000310 17 96 11 3e f1 f8 c0 bd 32 d7 86 bd bb 1c b6 bb
       0.14217411 -0.09422482 -0.06584014 -0.005557624
000320 a3 1f 2e 3e 11 ce 2c 3e 3d 68 09 3e 17 56 bf bd
       0.17004256 0.16875483 0.1341867 -0.09342592
000330 0b 66 be be 7e c8 c0 3d a5 d4 f9 3d 72 fb af bd
       -0.37187228 0.09413241 0.12198762 -0.08592881
000340 f6 d6 2c 3e a4 ea 51 bd 50 9d 05 3d 48 1c 32 bc
       0.16878876 -0.05124916 0.032620728 -0.010871001
000350 87 df 2b 3e 1c fc ea bd c8 5c f3 bd 04 fa a8 3d
       0.16784488 -0.11473867 -0.11882931 0.08250812
000360 3f 71 2a bd 1f 4f 4f bd bc 99 02 bd a5 5b 56 bc
       -0.041611906 -0.050612565 -0.031884894 -0.013083373
000370 d7 58 bd 3d fc 4b ea 3d f3 8b 15 3e 68 00 49 3c
       0.092454605 0.11440274 0.14604168 0.012268163
000380 30 2e 4f bc b3 61 ee bd c6 76 14 bd 56 df b7 bb
       -0.012645289 -0.116397284 -0.036246084 -0.0056113405
000390 8e 2e aa 3d 14 00 fc 3c 9b cf a6 bc f2 b9 86 bc
       0.08309661 0.030761756 -0.020362666 -0.016446088
0003a0 88 e3 02 be 57 99 28 bd d5 87 84 be 62 0b 78 3d
       -0.12782109 -0.04116186 -0.25884882 0.06055773
0003b0 d8 69 e1 3d 97 58 98 bd d2 b3 f2 bd b6 a8 f7 bd
       0.11006516 -0.07438772 -0.11850704 -0.12092726
0003c0 1b fb 1e bd 06 be f0 bb c6 ac b4 bd d0 9c 11 be
       -0.03881369 -0.0073468713 -0.088220164 -0.14219975
0003d0 5c e3 67 3e f9 fa 9c 3c 49 b1 43 3d f5 fa 99 3c
       0.22645324 0.019162642 0.047776494 0.018796423
0003e0 b6 01 19 be 89 8e 3d be f5 9e ad 3b 76 11 9d 3d
       -0.14942059 -0.18511404 0.00529849 0.07669346
0003f0 68 9d 91 b9 3e e7 16 3c 29 d3 1c bd 79 0e 5d 3c
       -0.00027773832 0.009210406 -0.038287316 0.01349222

classifier.bias f4 [4]
000000 fc 25 47 bd 44 8f d4 be ae 9d d9 be b4 ec 72 3e
       -0.04862021 -0.41515553 -0.42503113 0.23723108

exp_avg f4 [32, 5]
000000 39 ea dd 3a 45 50 8f 3a 61 8d f2 3c 3d 0c f3 3a
       0.0016930766 0.0010933956 0.02960843 0.0018543076
000010 e4 60 ff 3c 75 99 3a 3b 9f e4 c6 38 34 5a fb 3c
       0.03117413 0.0028472815 9.48396e-05 0.03068266
000020 65 62 3d 3b d2 8d 51 3d 32 a9 81 bb 77 73 e7 ba
       0.002889776 0.05116064 -0.003956937 -0.0017658313
000030 15 14 eb bc 2e d9 3a bb ba 20 2c bd bb ad 07 b9
       -0.0286961 -0.0028510797 -0.042023398 -0.00012939323
000040 f4 cd d1 38 7d fe cc b8 b9 99 9b 37 74 d8 19 39
       0.000100042584 -9.77488e-05 1.8549023e-05 0.00014671852
000050 00 00 00 00 00 00 00 00 00 00 00 00 00 00 00 00
       0.0 0.0 0.0 0.0
000060 00 00 00 00 19 e7 80 bb 61 d8 07 ba 96 88 42 3c
       0.0 -0.003933799 -0.0005182084 0.011873385
000070 2d df 5e 38 6b 55 80 3c ec aa 41 3b d0 a6 1f ba
       5.3136773e-05 0.01566573 0.002955134 -0.00060902257
000080 53 fd f9 3c 97 17 37 3b 25 f8 4a 3d 9f 5d 8a ba
       0.030516302 0.0027937645 0.049553055 -0.0010556466
000090 72 78 1a bb b3 a1 9b 3c b7 5a 00 3b 79 cb 13 3d
       -0.0023570326 0.018998003 0.001958532 0.03608272
0000a0 00 00 00 00 00 00 00 00 00 00 00 00 00 00 00 00
       0.0 0.0 0.0 0.0
0000b0 00 00 00 00 00 00 00 00 04 00 00 00 04 00 00 00
       0.0 0.0 6e-45 6e-45
0000c0 04 00 00 00 04 00 00 00 00 00 00 00 00 00 00 00
       6e-45 6e-45 0.0 0.0
0000d0 00 00 00 00 00 00 00 00 00 00 00 00 56 2e d1 ba
       0.0 0.0 0.0 -0.0015959244
0000e0 65 cf 03 bb ba 30 34 bc 75 f9 7b ba 5a 89 7a bc
       -0.002011263 -0.010997945 -0.0009612062 -0.015291536
0000f0 4f 10 12 3b 18 23 60 3b db 58 bc 3b 09 7b 05 3a
       0.0022287553 0.0034200605 0.005747897 0.0005091881
000100 47 d0 3b 3c 5e 8d 30 3b 75 64 c4 3a e7 50 e8 3b
       0.011463231 0.002693973 0.0014983552 0.0070897224
000110 74 32 3d 3a b1 ab dc 3b 1b 69 e6 3a 03 df 1d ba
       0.0007217296 0.0067343344 0.0017578931 -0.0006022306
000120 c8 ab 8f 3c 58 fa a5 3a 75 cf b5 3c d2 7c 6a bb
       0.017537966 0.0012663109 0.02219365 -0.0035779965
000130 49 ba 34 bb a2 ee 14 bd eb 00 58 bb a9 a6 6a bd
       -0.0027576855 -0.03636039 -0.0032959532 -0.057287846
000140 45 7b 89 ba 7a f1 07 ba 03 5a 12 ba f1 b0 0f ba
       -0.0010489008 -0.0005185824 -0.0005582871 -0.00054813834
000150 49 86 86 bb ce 7c 79 3b 66 54 10 3b e0 72 03 3d
       -0.0041053635 0.0038068774 0.0022022962 0.032091975
000160 b7 e3 38 3b 8b f3 51 3d 00 00 00 00 00 00 00 00
       0.00282119 0.05125765 0.0 0.0
000170 00 00 00 00 00 00 00 00 00 00 00 00 44 93 83 bb
       0.0 0.0 0.0 -0.004015358
000180 41 65 9a 3a 54 59 98 bd aa 48 e4 bb ee 05 da bd
       0.0011779444 -0.07438913 -0.00696667 -0.10645662
000190 c3 a7 0b b9 cd ec 09 b9 00 00 00 00 60 a1 ec b7
       -0.00013318569 -0.00013153553 0.0 -2.8208538e-05
0001a0 9f e8 f9 b9 f4 ec 3c 3b 0c 60 07 3b 58 be 31 3c
       -0.00047666297 0.0028827759 0.0020656614 0.010848604
0001b0 06 49 88 3a 67 8e 70 3c 00 00 00 00 00 00 00 00
       0.0010397739 0.014682389 0.0 0.0
0001c0 00 00 00 00 00 00 00 00 00 00 00 00 00 00 00 00
       0.0 0.0 0.0 0.0
0001d0 00 00 00 00 00 00 00 00 00 00 00 00 00 00 00 00
       0.0 0.0 0.0 0.0
0001e0 00 00 00 00 00 00 00 00 00 00 00 00 00 00 00 00
       0.0 0.0 0.0 0.0
0001f0 00 00 00 00 01 03 ac 3b 67 b2 79 3b c0 59 45 3c
       0.0 0.0052493815 0.003810072 0.012045324
000200 f0 e9 73 3a 5b ad bf 3c 00 00 00 00 00 00 00 00
       0.0009304574 0.023398092 0.0 0.0
000210 00 00 00 00 00 00 00 00 00 00 00 00 d7 41 29 3b
       0.0 0.0 0.0 0.0025826597
000220 ac d2 01 3b 5b 13 01 bc b8 a7 77 ba 5e 03 ad bc
       0.0019809408 -0.00787815 -0.0009447294 -0.02111977
000230 27 63 88 bb 25 9a e2 bb 4d a9 94 b7 41 f1 2d 3a
       -0.0041622105 -0.006915348 -1.7721812e-05 0.0006635376
000240 7e d5 b2 3b 22 10 9b ba 70 b1 47 3b 2e e8 0b bd
       0.005457579 -0.001183037 0.0030470751 -0.03415697
000250 70 81 3b bb 88 fb 0f bd 98 99 2c bb 43 a8 a5 bb
       -0.0028611086 -0.03515199 -0.0026336666 -0.0050554588
000260 bf 1c b2 bc 7c 92 94 ba d7 5a a9 bc a3 51 a0 3b
       -0.021742223 -0.001133516 -0.020673199 0.0048925444
000270 a9 0c b9 3b 75 8d d0 3a 7c 5d 55 39 34 83 85 3b
       0.005647261 0.0015911298 0.00020348089 0.0040744785
