shared_storage/models-scalers/latvia_best_MLPClassifier.ckpt (torch, 239880 bytes, 18 tensors)

feature_extractor.0.weight f4 [32, 5]
0	0x3dde4a9d	0.10854075
1	0xbe4bb8bf	-0.19894694
2	0x3e8f52ef	0.2799296
3	0x3ed244bc	0.41068065
4	0xbe9f0223	-0.31056318
5	0x3ecd9ab1	0.40157083
6	0x3dc81825	0.0977023
7	0x3eaf6135	0.3425385
8	0x3d9461df	0.0724523
9	0x3e6a6f33	0.22893982
10	0xbd293183	-0.041306984
11	0x3ebbcab7	0.36678097
12	0x3db3dfc3	0.087829135
13	0xbe3f8c37	-0.18705831
14	0x3e0b15a8	0.1358248
15	0xbe52fe2a	-0.20604768
16	0xbd56d1a2	-0.052446015
17	0xbe39ffb6	-0.18163952
18	0x3e97e4ef	0.2966685
19	0xbeb4bea7	-0.35301706
20	0xbe531e40	-0.20617008
21	0xbe015006	-0.12628183
22	0xbe89ace5	-0.2688972
23	0x3d2ce3c7	0.042209413
24	0xbee226f7	-0.44170353
25	0x3ed991f7	0.42494175
26	0xbeb74ea2	-0.3580218
27	0x3ebb9d30	0.36643362
28	0x3dc40f07	0.09573179
29	0xbdfde7e3	-0.123977445
30	0x3e924932	0.2857147
31	0x3da52543	0.08063748
32	0x3ebed0cf	0.37268683
33	0x3d78e81a	0.060768224
34	0xbe057eb9	-0.13036622
35	0x3e11736a	0.14204183
36	0xbdcae964	-0.09907797
37	0x3e575363	0.21027903
38	0x3ed7c2f5	0.42140928
39	0x3e8fb011	0.28064016
40	0xbe342de0	-0.17595625
41	0x3e8ef8d6	0.27924222
42	0x3dceb59e	0.100932345
43	0x3e7eb2ec	0.24872941
44	0xbe814961	-0.25251296
45	0xbee2a9a4	-0.4427005
46	0xbe30eebb	-0.17278568
47	0xbeafa0b7	-0.34302303
48	0x3ebbe1ad	0.36695614
49	0x3e03e72b	0.12881152
50	0x3e4e4d03	0.20146565
51	0x3e257041	0.16156103
52	0x3c15e803	0.009149554
53	0x3ebb2561	0.36551955
54	0xbea31331	-0.3185058
55	0x3d4d906c	0.05018656
56	0xbe90bb71	-0.28268006
57	0x3e23d7d2	0.16000298
58	0xbe06f976	-0.131811
59	0x3e22f97c	0.15915483
60	0xbdb2153c	-0.086954564
61	0x3ebdf256	0.3709895
62	0xbe91473e	-0.28374666
63	0xbe8c33de	-0.27383322
64	0xbe889147	-0.26673338
65	0x3ed803cd	0.421904
66	0x3e2ca28d	0.16858883
67	0x3ee61fc4	0.4494611
68	0xbeb31dda	-0.34983712
69	0xbed9316d	-0.4242052
70	0xbea7fda5	-0.32810703
71	0xbe8e76c6	-0.27824992
72	0x3e506db2	0.20354345
73	0x3e3b15e5	0.18270071
74	0x3ec9b39b	0.3939484
75	0xbe66ce0c	-0.22539538
76	0xbe993b65	-0.29928127
77	0x3e7b6a2b	0.24552219
78	0xbe2ff472	-0.17183092
79	0x3e8ecd40	0.27890968
80	0xbde6e3ba	-0.11273904
81	0x3e80ebe2	0.25179964
82	0xbeb4ea0d	-0.35334817
83	0xbe68066c	-0.226587
84	0x3e05993d	0.13046737
85	0x3dec6f31	0.115446456
86	0xbdbc32db	-0.091893874
87	0x3e93ac0f	0.28842208
88	0x3ea6e6cb	0.32597956
89	0xbe9ad330	-0.30239248
90	0xbe747bb2	-0.23875311
91	0x3ed1a985	0.40949646
92	0xbe1a86af	-0.1509044
93	0xbe225980	-0.15854454
94	0xbedd8dab	-0.43272147
95	0xbe6e218d	-0.23254986
96	0x3e0a4729	0.13503708
97	0xbd1194a0	-0.03554213
98	0xbe9a3c90	-0.3012433
99	0x3d0b62d4	0.034029797
100	0xbe9c6850	-0.30548334
101	0xbec2429f	-0.37941453
102	0xbe7c2c95	-0.24626382
103	0xbec86677	-0.39140674
104	0xbe91cbca	-0.2847579
105	0x3ee7a8f2	0.45246083
106	0x3daf5f1d	0.08563063
107	0x3e09c5a1	0.13454296
108	0xbed8a247	-0.42311308
109	0xbe96b426	-0.29434317
110	0xbe186e24	-0.14885765
111	0x3d8f3823	0.06993129
112	0xbec97a82	-0.3935128
113	0xbe455120	-0.19269228
114	0xbe891443	-0.2677327
115	0x3aa2717f	0.0012393444
116	0xbe2a6748	-0.16640961
117	0xbcfddec2	-0.030990008
118	0xbe9b28be	-0.3030452
119	0xbe9d2a8d	-0.30696526
120	0xbe85955e	-0.2609052
121	0xbe1cc105	-0.15308006
122	0xbeb4b96b	-0.35297713
123	0x3ebffcbd	0.37497512
124	0xbdb5c59c	-0.088755816
125	0x3ed13685	0.40861908
126	0x3e27191b	0.1631817
127	0xbec1e4da	-0.37869912
128	0x3eaaa72c	0.33330667
129	0xbdfc00da	-0.1230485
130	0xbe2f8afc	-0.17142862
131	0xbebe1064	-0.3712188
132	0xbee3a2e5	-0.44460216
133	0x3e0305ff	0.12795256
134	0xbdc81241	-0.09769107
135	0x3e35899f	0.1772828
136	0xbeba412f	-0.36377856
137	0x3eac26d6	0.3362338
138	0xbea59a1f	-0.32344148
139	0xbd965949	-0.073412485
140	0x3de17e64	0.11010435
141	0x3e7d3e8f	0.24730895
142	0x3ec15009	0.37756374
143	0x3ed916e4	0.42400277
144	0xbead2800	-0.3381958
145	0x3e09ae45	0.13445385
146	0xbe2e114f	-0.1699879
147	0xbcdbe7f8	-0.02684401
148	0xbe9ff972	-0.31245
149	0x3edbd7f6	0.42938203
150	0xbe9f4086	-0.31103915
151	0x3e8385a4	0.25687897
152	0x3e3393cc	0.17536849
153	0x3e28f3e5	0.16499288
154	0xbe668c35	-0.22514422
155	0x3edb65a0	0.4285097
156	0x3df63fe3	0.12023904
157	0x3da20597	0.079112224
158	0xbebecd19	-0.37265852
159	0x3e5696d4	0.20955974

feature_extractor.0.bias f4 [32]
0	0xbd4bdb1f	-0.049769517
1	0xbe458217	-0.19287907
2	0x3ecfc61b	0.4058083
3	0x3dcc3284	0.099705726
4	0xbe7d5f02	-0.24743274
5	0xbe522528	-0.20521986
6	0xbc3bbc1f	-0.011458426
7	0x3e8b116a	0.27161723
8	0xbdbf5f89	-0.09344394
9	0xbe82a57e	-0.25516886
10	0xbe0d7599	-0.13814391
11	0xbe9fbc0c	-0.31198156
12	0x3e236502	0.159565
13	0x3ebb388b	0.36566576
14	0xbecc27a5	-0.39873996
15	0x3de46d50	0.11153662
16	0x3e68729b	0.22699969
17	0x3dd1e6ac	0.10249075
18	0xbe23160b	-0.15926377
19	0x3e837b18	0.2567985
20	0x3e70a833	0.23501663
21	0x3e3064cc	0.17225951
22	0xbda0f12c	-0.078585
23	0xbdf2879d	-0.118422724
24	0x3d43f75c	0.047843322
25	0xbd61f22a	-0.055162586
26	0xbe0877f6	-0.13327011
27	0x3e947a1b	0.2899941
28	0x3ecd4d10	0.40097857
29	0xbcb746f8	-0.022372708
30	0xbda93263	-0.08261564
31	0x3ce69e84	0.028151758

feature_extractor.2.weight f4 [512, 32]
0	0x3c33b980	0.01096952
1	0x3d837861	0.06419445
2	0x3d922351	0.07135642
3	0xbe24697b	-0.16055863
4	0xbd859b1e	-0.06523727
5	0x3e2eb5d3	0.17061548
6	0x3db951cd	0.090488054
7	0x3c5366bd	0.012902913
8	0xbdad36f6	-0.084577486
9	0xbddd7f42	-0.10815288
10	0xbe1cf0ef	-0.15326284
11	0xbd111134	-0.035416797
12	0x3da78236	0.08179133
13	0x3e09993c	0.1343736
14	0x3dd3cbbf	0.10341596
15	0xbe09e960	-0.13467932
16	0xbdafc522	-0.08582522
17	0xbbc93bd1	-0.006141164
18	0x3e2f1be5	0.17100485
19	0x3d487f47	0.048949506
20	0xbd3b83cd	-0.045779992
21	0x3dc0c3a6	0.09412317
22	0xbd89e4d3	-0.06733098
23	0xbdea54e2	-0.11441971
24	0x3e041fab	0.12902705
25	0xbd6e5c8c	-0.05819373
26	0xbd112747	-0.03543785
27	0xbe1e1c57	-0.15440498
28	0x3e0f462e	0.13991615
29	0x3e1fba33	0.15598373
30	0x3db10b33	0.08644714
31	0xbdcf7049	-0.101288386
32	0xbe299934	-0.16562349
33	0xbdf8fa98	-0.12157172
34	0x3e1dbb06	0.15403375
35	0x3dadd11d	0.08487151
36	0x3e18541d	0.14875837
37	0x3dea0382	0.1142645
38	0x3d888313	0.066656254
39	0x3ca534f6	0.020166855
40	0xbe0bda62	-0.13657525
41	0xbe1b17a3	-0.15145735
42	0xbe2950f2	-0.16534784
43	0x3dbf84cd	0.093515016
44	0xbdb1bfd8	-0.086791694
45	0xbc59e489	-0.013299116
46	0xbda5f49a	-0.08103295
47	0xbc2ccef5	-0.010547389
48	0xbdd68caa	-0.10476048
49	0xbdc42c5b	-0.09578773
50	0x3d702f2d	0.05863874
51	0xbceee0bc	-0.029159896
52	0x3ddf808a	0.10913189
53	0xbd086381	-0.03329802
54	0xbe04ca34	-0.1296776
55	0xbcff82c7	-0.03119029
56	0xbdaf7f4f	-0.08569204
57	0xbd5d867e	-0.05408334
58	0xbe2c5461	-0.16829063
59	0x3df78425	0.120857514
60	0xbdcf7eb2	-0.10131587
61	0x3de3d5ee	0.11124788
62	0x3d99b8e7	0.075059704
63	0x3e186442	0.14881995
64	0xbde9ca57	-0.114155464
65	0x3e189a14	0.14902526
66	0xbd7cb5f6	-0.06169697
67	0x3d865766	0.06559639
68	0x3e29ff77	0.16601358
69	0xbb4f07be	-0.0031590308
70	0x3ca7190e	0.02039769
71	0xbc9abe78	-0.01888965
72	0xbe142d6b	-0.1447045
73	0x3dadbe4f	0.08483564
74	0xbe39dc7a	-0.18150511
75	0x3e0724a8	0.13197577
76	0x3de9b06c	0.11410603
77	0x3e413e32	0.18871382
78	0xbca10cc8	-0.019659415
79	0xbdfcc7c3	-0.12342789
80	0x3d5df551	0.05418903
81	0x3df41c00	0.11919403
82	0xbe342b8d	-0.17594738
83	0xbcaead7c	-0.021322958
84	0xbdd906ac	-0.10596976
85	0xb9dbbd17	-0.00041911818
86	0xbdb23348	-0.08701187
87	0xbd93fd5b	-0.07226058
88	0xbd65dd62	-0.05611933
89	0xbe40114f	-0.18756603
90	0x3e148719	0.1450466
91	0x3e2dd311	0.16975047
92	0xbbc81cc8	-0.0061069466
93	0x3b034404	0.0020029554
94	0xbd5f1929	-0.054467354
95	0xbe0cea21	-0.13761188
96	0xbe302870	-0.17202926
97	0x3d868e03	0.06570055
98	0xbdc6c6a4	-0.097058564
99	0xbde8bf0f	-0.113645665
100	0xbc61fab4	-0.013792682
101	0xbd712036	-0.05886861
102	0xbd6a410a	-0.057190932
103	0x3bba1faf	0.0056800465
104	0xbd1995f7	-0.037496533
105	0xbd794f0f	-0.06086641
106	0xbdad58a4	-0.084641725
107	0xbe135189	-0.14386572
108	0x3e17c938	0.14822853
109	0xbd90e21a	-0.070743755
110	0x3d3fdd9a	0.046842195
111	0xbd7b3aeb	-0.061335485
112	0x3c6b5b98	0.014365099
113	0x3e28c3b0	0.16480899
114	0x3da6cca7	0.08144503
115	0xbe1cdf0d	-0.15319462
116	0x3d8fb1b4	0.07016316
117	0x3e2bd4d0	0.167804
118	0x3d3e7e20	0.046507
119	0x3df2b83c	0.11851546
120	0x3e3276f7	0.17428194
121	0xbcdde638	-0.027087316
122	0x3d164915	0.03669079
123	0xbdfba12c	-0.122866005
124	0xbd15373c	-0.03642963
125	0x3e060f5b	0.13091795
126	0x3db998fd	0.09062383
127	0xbde51816	-0.11186235
128	0xbdfefaf1	-0.12450207
129	0xbdeed848	-0.11662346
130	0xbe38bc93	-0.18040685
131	0xbe0bae7c	-0.1364078
132	0xbd330ffc	-0.043716416
133	0x3e124cc6	0.14287099
134	0x3d0146f4	0.031561807
135	0xbe04e80c	-0.12979144
136	0xbe267924	-0.16257149
137	0x3db41af4	0.087942034
138	0xbe10ffe3	-0.14160113
139	0xbcae656a	-0.021288592
140	0x3dde93f8	0.108680665
141	0xbda4fd02	-0.0805607
142	0xbc99fd6d	-0.0187976
143	0x3bf71b97	0.0075411308
144	0xbc941630	-0.018076986
145	0xbdae046c	-0.08496937
146	0xbe215e1a	-0.15758553
147	0xbe23a57b	-0.15981095
148	0xbdc1db9b	-0.094657145
149	0x3e335e85	0.17516525
150	0xbdaedeb8	-0.08538574
151	0xbdf31e7d	-0.118710496
152	0x3d2f831c	0.042849645
153	0x3d94cb22	0.07265307
154	0x3dc65d51	0.096857674
155	0x3e138cda	0.144092
156	0x3dc7434f	0.09729635
157	0xbe337b19	-0.17527427
158	0xbb0be71f	-0.0021347476
159	0x3de99d5a	0.114069656
160	0x3bb6e748	0.00558177
161	0xbda90a6b	-0.0825394
162	0x3e42a56b	0.19008414
163	0xbd87699c	-0.0661194
164	0xbdce1fee	-0.10064684
165	0xbe0ce92c	-0.13760823
166	0x3cf236d4	0.02956716
167	0x3dccb2ef	0.099950664
168	0x3d7909f8	0.060800523
169	0x3d0f2fa4	0.034957543
170	0xbde3fed3	-0.11132588
171	0xbe1264c3	-0.1429625
172	0x3c55217d	0.0130084725
173	0x3e3b2d5d	0.18279023
174	0x3dfdd357	0.123938255
175	0xbda6782e	-0.08128391
176	0xbd29e288	-0.041475803
177	0xbdde10b9	-0.10843033
178	0xbdaea7eb	-0.085281216
179	0x3d4aab06	0.049479507
180	0x3dc524dd	0.09626172
181	0x3e291d88	0.16515172
182	0xbe2631e8	-0.16229975
183	0x3df21087	0.118195586
184	0xbdff57d0	-0.12467921
185	0x3d907887	0.07054239
186	0x3e192fcf	0.14959644
187	0x3cc4ac5e	0.024007972
188	0x3e3ae24d	0.1825039
189	0xbe043384	-0.12910277
190	0xbd38763c	-0.045034632
191	0x3dfef439	0.124489255
192	0xbd1dc0d0	-0.03851396
193	0xbd143803	-0.03618623
194	0xbd96e50b	-0.07367905
195	0x3df98e34	0.12185326
196	0x3db194c4	0.08670953
197	0x3d6807d7	0.0566481
198	0xbdcb73dc	-0.09934208
199	0xbe12f13f	-0.1434984
200	0x3c9ca220	0.019120276
201	0x3d56875f	0.052375194
202	0xbda72855	-0.081619896
203	0xbd4a985c	-0.049461707
204	0x3df4825d	0.11938927
205	0x3c66b819	0.014081978
206	0x3c02ad39	0.00797587
207	0xbd323222	-0.04350484
208	0xbe23ede3	-0.16008715
209	0xbe2a346c	-0.1662156
210	0xbdad0f58	-0.08450192
211	0xbdb80831	-0.089859374
212	0x3d6196c2	0.055075414
213	0xbd52c965	-0.051461596
214	0xbd8da335	-0.06915895
215	0x3e2c96d8	0.16854417
216	0x3d7c3673	0.061575364
217	0x3e010c92	0.12602451
218	0xbdaf447d	-0.08557985
219	0xbd93e17b	-0.07220741
220	0x3d851059	0.06497259
221	0xbdf137a5	-0.117781915
222	0xbdecaa88	-0.11555964
223	0xbc0be40b	-0.008538256
224	0xbd846b65	-0.064657964
225	0xbe07b3dd	-0.13252206
226	0x3dd6bf19	0.10485668
227	0x3e1191ac	0.14215726
228	0x3ceaecab	0.028677305
229	0xbcfc2498	-0.030779168
230	0xbe27ac5f	-0.16374348
231	0xbd83de56	-0.064388916
232	0x3d3856f5	0.045004804
233	0x3daab661	0.08335567
234	0xbcb71276	-0.02234767
235	0xbd8f220d	-0.069889165
236	0x3dc9bcc5	0.09850458
237	0xbe1029eb	-0.1407849
238	0x3de4d0a0	0.111726046
239	0xbd8c7464	-0.06858137
240	0x3b315113	0.002705638
241	0xbd0f16d4	-0.03493388
242	0x3caf92a0	0.021432221
243	0xbd5ad0a5	-0.053421635
244	0x3e039fc1	0.1285391
245	0xbb969776	-0.0045956923
246	0x3e0d4db8	0.13799179
247	0x3e2e0beb	0.16996734
248	0xbdb061c9	-0.08612401
249	0xbe040e25	-0.1289602
250	0x3e113b70	0.1418283
251	0x3e0dd96a	0.13852468
252	0xbe0a3782	-0.13497737
253	0xbc5fe4ed	-0.01366542
254	0xbe328207	-0.17432414
255	0xbe142ea9	-0.14470924

feature_extractor.2.bias f4 [512]
0	0x3e188498	0.1489433
1	0x3c0c17ff	0.008550643
2	0x3e1187b0	0.14211917
3	0xbdfa2295	-0.12213627
4	0x3e0c5acd	0.13706513
5	0x3c54cce6	0.012988305
6	0xbd624564	-0.055241957
7	0xbc6f1784	-0.014593009
8	0xbe0b9d72	-0.1363428
9	0xbd2f21c1	-0.0427568
10	0xbbc2f86b	-0.005950024
11	0xbe0605b1	-0.13088109
12	0x3dee704e	0.11642514
13	0x3e1fb619	0.15596808
14	0x3de2ce36	0.11074488
15	0xbdb1d7c4	-0.08683732
16	0xbdf0a4a2	-0.11750151
17	0xbdf331b8	-0.118747175
18	0xbdb7c5de	-0.08973287
19	0x3dbd23a0	0.092353106
20	0x3dd83c34	0.10558358
21	0xbd40ecbc	-0.047100767
22	0x3cb70a69	0.022343831
23	0xbce41bc0	-0.027845263
24	0x3cb8e1be	0.02256858
25	0xbe34034f	-0.17579387
26	0x3e08def8	0.13366306
27	0xbd2a3ede	-0.04156386
28	0xbe21099f	-0.15726326
29	0x3c858b48	0.016301766
30	0x3d2659f7	0.04061314
31	0x3dd48041	0.10376025
32	0xbd8da7a2	-0.06916739
33	0xbc5381d1	-0.012909369
34	0xbde682b0	-0.112553954
35	0xbe087672	-0.13326433
36	0xbe013965	-0.1261955
37	0xbde3648b	-0.111031614
38	0x3dcb1f48	0.09918076
39	0xbe306ac3	-0.17228226
40	0xbd1650e2	-0.03669823
41	0xbd59b84c	-0.053154275
42	0x3dd07563	0.1017864
43	0xbc3e396f	-0.011610373
44	0xbdebc51c	-0.11512205
45	0x3e0609e0	0.13089705
46	0xbdeb5f2b	-0.11492761
47	0xbd5fcc01	-0.054637913
48	0xbe20d4f0	-0.15706229
49	0xbc674859	-0.01411637
50	0x3d908f72	0.0705861
51	0x3e2c6470	0.16835189
52	0xbdfc320e	-0.12314235
53	0xbdf1a21f	-0.117985
54	0x3e4acfe8	0.19805872
55	0x3d5e89f0	0.054330766
56	0xbdf5575e	-0.119795546
57	0x3dc3bfa8	0.0955804
58	0x3e4452ce	0.19172212
59	0xbc04ddbb	-0.008109505
60	0xbdad48c5	-0.08461145
61	0xbde05d0a	-0.10955246
62	0xbd823a6a	-0.06358798
63	0x3d97bca3	0.074090265
64	0xbe001b91	-0.12510516
65	0x3e3c5a7f	0.18393897
66	0xbdb67c71	-0.08910454
67	0x3d72ea13	0.05930526
68	0x3e4c3736	0.19942936
69	0xbd67bd97	-0.05657729
70	0xbdfd63ac	-0.123725265
71	0xbdca582e	-0.098801
72	0xbdab2c82	-0.083580986
73	0xbdb50f9d	-0.088408686
74	0xbe1e2398	-0.15443265
75	0xbdc6f3a9	-0.09714443
76	0xbd22177e	-0.039573185
77	0x3e34844e	0.17628595
78	0xbd28e695	-0.041235525
79	0x3d261fd3	0.040557694
80	0xbd63397f	-0.055474754
81	0x3c444065	0.0119782435
82	0x3da3009e	0.07959102
83	0x3d52f9dd	0.05150782
84	0xbcb23cb7	-0.021757467
85	0x3b8bd806	0.0042676954
86	0x3e1abb4f	0.15110515
87	0xbdf1234b	-0.1177431
88	0x3e21e939	0.15811624
89	0xbd41902c	-0.047256634
90	0x3e171b8b	0.147566
91	0x3e195eaf	0.14977525
92	0x3af2d80d	0.0018527523
93	0x3b826c85	0.0039802217
94	0x3e1279b8	0.14304245
95	0xbcc93252	-0.024560127
96	0x3d83f713	0.0644361
97	0x3e3e38a1	0.1857629
98	0xbd0f58e0	-0.034996867
99	0xbd96b3b6	-0.07358496
100	0x3e207144	0.15668207
101	0x3e17d7ac	0.14828366
102	0x3e23dadf	0.16001461
103	0xbe2acb73	-0.16679172
104	0x3e0d77cf	0.13815235
105	0x3db23397	0.08701246
106	0xbdf22c1c	-0.118248194
107	0x3df233b0	0.11826265
108	0xbd953c53	-0.072868966
109	0x3de8325c	0.1133773
110	0x3d15dad6	0.03658565
111	0x3d2d990c	0.042382285
112	0xbdf24b42	-0.118307605
113	0xbd0bc4ff	-0.034123417
114	0xbdc57843	-0.09642079
115	0x3ddf5986	0.10905747
116	0xbe0dbbd1	-0.13841178
117	0x3c7799c0	0.01511234
118	0x3dba3037	0.090912275
119	0x3c70d508	0.014699228
120	0xbd81b0e9	-0.06332571
121	0x3d72ac9e	0.05924665
122	0x3d176eaa	0.03697077
123	0xbd9db977	-0.0770139
124	0xbd3795d0	-0.044820607
125	0xbd1e5eb2	-0.038664527
126	0xbda34c3c	-0.07973525
127	0x3ce3f165	0.027825067
128	0xbd1c515f	-0.03816354
129	0xbdccabd9	-0.09993715
130	0xbe12a926	-0.14322338
131	0xbdec133f	-0.115271084
132	0xbd1da31d	-0.038485635
133	0x3e10c8b4	0.14139062
134	0xbd0011fe	-0.03126716
135	0xbddc8a1a	-0.10768528
136	0xbde84641	-0.11341525
137	0x3cf6ed94	0.030142583
138	0x3e22dbc7	0.15904151
139	0xbe23e28f	-0.16004394
140	0x3e20b9e3	0.1569591
141	0x3e202b5e	0.15641543
142	0x3cac0d59	0.021002458
143	0x3dde641a	0.108589366
144	0x3d9342e2	0.07190491
145	0xbe087f9b	-0.13329928
146	0xbd583e90	-0.05279404
147	0xbd2982b3	-0.04138441
148	0xbdd7e4d9	-0.10541696
149	0xbc90a916	-0.017658751
150	0x3d59161d	0.052999604
151	0xbc281fdf	-0.010261505
152	0x3df01c8b	0.11724194
153	0xbdd55ac0	-0.104177
154	0x3e2bdfa6	0.16784534
155	0xbd508d0a	-0.050915755
156	0x3e260dff	0.16216277
157	0x3e3821dd	0.17981668
158	0xbe004a72	-0.12528399
159	0xbe19424b	-0.14966695
160	0x3e1ad68b	0.15120904
161	0x3e1d4a34	0.15360337
162	0x3b63c0d0	0.0034752376
163	0x3d6fbacb	0.05852775
164	0x3c07d9fc	0.008291718
165	0xbd79b74d	-0.060965825
166	0x3deb6e69	0.114956684
167	0x3da1b3b5	0.078956045
168	0xbe17d00b	-0.14825456
169	0xbd82b943	-0.06382992
170	0xbdd705c7	-0.10499149
171	0x3d82e1b0	0.06390703
172	0xbe34bd7a	-0.17650405
173	0xbe050e19	-0.12993659
174	0xbe19328f	-0.14960693
175	0xbd932d0c	-0.071863264
176	0xbe0b99ac	-0.1363284
177	0xbc65ce43	-0.014026227
178	0xbddcdc4d	-0.107842065
179	0x3df555e7	0.11979275
180	0x3e34cf1f	0.17657135
181	0x3da77271	0.08176125
182	0xbd8c7913	-0.068590306
183	0x3dbf83da	0.093513206
184	0xbe1b6f40	-0.15179157
185	0xbdb51462	-0.08841778
186	0xbd0a30cf	-0.033737954
187	0xbe293f74	-0.16528112
188	0x3e29bf6a	0.16576925
189	0x3e0b1c79	0.1358508
190	0x3dd46ce1	0.103723295
191	0x3dd5c6f9	0.10438342
192	0x3e4965f2	0.19667795
193	0xbd42df35	-0.047576148
194	0x3cf5d10a	0.030006904
195	0xbd157c71	-0.03649563
196	0xbd304c24	-0.043041363
197	0xbdfb5ed0	-0.122739434
198	0x3e01f069	0.12689365
199	0xbe0c383f	-0.13693331
200	0xbd974228	-0.07385665
201	0x3e202e3c	0.15642637
202	0xbdac097e	-0.08400248
203	0x3d2ba930	0.041909397
204	0xbe135801	-0.1438904
205	0xbda89b50	-0.082327485
206	0x3e337c9c	0.17528003
207	0x3d9ca1ec	0.07648072
208	0x3bf57155	0.007490317
209	0xbd8ba975	-0.06819431
210	0x3e1d4189	0.15357031
211	0x3e302eaa	0.17205301
212	0x3d5f2d26	0.054486416
213	0xbdc6afa7	-0.09701472
214	0xbb777f88	-0.0037765224
215	0x3dac6cfc	0.084192246
216	0x3d67fe95	0.056639273
217	0x3e36920b	0.17829148
218	0x3e15365e	0.1457152
219	0x3db1fa0e	0.08690272
220	0xbe03df2e	-0.12878105
221	0xbcb23793	-0.021755015
222	0x3d59cdcf	0.05317479
223	0xbd205eb3	-0.039152812
224	0x3d3e1ba0	0.046413064
225	0x3de0b242	0.109715
226	0xbdc7fec8	-0.097653925
227	0xbd7f8794	-0.062385157
228	0xbde8aad4	-0.11360708
229	0x3d42db9e	0.047572725
230	0x3dbbd660	0.09171748
231	0x3e375392	0.17902973
232	0xbbcb61e2	-0.006206737
233	0x3e0b871e	0.13625762
234	0xbe3d4929	-0.1848494
235	0x3c856cf9	0.016287314
236	0xbd089b23	-0.033351075
237	0xbda6b88e	-0.0814067
238	0x3e245557	0.1604818
239	0x3e0497a7	0.12948476
240	0xbe16da44	-0.14731699
241	0xbe2462d4	-0.16053325
242	0xbd7b6598	-0.061376184
243	0x3d75ca35	0.060007293
244	0x3dd47545	0.1037393
245	0x3da29d5b	0.079401694
246	0x3e0bef3c	0.1366548
247	0xbdbc22b7	-0.09186309
248	0x3d1ccfe3	0.038284194
249	0xbd6a405e	-0.05719029
250	0xbd80cbde	-0.062888846
251	0xbc6dc492	-0.014512198
252	0xbcc26e45	-0.023734221
253	0xbdf661b1	-0.12030352
254	0xbc9becac	-0.019033752
255	0x3d948398	0.07251662

classifier.weight f4 [4, 512]
0	0x3c731cd3	0.014838415
1	0x3d07ad71	0.03312439
2	0x3c9aa7c4	0.018878825
3	0xbc4c0dfa	-0.012454504
4	0xbc8e5cea	-0.01737829
5	0x3c950fac	0.01819595
6	0xbcf8bc91	-0.030363353
7	0xbd04a550	-0.032384217
8	0x3c6ded62	0.0145219285
9	0xbbdd7303	-0.006758095
10	0x3c943b30	0.018094629
11	0x3d1fdbca	0.039027967
12	0x3d50af7e	0.050948612
13	0x3d08b9a3	0.033380162
14	0x3d2b353f	0.041798826
15	0x3cf52549	0.029925006
16	0xbc53af7b	-0.012920256
17	0x3d810aaf	0.06300866
18	0xbc8ddded	-0.017317737
19	0xbc9461a8	-0.018112972
20	0xbd2dacaf	-0.042401012
21	0x3d7e8450	0.0621379
22	0x3d3548f2	0.04425902
23	0x3c4af120	0.01238659
24	0x3d35755a	0.04430137
25	0xbd2ce2b8	-0.042208403
26	0xbce7efa4	-0.028312512
27	0x3d0cab75	0.0343432
28	0xbbe93e1c	-0.0071179997
29	0x3d237fa8	0.039916664
30	0xbc9b8a8e	-0.018986966
31	0x3d5d9f3a	0.05410693
32	0xbca119a2	-0.019665543
33	0x3cb8840c	0.022523902
34	0x3d2be948	0.04197052
35	0xbcc226c7	-0.023700131
36	0x3d259a89	0.04043058
37	0x3cbca60b	0.023028394
38	0xbc1fa91f	-0.009744911
39	0xbbd241a6	-0.0064165173
40	0x3d0a8840	0.033821344
41	0x3bf985df	0.0076148356
42	0x3c995102	0.018715385
43	0x3ad805e8	0.0016481252
44	0x3d06c2ac	0.032900497
45	0xbc139247	-0.009007043
46	0x3d58f015	0.052963335
47	0x3d02f800	0.031974792
48	0x3c91447c	0.017732851
49	0xbca839c1	-0.020535352
50	0x3d229d9d	0.039701093
51	0x3b9387e2	0.0045022825
52	0x3d4ac20b	0.04950146
53	0x3cb9a33e	0.022660848
54	0x3d5b4baa	0.053538956
55	0x3c7f756a	0.015591959
56	0x3ceb4cd9	0.028723167
57	0x3d5d7281	0.054064278
58	0x3ca7ab4d	0.020467425
59	0x3c169b0d	0.00919224
60	0xbc3e3ce2	-0.011611195
61	0xbbc956a7	-0.006144363
62	0x3cd088ea	0.02545591
63	0xbc2d4dfc	-0.010577675
64	0xbcb20a9a	-0.02173357
65	0xbabe2194	-0.0014505857
66	0xbb2960a4	-0.0025844956
67	0xbd6e9333	-0.05824585
68	0xbc6c9cbe	-0.014441667
69	0x3d2a792d	0.04161947
70	0xbcc1fc33	-0.023679828
71	0x3c603d63	0.013686511
72	0xbcbeffa3	-0.023315256
73	0x3d242b31	0.040080253
74	0x3d30100c	0.042984053
75	0x3d02e7a2	0.031959184
76	0x3d856316	0.0651304
77	0x3be33e72	0.0069349343
78	0xba642a26	-0.00087037904
79	0x3cf7bbea	0.030240972
80	0x3c5953e4	0.01326463
81	0xbbd0a612	-0.0063674534
82	0xbc4f47be	-0.012651382
83	0xbd186760	-0.03720796
84	0x3c962c23	0.018331593
85	0x3d0c32e8	0.034228235
86	0xbb4af196	-0.003096675
87	0x3d191aad	0.037378956
88	0xbca61ddd	-0.020277912
89	0x3c461ac2	0.0120913405
90	0x3cface02	0.03061581
91	0xbd653497	-0.055958357
92	0x3d137d35	0.03600808
93	0xbcb1f0e7	-0.021721317
94	0x3d35b284	0.0443597
95	0x3ae94c01	0.001779914
96	0xbd46901e	-0.048477285
97	0x3d7235fb	0.05913351
98	0xbba129d3	-0.004918316
99	0x3c979475	0.018503407
100	0x3d770f8c	0.06031756
101	0xbced1891	-0.028942378
102	0x3d4eb579	0.050466035
103	0xbcb2a934	-0.021809198
104	0xbc89131d	-0.016732747
105	0x3cc95d85	0.024580726
106	0x383a2e90	4.438922e-05
107	0xbc9a9c09	-0.018873231
108	0xbb200748	-0.0024418402
109	0x3d445e01	0.04794121
110	0x3d1ce498	0.03830394
111	0x3c6ae7c4	0.014337484
112	0x3d017226	0.031603
113	0xbc5c8c9a	-0.013461256
114	0xbc9720e5	-0.018448303
115	0x3cdc6686	0.026904356
116	0x3d4a800e	0.04943853
117	0x3c5d5841	0.013509811
118	0x3c43eaa4	0.011957798
119	0x3d7fa326	0.06241145
120	0x3b70e0f6	0.003675518
121	0x3d743347	0.059619214
122	0x3c75857d	0.014985439
123	0x3d67af7d	0.056563843
124	0x3ced8f2d	0.028998936
125	0x3c46c0ff	0.012130975
126	0x3cf63daf	0.03005871
127	0xbd61d916	-0.05513867
128	0xbaaf2846	-0.0013363443
129	0xbccaba3c	-0.024747007
130	0xbbd534b0	-0.006506525
131	0xbcb51481	-0.022104504
132	0xbc6930c3	-0.014232817
133	0xbcf68068	-0.030090526
134	0xbcbec39d	-0.023286635
135	0x3ce07fcc	0.027404688
136	0x3d861132	0.065462485
137	0xbc92d503	-0.017923838
138	0xbc424f45	-0.01185972
139	0xbd09e873	-0.033668946
140	0x3b0babc6	0.0021312102
141	0xbcdb610f	-0.02677968
142	0x3cc129b5	0.023579458
143	0x3d459aab	0.048243206
144	0x3d544e98	0.051832765
145	0xbb23e89a	-0.0025010468
146	0xbc367acd	-0.011137676
147	0x3d2d83bd	0.042361964
148	0xbcdb0616	-0.0267363
149	0xbcd3ff90	-0.025878698
150	0xbc9e1c8d	-0.019300723
151	0xbbe5c71e	-0.007012262
152	0x3c4a5075	0.012348284
153	0xbcdce37c	-0.026963942
154	0x3d63f3ec	0.055652544
155	0xbbb12faa	-0.0054072933
156	0x3ca95acd	0.02067318
157	0x3d241777	0.04006144
158	0x3d2318c0	0.039818525
159	0x3d689f96	0.056792818
160	0x3c4c95e3	0.012486908
161	0x3d27c160	0.0409559
162	0x3c7c27cf	0.0153903505
163	0x3cd5def5	0.02610729
164	0xbcaa232d	-0.020768726
165	0x3caaaf67	0.020835591
166	0x3caaf815	0.020870248
167	0x3cde54f6	0.027140122
168	0x3c9188b3	0.017765379
169	0x3d068d62	0.032849677
170	0xbd2ed80f	-0.04268652
171	0x3cc2e3e3	0.023790305
172	0x3d0e02af	0.034670528
173	0x3d2dcf63	0.042434108
174	0x3bfc8d9f	0.0077073122
175	0xbcf3c505	-0.029757032
176	0xbc442725	-0.011972223
177	0xbc7d31cc	-0.015453767
178	0xbb96b567	-0.0045992616
179	0x3d5f2430	0.05447787
180	0x3c5ed6d4	0.013601024
181	0x3d36c236	0.044618808
182	0xbcb68061	-0.022278013
183	0xbb2bad64	-0.0026195878
184	0xbd1114ba	-0.035420157
185	0x3c89e3fc	0.016832344
186	0x3d0b1acd	0.033961106
187	0x3cb6d1eb	0.022316894
188	0x3d1c905a	0.038223602
189	0x3d3ad954	0.045617417
190	0xbca2dfd3	-0.019882118
191	0x3cb2c5dc	0.021822862
192	0x3d2f1119	0.042740915
193	0x3d4a5efb	0.049406987
194	0x3d08c689	0.033392463
195	0x3b146ca2	0.0022647758
196	0xbcab1c5c	-0.020887546
197	0x3d82dd19	0.06389827
198	0x3b81dcc2	0.003963084
199	0x3ccb1860	0.024791896
200	0xbb0efe95	-0.0021819223
201	0x3b073722	0.0020632227
202	0x3d11b49c	0.035572633
203	0x3d756c7d	0.059917916
204	0x3c180f94	0.009281058
205	0x3d1e09b2	0.038583465
206	0x3d182a4e	0.03714972
207	0x3b749f35	0.003732634
208	0x3c1013a4	0.008793745
209	0x3d08cdef	0.03339952
210	0x3d6d66f9	0.05795953
211	0xbd23679a	-0.039893724
212	0x3d55b095	0.052170355
213	0x3b30f975	0.0027004157
214	0x3ce6548b	0.028116485
215	0xbcb640ba	-0.02224766
216	0x3d405328	0.046954304
217	0x3d647c45	0.055782575
218	0xbc21bab0	-0.00987117
219	0xbc94bf1c	-0.018157534
220	0x3cdc57ab	0.026897272
221	0xbc9abf07	-0.018889917
222	0xbcaf05d7	-0.02136509
223	0x3d511588	0.051045924
224	0xbcb6b913	-0.022305047
225	0x3bc5c7bb	0.0060357726
226	0xbc609dd3	-0.013709503
227	0xbccaf421	-0.024774613
228	0xbb249875	-0.0025115286
229	0x3c984944	0.018589623
230	0xbca44160	-0.020050704
231	0xbc9e32d7	-0.019311352
232	0xbcbb6305	-0.022874365
233	0x3c9f795d	0.01946705
234	0x3ad42a60	0.0016186945
235	0x3d52d587	0.051473167
236	0xbd2d4955	-0.042306263
237	0xbd1e1d92	-0.03860242
238	0x393411ea	0.00017172811
239	0x3d82bd52	0.06383766
240	0x3d24e0c6	0.040253423
241	0xbbbb3f90	-0.0057143643
242	0x3bf82864	0.0075731743
243	0x3bc83412	0.006109723
244	0x3caea174	0.021317221
245	0xbc1e5554	-0.0096638985
246	0xbc9c78b1	-0.019100519
247	0x3c8d6aab	0.017262777
248	0x3c8f1e2e	0.017470445
249	0x3d40b23c	0.047044978
250	0xbc5bff43	-0.013427558
251	0x3bf1819f	0.0073701884
252	0x3d1ffc68	0.039059073
253	0x3d546eef	0.051863607
254	0x3d242acc	0.040079877
255	0x3b343b17	0.002750104

classifier.bias f4 [4]
0	0xbc3b12e4	-0.011418078
1	0xbc1651e3	-0.009174797
2	0x3c8db798	0.017299458
3	0x3b57f4bc	0.003295227

exp_avg f4 [32, 5]
0	0xba9ac4e8	-0.001180795
1	0xbaadc08c	-0.0013256236
2	0xbc485b8a	-0.012228856
3	0xbae471eb	-0.001742897
4	0xbbd223fc	-0.006412981
5	0xbb23c21a	-0.002498752
6	0xbb3feac2	-0.0029284214
7	0xbc9413c4	-0.018075831
8	0xbb1c26b8	-0.002382679
9	0xbc476917	-0.012171051
10	0xbb9ebf0e	-0.004844553
11	0xbb9df904	-0.0048209447
12	0xbcecc54a	-0.028902669
13	0xbb6cb956	-0.003612121
14	0xbca245be	-0.019808646
15	0x00000000	0.0
16	0x00000000	0.0
17	0x00000000	0.0
18	0x00000000	0.0
19	0x00000000	0.0
20	0x00000000	0.0
21	0x00000000	0.0
22	0x00000000	0.0
23	0x00000000	0.0
24	0x00000000	0.0
25	0xbaeaf34d	-0.0017925292
26	0xbaf1bc8b	-0.0018443031
27	0xbc405f99	-0.011741542
28	0xbac7a226	-0.0015230819
29	0xbbf97c4e	-0.007613695
30	0xbaba7b2a	-0.001422738
31	0xbb030c25	-0.0019996252
32	0xbc6681aa	-0.014069
33	0xbb038bfc	-0.002007245
34	0xbc0c0985	-0.0085471915
35	0xbb5f0d5f	-0.003403507
36	0xbb5cb791	-0.003367875
37	0xbcbd9895	-0.023144046
38	0xbb41b6cf	-0.0029558425
39	0xbc7ef56e	-0.015561445
40	0xb8f6b702	-0.00011764282
41	0xb921d7ae	-0.00015434503
42	0xbab5f45a	-0.0013882027
43	0xb9926310	-0.00027921097
44	0xb99aa3da	-0.00029495248
45	0x00000000	0.0
46	0x00000000	0.0
47	0x00000000	0.0
48	0x00000000	0.0
49	0x00000000	0.0
50	0x376b6be9	1.4032216e-05
51	0xb7eb5705	-2.8054705e-05
52	0x388dec4b	6.767417e-05
53	0x37c03c05	2.2916132e-05
54	0x37992d20	1.8260034e-05
55	0xbb04ea65	-0.0020281312
56	0xbb105cbe	-0.0022027935
57	0xbc7cdbc3	-0.015433255
58	0xbb0bac2c	-0.002131234
59	0xbc2244e5	-0.009904121
60	0xb8790cfa	-5.937831e-05
61	0xb7c58c3a	-2.3549528e-05
62	0x39657da8	0.00021885952
63	0x36bf1211	5.694347e-06
64	0x00000000	0.0
65	0xbb658419	-0.0035021363
66	0xbb5b5650	-0.0033468194
67	0xbca3dba4	-0.020002194
68	0xbb2502da	-0.0025178702
69	0xbc58e797	-0.013238809
70	0xbb003dba	-0.0019568042
71	0xbb39291c	-0.0028253263
72	0xbc941405	-0.018075952
73	0xbb2d6b56	-0.0026461682
74	0xbc3a241f	-0.011361151
75	0xbab5015f	-0.0013809613
76	0xbaea1627	-0.0017859385
77	0xbc5ab5b6	-0.013348987
78	0xbaf3e168	-0.0018606605
79	0xbc0ca517	-0.008584282
80	0xb8e28155	-0.0001080061
81	0xb9390341	-0.00017644187
82	0xb97716e0	-0.00023564277
83	0xb83a9dae	-4.4492706e-05
84	0xb97716e0	-0.00023564277
85	0xbacb0d2d	-0.0015491598
86	0xbb1e5df2	-0.0024164882
87	0xbca776c2	-0.02044237
88	0xbb472a61	-0.003039025
89	0xbc4089f1	-0.011751638
90	0x00000000	0.0
91	0x00000000	0.0
92	0x00000000	0.0
93	0x00000000	0.0
94	0x00000000	0.0
95	0xbad8dd4a	-0.0016545441
96	0xbab7c443	-0.0014020283
97	0xbbd58681	-0.0065162783
98	0xba268c6f	-0.00063533237
99	0xbbb60907	-0.0055552754
100	0x00000000	0.0
101	0x00000000	0.0
102	0x00000000	0.0
103	0x00000000	0.0
104	0x00000000	0.0
105	0xbabbf68b	-0.0014340443
106	0xba64a957	-0.00087227434
107	0xbb823c9a	-0.0039745094
108	0xb9b7234a	-0.00034930772
109	0xbb4847a9	-0.003056029
110	0x00000000	0.0
111	0x00000000	0.0
112	0x00000000	0.0
113	0x00000000	0.0
114	0x00000000	0.0
115	0x00000000	0.0
116	0x00000000	0.0
117	0x00000000	0.0
118	0x00000000	0.0
119	0x00000000	0.0
120	0x00000000	0.0
121	0x00000000	0.0
122	0x00000000	0.0
123	0x00000000	0.0
124	0x00000000	0.0
125	0xb8e9dd93	-0.00011151577
126	0xb8ecd4b9	-0.000112929796
127	0x00000000	0.0
128	0xb787d508	-1.6192454e-05
129	0x00000000	0.0
130	0x00000000	0.0
131	0x00000000	0.0
132	0x00000000	0.0
133	0x00000000	0.0
134	0x00000000	0.0
135	0xbada7171	-0.0016665888
136	0xbade3ad8	-0.0016954793
137	0xbc41e438	-0.011834197
138	0xbace5d0a	-0.001574428
139	0xbbf8470c	-0.007576829
140	0xbb59e335	-0.0033246998
141	0xbb4ccda0	-0.0031250492
142	0xbcaf6f72	-0.021415446
143	0xbb349483	-0.002755434
144	0xbc63685b	-0.013879861
145	0xbb1b98c1	-0.0023742171
146	0xbb32b208	-0.002726676
147	0xbc9148cd	-0.01773491
148	0xbb1e9e92	-0.0024203402
149	0xbc3b59bf	-0.011434971
150	0xb9d1d20a	-0.00040020078
151	0xba0085d6	-0.00049027556
152	0xbb9cdd25	-0.0047871047
153	0xba4a1d37	-0.0007710042
154	0xbb03c56a	-0.0020106682
155	0xbb303b58	-0.002689084
156	0xbb1a67f1	-0.002356049
157	0xbc56863c	-0.013093527
158	0xbac37dc9	-0.0014914806
159	0xbc1ba8c6	-0.009500688

exp_avg_sq f4 [32, 5]
0	0x3387321d	6.295543e-08
1	0x3370d412	5.607223e-08
2	0x36b90f48	5.5152086e-06
3	0x33e788e4	1.0781676e-07
4	0x35c26b1a	1.4485297e-06
5	0x34a44803	3.0599776e-07
6	0x34a87694	3.1378715e-07
7	0x376703c2	1.3769548e-05
8	0x3474a90f	2.2785774e-07
9	0x36c7250e	5.934976e-06
10	0x35a3dbf9	1.2208467e-06
11	0x3592340d	1.0892996e-06
12	0x383a6e83	4.4448778e-05
13	0x35386343	6.8689786e-07
14	0x37a91b75	2.0159156e-05
15	0x00000000	0.0
16	0x00000000	0.0
17	0x00000000	0.0
18	0x00000000	0.0
19	0x00000000	0.0
20	0x00000000	0.0
21	0x00000000	0.0
22	0x00000000	0.0
23	0x00000000	0.0
24	0x00000000	0.0
25	0x34572c6e	2.0039599e-07
26	0x341603a5	1.3971164e-07
27	0x36fb46a3	7.488606e-06
28	0x33fb2019	1.1693937e-07
29	0x364ef9d5	3.0841813e-06
30	0x3404b81c	1.2360437e-07
31	0x34223184	1.510544e-07
32	0x3707a55e	8.08513e-06
33	0x34231708	1.5188937e-07
34	0x36498008	3.0025858e-06
35	0x351e178d	5.889386e-07
36	0x34fc844a	4.703491e-07
37	0x37c85765	2.3882554e-05
38	0x34c8ea8d	3.742356e-07
39	0x3734cf36	1.0777081e-05
40	0x2f9a95f5	2.8118988e-10
41	0x3005352b	4.8460674e-10
42	0x33319d06	4.1353836e-08
43	0x30df4c7f	1.6247127e-09
44	0x30fdb30f	1.8459064e-09
45	0x00000000	0.0
46	0x00000000	0.0
47	0x00000000	0.0
48	0x00000000	0.0
49	0x00000000	0.0
50	0x2f016c22	1.1770898e-10
51	0x2e8ec3e4	6.4922095e-11
52	0x31f49ffc	7.1195227e-09
53	0x2e90a1a7	6.577077e-11
54	0x2d507b9a	1.1850876e-11
55	0x34571de9	2.0034317e-07
56	0x34354b33	1.6884296e-07
57	0x3732e207	1.0662253e-05
58	0x344e9224	1.923841e-07
59	0x369275d7	4.3648574e-06
60	0x2f18f013	1.3909611e-10
61	0x2f128523	1.3325922e-10
62	0x30a3fb6f	1.1931273e-09
63	0x2cc67723	5.6407253e-12
64	0x00000000	0.0
65	0x350a2b70	5.1472216e-07
66	0x34e4c89c	4.2614272e-07
67	0x37931220	1.7532206e-05
68	0x349200e0	2.7195256e-07
69	0x36f31a2c	7.245011e-06
70	0x3456d47f	2.0007609e-07
71	0x3486afdc	2.50874e-07
72	0x375bc648	1.3099583e-05
73	0x348a5420	2.5765712e-07
74	0x36ada461	5.174938e-06
75	0x33f0c79f	1.1212182e-07
76	0x3404504f	1.2322674e-07
77	0x36f2f477	7.2406215e-06
78	0x340ee3ff	1.3307725e-07
79	0x36490785	2.995571e-06
80	0x2fe7c5d9	4.2159234e-10
81	0x30760b7d	8.9510604e-10
82	0x30fe6607	1.850993e-09
83	0x2e54d1d4	4.8389584e-11
84	0x30fe6607	1.850993e-09
85	0x34547b11	1.978881e-07
86	0x34859aaa	2.4885713e-07
87	0x37a575ae	1.9724332e-05
88	0x34d89dd1	4.0347962e-07
89	0x36da7782	6.510819e-06
90	0x00000000	0.0
91	0x00000000	0.0
92	0x00000000	0.0
93	0x00000000	0.0
94	0x00000000	0.0
95	0x3398ca90	7.1148975e-08
96	0x33729a29	5.6485224e-08
97	0x35a157be	1.2020971e-06
98	0x3255240c	1.2406428e-08
99	0x3563530f	8.4684956e-07
100	0x00000000	0.0
101	0x00000000	0.0
102	0x00000000	0.0
103	0x00000000	0.0
104	0x00000000	0.0
105	0x336abc93	5.4653878e-08
106	0x32dc03a6	2.561303e-08
107	0x356e1839	8.869716e-07
108	0x3241d91a	1.1283442e-08
109	0x34b6fd40	3.4084405e-07
110	0x00000000	0.0
111	0x00000000	0.0
112	0x00000000	0.0
113	0x00000000	0.0
114	0x00000000	0.0
115	0x00000000	0.0
116	0x00000000	0.0
117	0x00000000	0.0
118	0x00000000	0.0
119	0x00000000	0.0
120	0x00000000	0.0
121	0x00000000	0.0
122	0x00000000	0.0
123	0x00000000	0.0
124	0x00000000	0.0
125	0x2f98e615	2.7812122e-10
126	0x2f9ccd07	2.8521915e-10
127	0x00000000	0.0
128	0x2cce515e	5.8639057e-12
129	0x00000000	0.0
130	0x00000000	0.0
131	0x00000000	0.0
132	0x00000000	0.0
133	0x00000000	0.0
134	0x00000000	0.0
135	0x341ae2c3	1.4424863e-07
136	0x3407173b	1.2581306e-07
137	0x36d93e0b	6.4743267e-06
138	0x33e74055	1.0768478e-07
139	0x362f2a58	2.610168e-06
140	0x34fb660c	4.6826642e-07
141	0x34c49afa	3.6620605e-07
142	0x379f34e2	1.8978903e-05
143	0x34a41ae3	3.0566943e-07
144	0x36fd653f	7.551774e-06
145	0x349fc26e	2.9757524e-07
146	0x34a3dad5	3.0520337e-07
147	0x376ca6ac	1.41055025e-05
148	0x3483033c	2.4403005e-07
149	0x36d3aa70	6.3081316e-06
150	0x31e9f357	6.808857e-09
151	0x3217393d	8.802371e-09
152	0x35709181	8.9618703e-07
153	0x32beaf33	2.2198583e-08
154	0x341fc418	1.4879367e-07
155	0x34b3c9d6	3.3488203e-07
156	0x348c09ef	2.608426e-07
157	0x3720207f	9.544309e-06
158	0x340dc18f	1.3202065e-07
159	0x36994afb	4.568484e-06

exp_avg f4 [32]
0	0xbb5d3b50	-0.0033757277
1	0xbbb7da0d	-0.0056107105
2	0xbc2d145b	-0.010563935
3	0x00000000	0.0
4	0x00000000	0.0
5	0xbb83fdf8	-0.004028078
6	0xbb793619	-0.003802663
7	0xbc0549a2	-0.008135231
8	0xb9e4002a	-0.0004348767
9	0x00000000	0.0
10	0x38a00635	7.630551e-05
11	0xbbaf02e7	-0.005340922
12	0xb8458c3a	-4.7099056e-05
13	0xbbec982f	-0.00722029
14	0xbbc44dc3	-0.005990715
15	0xbb8ac9ec	-0.0042354967
16	0xb9b90342	-0.00035288377
17	0xbbb1e1a0	-0.005428508
18	0x00000000	0.0
19	0xbb68b223	-0.0035506568
20	0x00000000	0.0
21	0xbb2f3d7d	-0.002673953
22	0x00000000	0.0
23	0x00000000	0.0
24	0x00000000	0.0
25	0xb96cd4b9	-0.00022585959
26	0x00000000	0.0
27	0xbb84e8c8	-0.00405607
28	0xbbfaadb5	-0.007650102
29	0xbbba3d6a	-0.0056835907
30	0xbaa7e05d	-0.0012807954
31	0xbba9b4f6	-0.005179043

exp_avg_sq f4 [32]
0	0x3501032b	4.8060855e-07
1	0x35d9c956	1.6226356e-06
2	0x36d777a0	6.4214255e-06
3	0x00000000	0.0
4	0x00000000	0.0
5	0x358437cf	9.851009e-07
6	0x3557b5ef	8.035849e-07
7	0x3660e250	3.3510332e-06
8	0x3191151e	4.222456e-09
9	0x00000000	0.0
10	0x307c31ce	9.174784e-10
11	0x35ac6062	1.284305e-06
12	0x30128523	5.330369e-10
13	0x3625c966	2.4704145e-06
14	0x35c774e2	1.4860673e-06
15	0x3565655b	8.545664e-07
16	0x31760b7c	3.580424e-09
17	0x35f8f37d	1.8548304e-06
18	0x00000000	0.0
19	0x34c2ff0a	3.632088e-07
20	0x00000000	0.0
21	0x345b7390	2.0438006e-07
22	0x00000000	0.0
23	0x00000000	0.0
24	0x00000000	0.0
25	0x309ccd07	1.1408766e-09
26	0x00000000	0.0
27	0x3562b077	8.444835e-07
28	0x362e3de0	2.5964036e-06
29	0x35e44588	1.700756e-06
30	0x3393eb7d	6.888056e-08
31	0x35cc6451	1.522838e-06

exp_avg f4 [512, 32]
0	0xb94849e7	-0.00019101017
1	0xbaa9a038	-0.0012941426
2	0xba6fe6d0	-0.000915152
3	0x00000000	0.0
4	0x00000000	0.0
5	0xba0831f5	-0.00051954325
6	0xba59e74f	-0.0008312361
7	0xbab87f14	-0.0014075958
8	0xb77c3574	-1.5032816e-05
9	0x00000000	0.0
10	0x36149d5f	2.214532e-06
11	0xb931873f	-0.00016930418
12	0xb6da5b94	-6.5075674e-06
13	0xba622510	-0.00086267386
14	0xba013417	-0.00049287215
15	0xba698ba7	-0.00089090544
16	0xb75ecff0	-1.3280645e-05
17	0xb9abdbcf	-0.00032779432
18	0x00000000	0.0
19	0xb8765e10	-5.8738573e-05
20	0x00000000	0.0
21	0xb902b8f0	-0.0001246666
22	0x00000000	0.0
23	0x00000000	0.0
24	0x00000000	0.0
25	0xb6bea7d1	-5.6819777e-06
26	0x00000000	0.0
27	0xba52cc68	-0.0008041323
28	0xba7dd7bf	-0.0009683333
29	0xba0be43a	-0.00053364376
30	0xb84507d6	-4.6975758e-05
31	0xba3dcfcb	-0.00072407414
32	0x38936bd0	7.029588e-05
33	0xba2341c4	-0.00062277564
34	0xba0b0302	-0.00053028774
35	0x00000000	0.0
36	0x00000000	0.0
37	0xb90a1eb5	-0.00013172145
38	0xb9a9de16	-0.0003239966
39	0xba27ef31	-0.0006406187
40	0x33edb2ac	1.1068673e-07
41	0x00000000	0.0
42	0x00000000	0.0
43	0xb7d4babe	-2.5359328e-05
44	0x00000000	0.0
45	0xb9d6308a	-0.00040853425
46	0xb88d8d23	-6.749693e-05
47	0xb9b0aeb7	-0.0003369951
48	0xb62be504	-2.561429e-06
49	0x36e47a48	6.809165e-06
50	0x00000000	0.0
51	0xb8515de1	-4.9916915e-05
52	0x00000000	0.0
53	0xb9171a84	-0.0001441036
54	0x00000000	0.0
55	0x00000000	0.0
56	0x00000000	0.0
57	0x00000000	0.0
58	0x00000000	0.0
59	0xb9b37b8b	-0.00034233587
60	0xb9a91f4f	-0.0003225752
61	0xb9ca1a92	-0.0003854824
62	0x380a7cb1	3.3017892e-05
63	0xba095430	-0.000523868
64	0xb93422f0	-0.00017179153
65	0xba8d10d0	-0.0010762457
66	0xba35e85f	-0.0006939228
67	0x00000000	0.0
68	0x00000000	0.0
69	0xb9e96a05	-0.00044520214
70	0xba33db99	-0.00068610307
71	0xba94a88f	-0.0011341738
72	0x35c2d408	1.4515836e-06
73	0x00000000	0.0
74	0x3604dbc1	1.9797446e-06
75	0xb9303231	-0.00016803366
76	0x3601ac6d	1.9322863e-06
77	0xba2622de	-0.0006337593
78	0xba03dfdd	-0.00050306116
79	0xba4640cc	-0.0007562756
80	0x359ed125	1.1832786e-06
81	0xb993cfcd	-0.0002819285
82	0x00000000	0.0
83	0xb7cdc15f	-2.452795e-05
84	0x00000000	0.0
85	0xb8011dc5	-3.078372e-05
86	0x00000000	0.0
87	0x00000000	0.0
88	0x00000000	0.0
89	0x35d28f29	1.5687884e-06
90	0x00000000	0.0
91	0xba22c036	-0.0006208451
92	0xba499ada	-0.0007690616
93	0xb9d56a2b	-0.00040705627
94	0xb818d20b	-3.643524e-05
95	0xba0c745e	-0.0005357916
96	0x00000000	0.0
97	0x00000000	0.0
98	0x00000000	0.0
99	0x00000000	0.0
100	0x00000000	0.0
101	0x00000000	0.0
102	0x00000000	0.0
103	0x00000000	0.0
104	0x00000000	0.0
105	0x00000000	0.0
106	0x00000000	0.0
107	0x00000000	0.0
108	0x00000000	0.0
109	0x00000000	0.0
110	0x00000000	0.0
111	0x00000000	0.0
112	0x00000000	0.0
113	0x00000000	0.0
114	0x00000000	0.0
115	0x00000000	0.0
116	0x00000000	0.0
117	0x00000000	0.0
118	0x00000000	0.0
119	0x00000000	0.0
120	0x00000000	0.0
121	0x00000000	0.0
122	0x00000000	0.0
123	0x00000000	0.0
124	0x00000000	0.0
125	0x00000000	0.0
126	0x00000000	0.0
127	0x00000000	0.0
128	0xb791ff80	-1.7404323e-05
129	0xb700168b	-7.634643e-06
130	0x36b92f5e	5.518944e-06
131	0x00000000	0.0
132	0x00000000	0.0
133	0xb80d9fae	-3.3765733e-05
134	0xb710479c	-8.599742e-06
135	0xb7756919	-1.4627608e-05
136	0x37132017	8.769354e-06
137	0x00000000	0.0
138	0x360c33af	2.089171e-06
139	0xb58905f6	-1.020903e-06
140	0xb79246a0	-1.7437444e-05
141	0xb7777843	-1.4750348e-05
142	0xb5bd4e3c	-1.4104367e-06
143	0xb79a9e35	-1.8431901e-05
144	0xb793a579	-1.760082e-05
145	0xb742444a	-1.1579201e-05
146	0x00000000	0.0
147	0x36ece475	7.059944e-06
148	0x00000000	0.0
149	0xb73901da	-1.102729e-05
150	0x00000000	0.0
151	0x00000000	0.0
152	0x00000000	0.0
153	0xb77f9e9d	-1.5236114e-05
154	0x00000000	0.0
155	0xb7be16a5	-2.266031e-05
156	0xb6f4c30e	-7.294474e-06
157	0x00000000	0.0
158	0x36f5b185	7.322235e-06
159	0xb6dbd0e8	-6.5510285e-06
160	0xb96f6033	-0.00022828653
161	0xba8387c9	-0.0010034974
162	0xba2a6af6	-0.0006500924
163	0x00000000	0.0
164	0x00000000	0.0
165	0xb9f59a55	-0.00046845028
166	0xba3580ac	-0.00069237757
167	0xba8f601d	-0.0010938678
168	0xb787e410	-1.6199454e-05
169	0x00000000	0.0
170	0xb6399240	-2.7652277e-06
171	0xb92fc3ce	-0.00016762243
172	0xb5345562	-6.7179474e-07
173	0xba33cd23	-0.0006858876
174	0xba0508e2	-0.0005074871
175	0xba3e0fa7	-0.0007250257
176	0x36bee48b	5.689047e-06
177	0xb9b70f8f	-0.00034916072
178	0x00000000	0.0
179	0xb7c34b45	-2.3280862e-05
180	0x00000000	0.0
181	0xb895aeae	-7.13741e-05
182	0x00000000	0.0
183	0x00000000	0.0
184	0x00000000	0.0
185	0xb50da6fd	-5.2769593e-07
186	0x00000000	0.0
187	0xba297bff	-0.0006465315
188	0xba5980c2	-0.00082970795
189	0xb9b73a40	-0.0003494788
190	0xb8833578	-6.256526e-05
191	0xb9f339d0	-0.00046391645
192	0x00000000	0.0
193	0x00000000	0.0
194	0x00000000	0.0
195	0x00000000	0.0
196	0x00000000	0.0
197	0x00000000	0.0
198	0x00000000	0.0
199	0x00000000	0.0
200	0x00000000	0.0
201	0x00000000	0.0
202	0x00000000	0.0
203	0x00000000	0.0
204	0x00000000	0.0
205	0x00000000	0.0
206	0x00000000	0.0
207	0x00000000	0.0
208	0x00000000	0.0
209	0x00000000	0.0
210	0x00000000	0.0
211	0x00000000	0.0
212	0x00000000	0.0
213	0x00000000	0.0
214	0x00000000	0.0
215	0x00000000	0.0
216	0x00000000	0.0
217	0x00000000	0.0
218	0x00000000	0.0
219	0x00000000	0.0
220	0x00000000	0.0
221	0x00000000	0.0
222	0x00000000	0.0
223	0x00000000	0.0
224	0x00000000	0.0
225	0x00000000	0.0
226	0x00000000	0.0
227	0x00000000	0.0
228	0x00000000	0.0
229	0x00000000	0.0
230	0x00000000	0.0
231	0x00000000	0.0
232	0x00000000	0.0
233	0x00000000	0.0
234	0x00000000	0.0
235	0x00000000	0.0
236	0x00000000	0.0
237	0x00000000	0.0
238	0x00000000	0.0
239	0x00000000	0.0
240	0x00000000	0.0
241	0x00000000	0.0
242	0x00000000	0.0
243	0x00000000	0.0
244	0x00000000	0.0
245	0x00000000	0.0
246	0x00000000	0.0
247	0x00000000	0.0
248	0x00000000	0.0
249	0x00000000	0.0
250	0x00000000	0.0
251	0x00000000	0.0
252	0x00000000	0.0
253	0x00000000	0.0
254	0x00000000	0.0
255	0x00000000	0.0

exp_avg_sq f4 [512, 32]
0	0x31175dc1	2.2026685e-09
1	0x33b84410	8.580548e-08
2	0x33343b1f	4.1963286e-08
3	0x00000000	0.0
4	0x00000000	0.0
5	0x327286ec	1.4116932e-08
6	0x331dd141	3.6744726e-08
7	0x33dee5a7	1.0379454e-07
8	0x2d35777a	1.0315188e-11
9	0x00000000	0.0
10	0x2a002e4e	1.1384749e-13
11	0x30b80d5b	1.3391558e-09
12	0x2bdaad36	1.5537907e-12
13	0x332c0300	4.00496e-08
14	0x325b8b26	1.2779116e-08
15	0x333803fd	4.2844466e-08
16	0x2d25b708	9.419805e-12
17	0x31ccb86d	5.958148e-09
18	0x00000000	0.0
19	0x2eec9106	1.0757799e-10
20	0x00000000	0.0
21	0x3083b4f8	9.582939e-10
22	0x00000000	0.0
23	0x00000000	0.0
24	0x00000000	0.0
25	0x2b9d8c3e	1.1194446e-12
26	0x00000000	0.0
27	0x331d7588	3.6661305e-08
28	0x335e0b4a	5.169867e-08
29	0x325fa1fd	1.301714e-08
30	0x2ef70c17	1.1234407e-10
31	0x32d0f660	2.4326425e-08
32	0x2fa50eb3	3.002377e-10
33	0x3302cb16	3.045269e-08
34	0x329c1b72	1.817327e-08
35	0x00000000	0.0
36	0x00000000	0.0
37	0x314cb5ae	2.978918e-09
38	0x3231b7c8	1.0344543e-08
39	0x3319f2f3	3.584405e-08
40	0x263b9adc	6.508853e-16
41	0x00000000	0.0
42	0x00000000	0.0
43	0x2fb9c178	3.3788772e-10
44	0x00000000	0.0
45	0x3254182c	1.234552e-08
46	0x31572ca9	3.1312004e-09
47	0x32605bd5	1.3059396e-08
48	0x2b662716	8.1766657e-13
49	0x3062b946	8.248161e-10
50	0x00000000	0.0
51	0x2ea882b6	7.6629744e-11
52	0x00000000	0.0
53	0x302a9bcb	6.2067035e-10
54	0x00000000	0.0
55	0x00000000	0.0
56	0x00000000	0.0
57	0x00000000	0.0
58	0x00000000	0.0
59	0x323a9489	1.0860398e-08
60	0x325f12e0	1.29846e-08
61	0x3206d62c	7.848524e-09
62	0x2e047e07	3.012526e-11
63	0x326a100a	1.36242395e-08
64	0x30d02e6d	1.5147187e-09
65	0x3363595a	5.293382e-08
66	0x32bfc4a0	2.2324741e-08
67	0x00000000	0.0
68	0x00000000	0.0
69	0x3220ee1a	9.367364e-09
70	0x32c03bfd	2.2379021e-08
71	0x33838e95	6.1260984e-08
72	0x2b856df6	9.480739e-13
73	0x00000000	0.0
74	0x29cdeb37	9.144632e-14
75	0x30a19d22	1.1758952e-09
76	0x2a035a26	1.1666414e-13
77	0x32b048a1	2.0522124e-08
78	0x323f039e	1.1118486e-08
79	0x32ea5941	2.7281773e-08
80	0x2a7a7446	2.2244801e-13
81	0x3189c48c	4.0095696e-09
82	0x00000000	0.0
83	0x2dd93a77	2.4696007e-11
84	0x00000000	0.0
85	0x2f20543b	1.458184e-10
86	0x00000000	0.0
87	0x00000000	0.0
88	0x00000000	0.0
89	0x298c2508	6.223673e-14
90	0x00000000	0.0
91	0x32ad600c	2.0183528e-08
92	0x32ff833c	2.9745586e-08
93	0x31f04efb	6.9938983e-09
94	0x2e7daa45	5.767677e-11
95	0x32563484	1.246838e-08
96	0x00000000	0.0
97	0x00000000	0.0
98	0x00000000	0.0
99	0x00000000	0.0
100	0x00000000	0.0
101	0x00000000	0.0
102	0x00000000	0.0
103	0x00000000	0.0
104	0x00000000	0.0
105	0x00000000	0.0
106	0x00000000	0.0
107	0x00000000	0.0
108	0x00000000	0.0
109	0x00000000	0.0
110	0x00000000	0.0
111	0x00000000	0.0
112	0x00000000	0.0
113	0x00000000	0.0
114	0x00000000	0.0
115	0x00000000	0.0
116	0x00000000	0.0
117	0x00000000	0.0
118	0x00000000	0.0
119	0x00000000	0.0
120	0x00000000	0.0
121	0x00000000	0.0
122	0x00000000	0.0
123	0x00000000	0.0
124	0x00000000	0.0
125	0x00000000	0.0
126	0x00000000	0.0
127	0x00000000	0.0
128	0x2d0b43d5	7.916297e-12
129	0x2ca3c863	4.654986e-12
130	0x2d57279b	1.2230129e-11
131	0x00000000	0.0
132	0x00000000	0.0
133	0x2ddfb5bf	2.5432876e-11
134	0x2d2589df	9.409778e-12
135	0x2d67c6f0	1.3175003e-11
136	0x2be74759	1.643334e-12
137	0x00000000	0.0
138	0x2a0fb5af	1.2763986e-13
139	0x29eab137	1.04224294e-13
140	0x2ce7ca7a	6.5878943e-12
141	0x2e245be7	3.737091e-11
142	0x2a5ffa95	1.9893317e-13
143	0x2d06f50d	7.67143e-12
144	0x2cf057af	6.830945e-12
145	0x2d0e7b50	8.099146e-12
146	0x00000000	0.0
147	0x2bcd4acc	1.4586886e-12
148	0x00000000	0.0
149	0x2d2af8a2	9.718589e-12
150	0x00000000	0.0
151	0x00000000	0.0
152	0x00000000	0.0
153	0x2cad78dd	4.9303743e-12
154	0x00000000	0.0
155	0x2da35b92	1.857162e-11
156	0x2e0b5f67	3.1689675e-11
157	0x00000000	0.0
158	0x2bb8b939	1.3125396e-12
159	0x2c5607bb	3.041552e-12
160	0x3127a6ee	2.4396587e-09
161	0x33593457	5.0571852e-08
162	0x32b7e96d	2.1410154e-08
163	0x00000000	0.0
164	0x00000000	0.0
165	0x32390f20	1.0771856e-08
166	0x32cf9f19	2.417032e-08
167	0x33839057	6.126418e-08
168	0x2d1138aa	8.254878e-12
169	0x00000000	0.0
170	0x2aa02ad4	2.8451427e-13
171	0x30acc463	1.2570464e-09
172	0x28bc75d4	2.0923293e-14
173	0x32d19f9a	2.440338e-08
174	0x324ee088	1.2041831e-08
175	0x32e8ea0d	2.7114789e-08
176	0x2b858973	9.488368e-13
177	0x31cbc4eb	5.9304646e-09
178	0x00000000	0.0
179	0x2de3a2f3	2.5879276e-11
180	0x00000000	0.0
181	0x2fb38259	3.2652528e-10
182	0x00000000	0.0
183	0x00000000	0.0
184	0x00000000	0.0
185	0x289a47ec	1.7128626e-14
186	0x00000000	0.0
187	0x32c130db	2.2490374e-08
188	0x331785ba	3.527905e-08
189	0x31ca6e09	5.8914833e-09
190	0x2f1a6708	1.4042822e-10
191	0x3235caef	1.0581728e-08
192	0x00000000	0.0
193	0x00000000	0.0
194	0x00000000	0.0
195	0x00000000	0.0
196	0x00000000	0.0
197	0x00000000	0.0
198	0x00000000	0.0
199	0x00000000	0.0
200	0x00000000	0.0
201	0x00000000	0.0
202	0x00000000	0.0
203	0x00000000	0.0
204	0x00000000	0.0
205	0x00000000	0.0
206	0x00000000	0.0
207	0x00000000	0.0
208	0x00000000	0.0
209	0x00000000	0.0
210	0x00000000	0.0
211	0x00000000	0.0
212	0x00000000	0.0
213	0x00000000	0.0
214	0x00000000	0.0
215	0x00000000	0.0
216	0x00000000	0.0
217	0x00000000	0.0
218	0x00000000	0.0
219	0x00000000	0.0
220	0x00000000	0.0
221	0x00000000	0.0
222	0x00000000	0.0
223	0x00000000	0.0
224	0x00000000	0.0
225	0x00000000	0.0
226	0x00000000	0.0
227	0x00000000	0.0
228	0x00000000	0.0
229	0x00000000	0.0
230	0x00000000	0.0
231	0x00000000	0.0
232	0x00000000	0.0
233	0x00000000	0.0
234	0x00000000	0.0
235	0x00000000	0.0
236	0x00000000	0.0
237	0x00000000	0.0
238	0x00000000	0.0
239	0x00000000	0.0
240	0x00000000	0.0
241	0x00000000	0.0
242	0x00000000	0.0
243	0x00000000	0.0
244	0x00000000	0.0
245	0x00000000	0.0
246	0x00000000	0.0
247	0x00000000	0.0
248	0x00000000	0.0
249	0x00000000	0.0
250	0x00000000	0.0
251	0x00000000	0.0
252	0x00000000	0.0
253	0x00000000	0.0
254	0x00000000	0.0
255	0x00000000	0.0
