service-1/model.ckpt (torch, 16287 bytes, 9 tensors)

feature_extractor.0.weight f4 [100, 5]
0	0x3da7322b	0.08163866
1	0xbe5fdc92	-0.21861485
2	0x3e86049d	0.26175395
3	0x3ece12d6	0.40248746
4	0xbea422a2	-0.32057673
5	0x3ec2a0b9	0.38013247
6	0x3daaa290	0.083317876
7	0x3ea8f8c5	0.33002296
8	0x3d8d5726	0.06901388
9	0x3e64d23d	0.22345825
10	0xbd8150e0	-0.06314254
11	0x3eb08328	0.34475064
12	0x3d876090	0.06610215
13	0xbe55c9ad	-0.20877714
14	0x3de975b0	0.113994
15	0xbe52fe2a	-0.20604768
16	0xbd56d1a0	-0.052446008
17	0xbe39ffb6	-0.18163952
18	0x3e97e4f0	0.29666853
19	0xbeb4bea7	-0.35301706
20	0xbe531e40	-0.20617008
21	0xbe015006	-0.12628183
22	0xbe89ace6	-0.26889724
23	0x3d2ce3c8	0.042209417
24	0xbee226f7	-0.44170353
25	0x3ed37659	0.4130123
26	0xbec1a50c	-0.37821233
27	0x3eb1a276	0.3469426
28	0x3d86929f	0.065709345
29	0xbe1cbf06	-0.15307245
30	0x3e891a19	0.26777723
31	0x3d8e3d57	0.069452934
32	0x3eb8e058	0.3610866
33	0x3d6ae440	0.057346582
34	0xbe086728	-0.13320601
35	0x3de49c72	0.11162652
36	0xbdf9f257	-0.12204426
37	0x3e3ff152	0.187444
38	0x3ed09f95	0.4074675
39	0x3e882e9e	0.26598066
40	0xbe4833a4	-0.1955095
41	0x3e842da0	0.2581606
42	0x3da3e098	0.08001822
43	0x3e688fb8	0.22711074
44	0xbe8b8f78	-0.27257895
45	0xbee2a9a4	-0.4427005
46	0xbe30eeba	-0.17278567
47	0xbeafa0b7	-0.34302303
48	0x3ebbe1ac	0.3669561
49	0x3e03e72c	0.12881154
50	0x3e4de5a4	0.20107132
51	0x3e150923	0.14554267
52	0xbb70bafd	-0.0036732547
53	0x3eaa0fc5	0.33215156
54	0xbeaab166	-0.3333847
55	0x3d1c6e51	0.038191143
56	0xbe9acc10	-0.30233812
57	0x3e102e7c	0.14080232
58	0xbe27766f	-0.16353773
59	0x3e03a432	0.12855604
60	0xbdbed190	-0.093173146
61	0x3ebde89c	0.3709153
62	0xbe87b684	-0.26506436
63	0xbe888f2b	-0.26671728
64	0xbe889148	-0.2667334
65	0x3ec9becc	0.3940338
66	0x3e185a59	0.14878215
67	0x3edc3356	0.43007916
68	0xbeb8ebe9	-0.36117485
69	0xbedf6654	-0.43632758
70	0xbeb323f5	-0.3498837
71	0xbe9a0723	-0.3008357
72	0x3e397ca0	0.18113947
73	0x3e23facc	0.1601364
74	0x3ebe4272	0.3716007
75	0xbe6c7ecc	-0.23095244
76	0xbe9c1806	-0.30487078
77	0x3e72f9fc	0.23728174
78	0xbe391aa8	-0.18076575
79	0x3e8af82a	0.2714246
80	0xbde09711	-0.10966314
81	0x3e87ca0f	0.26521346
82	0xbead195d	-0.33808413
83	0xbe635b1a	-0.22202721
84	0x3e0fc3ad	0.14039488
85	0x3dafe059	0.08587713
86	0xbdea6efa	-0.11446948
87	0x3e884122	0.26612192
88	0x3ea00577	0.3125417
89	0xbea20434	-0.31643832
90	0xbe72ec00	-0.2372284
91	0x3ecec7f2	0.4038692
92	0xbe2049e7	-0.15653192
93	0xbe204711	-0.1565211
94	0xbedd6880	-0.4324379
95	0xbe87d41b	-0.2652901
96	0x3dfe1a99	0.12407417
97	0xbd3f29ed	-0.046670843
98	0xbea367ee	-0.3191523
99	0x3c9a5b8f	0.018842487
100	0xbe9c6850	-0.30548334
101	0xbec2429e	-0.3794145
102	0xbe7c2c95	-0.24626382
103	0xbec86677	-0.39140674
104	0xbe91cbca	-0.2847579
105	0x3ee15a71	0.44014314
106	0x3db0f1c0	0.0863986
107	0x3e0f1919	0.13974418
108	0xbed21b6f	-0.41036555
109	0xbe931b23	-0.2873164
110	0xbe1e5018	-0.15460241
111	0x3d99168e	0.07475005
112	0xbec702e0	-0.3886938
113	0xbe46addc	-0.1940226
114	0xbe88c691	-0.26713994
115	0xbbf34137	-0.0074235457
116	0xbe2b6497	-0.1673759
117	0xbd02e4bb	-0.031956416
118	0xbe970131	-0.29493096
119	0xbe994d03	-0.29941568
120	0xbe85955e	-0.2609052
121	0xbe1db205	-0.1539994
122	0xbeb531ef	-0.3538966
123	0x3ebe6e34	0.37193453
124	0xbdb8c46b	-0.09021839
125	0x3ec0a395	0.37624803
126	0x3e0de71d	0.13857694
127	0xbec2495c	-0.37946594
128	0x3ea2a61e	0.31767362
129	0xbdecb6b5	-0.11558286
130	0xbe2f8afc	-0.17142862
131	0xbebe1064	-0.3712188
132	0xbee3a2e5	-0.44460216
133	0x3e030600	0.12795258
134	0xbdc81240	-0.09769106
135	0x3e3bd9b3	0.18344764
136	0xbebae65e	-0.3650388
137	0x3eab01b6	0.33399743
138	0xbeac8c16	-0.33700627
139	0xbdae9f8f	-0.08526527
140	0x3dd1e2c1	0.10248328
141	0x3e6e0c1c	0.23246807
142	0x3eb9ab12	0.3626333
143	0x3ecc25f9	0.3987272
144	0xbeb99053	-0.36242923
145	0x3dd5fb4c	0.10448322
146	0xbe4508db	-0.1924166
147	0xbd48f9c1	-0.04906631
148	0xbea767cc	-0.32696378
149	0x3ed43999	0.41450194
150	0xbea80e1c	-0.32823265
151	0x3e6e4792	0.2326949
152	0x3e1a7853	0.15084963
153	0x3e1b4862	0.1516433
154	0xbe7122ca	-0.23548427
155	0x3ecbb0c7	0.39783308
156	0x3dc7e8d0	0.09761202
157	0x3d68ec74	0.056866124
158	0xbec58db9	-0.38584688
159	0x3e48342b	0.1955115
160	0xbd8b5160	-0.068026304
161	0xbe554570	-0.2082727
162	0x3ec2f036	0.3807389
163	0x3dd1651f	0.102243654
164	0xbe785bdd	-0.24253793
165	0xbe67c8df	-0.2263522
166	0xbcaef4e0	-0.021357
167	0x3e7fb320	0.24970675
168	0xbdea0ab0	-0.1142782
169	0xbe82a57e	-0.25516886
170	0xbe21ffde	-0.15820262
171	0xbea957d4	-0.3307482
172	0x3e26c0c0	0.16284466
173	0x3eb3d844	0.35125935
174	0xbed535b5	-0.41642538
175	0x3ded490c	0.11586198
176	0x3e72e69e	0.23720786
177	0x3db2bcae	0.08727394
178	0xbe301035	-0.17193682
179	0x3e62a303	0.22132497
180	0x3e67d33f	0.22639178
181	0x3e2a3f08	0.16625607
182	0xbda2ed6d	-0.079554416
183	0xbde162b6	-0.11005156
184	0x3d635d75	0.05550905
185	0xbda226af	-0.079175346
186	0xbe08aaea	-0.13346449
187	0x3e92430d	0.2856678
188	0x3ec4afaa	0.3841527
189	0xbd34b588	-0.044118434
190	0xbdce4ed9	-0.10073633
191	0x3c160edb	0.009158815
192	0xbcc52c97	-0.024069114
193	0x3dd3350d	0.10312853
194	0x3dfb7e64	0.122799665
195	0xbed24aa8	-0.41072583
196	0xbe2d949d	-0.16951223
197	0x3ebe88f2	0.37213856
198	0x3e374add	0.17899652
199	0xbc9b4b59	-0.018956827
200	0xbe8a0ca2	-0.26962763
201	0xbe8bb9e5	-0.27290264
202	0xbeccbeed	-0.39989415
203	0xbe11d05b	-0.14239638
204	0x3e1cbc37	0.15306173
205	0x3e96cdfc	0.2945403
206	0x3e558824	0.20852715
207	0xbec9599e	-0.39326185
208	0xbe8e46a2	-0.27788264
209	0xbda0fed7	-0.07861107
210	0x3ed9853d	0.42484465
211	0x3d856cff	0.0651493
212	0xbdec4143	-0.11535885
213	0x3e452619	0.19252814
214	0xbe274b0d	-0.16337223
215	0xbe94020f	-0.2890782
216	0x3ea534e8	0.32266927
217	0xbe5410cb	-0.20709531
218	0xbdb29168	-0.0871914
219	0xbee32ab5	-0.4436852
220	0x3e94f40a	0.29092437
221	0x3ead26fc	0.33818805
222	0x3e263f0c	0.16234988
223	0xbe9b7b85	-0.30367675
224	0xbede2464	-0.4338714
225	0xbeb9f7a4	-0.36321747
226	0x3eaabed8	0.33348727
227	0x3e5bdce4	0.21470982
228	0x3ec0ae9e	0.37633222
229	0x3e6fe78c	0.23428172
230	0x3dd66a10	0.104694486
231	0xbba692fc	-0.00508344
232	0xbeae7f01	-0.3408127
233	0xbec0141d	-0.37515345
234	0xbed25c81	-0.410862
235	0x3e44c590	0.19215989
236	0xbe5f4860	-0.21804953
237	0xbdb53788	-0.08848482
238	0xbe882b66	-0.2659561
239	0xbdb745c7	-0.08948856
240	0xbea128d1	-0.31476453
241	0xbe93ae3f	-0.28843877
242	0x3e1bc647	0.15212356
243	0xbe0ccf5e	-0.1375098
244	0x3e8c1a93	0.27364025
245	0xbe12e9d0	-0.14347005
246	0xbea7f7a4	-0.32806122
247	0xbda19968	-0.07890588
248	0xbe5dfd0d	-0.21678562
249	0xbe0c1ade	-0.13682124
250	0xbed9fb4c	-0.42574537
251	0x3e801bc8	0.25021195
252	0xbe9f698c	-0.31135213
253	0x3e662c10	0.22477746
254	0x3e4fcf1c	0.2029385
255	0x3e9fc457	0.31204483

feature_extractor.0.bias f4 [100]
0	0x3e49ffe3	0.1972652
1	0xbeacbc18	-0.33737254
2	0xbe75c83e	-0.24002168
3	0xbdc93b74	-0.09825793
4	0xbda8d240	-0.08243227
5	0x3d397894	0.045281008
6	0xbed66c4c	-0.418795
7	0x3e0656d1	0.13119055
8	0xbeaead69	-0.34116676
9	0xbe90e1b6	-0.28297204
10	0xbeb5c3bc	-0.35500896
11	0x3ecc401a	0.39892656
12	0xbed8d2f1	-0.42348436
13	0x3ea8c4f8	0.32962775
14	0xbc7650e0	-0.015033931
15	0xbd5508d8	-0.052010387
16	0x3e8d5828	0.2760632
17	0xbd4b65f7	-0.049657788
18	0x3e8e90cc	0.27844846
19	0x3ea2bdb4	0.31785357
20	0xbec6cc07	-0.38827536
21	0x3e2964e2	0.1654239
22	0x3dafa031	0.08575476
23	0x3db44f3b	0.088041745
24	0x3d8bf0b6	0.06833021
25	0x3dea227e	0.1143236
26	0xbe5c4d90	-0.21513963
27	0xbd469d1b	-0.04848967
28	0x3edde142	0.4333592
29	0x3e95efe9	0.292846
30	0xbcbd6f9c	-0.023124509
31	0xbedb9638	-0.42888045
32	0x3c6a6584	0.01430643
33	0xbe9becc0	-0.30454063
34	0x3eb7ad8f	0.35874602
35	0xbe84849f	-0.25882432
36	0xbd25be2e	-0.040464573
37	0xbdcba165	-0.09942893
38	0x3dab4204	0.08362201
39	0x3ed5058d	0.41605797
40	0x3d20377d	0.039115418
41	0x3e891325	0.2677242
42	0x3eadf5e4	0.33976662
43	0x3eb797e1	0.35858062
44	0xbe265102	-0.1624184
45	0xbdccd87c	-0.100022286
46	0x3e54899f	0.20755623
47	0xbde8576a	-0.11344798
48	0x3e5b26c5	0.21401508
49	0xbdc817d8	-0.09770173
50	0xbe9b4d3d	-0.30332366
51	0x3e331dae	0.1749179
52	0x3d783d79	0.0606055
53	0x3e44e85e	0.19229266
54	0x3ee7da4e	0.4528374
55	0x3e98a4b3	0.29813156
56	0x3edd07fb	0.4317015
57	0x3ca48d36	0.020086866
58	0xbec4f73c	-0.38469875
59	0xbea0a18c	-0.3137325
60	0xbe88b9f9	-0.26704386
61	0xbec54d97	-0.3853576
62	0xbe541185	-0.20709808
63	0xbed2c916	-0.4116904
64	0xbed3411b	-0.4126061
65	0xbe8c6cd2	-0.27426773
66	0xbee1bacd	-0.4408783
67	0xbe8c8bf4	-0.27450526
68	0x3e3393b8	0.17536819
69	0x3ebaddc8	0.3649733
70	0xbdf689f2	-0.1203803
71	0xbe0534fc	-0.13008493
72	0x3e6ce9d9	0.23136081
73	0xbe6a4e21	-0.22881366
74	0xbe588839	-0.21145715
75	0x3e916a94	0.28401625
76	0xbec2b84e	-0.38031238
77	0x3d475c2b	0.048671883
78	0x3ecb265f	0.39677712
79	0x3d938949	0.072039194
80	0x3e00f212	0.12592342
81	0xbe855a20	-0.26045322
82	0xbc29a211	-0.010353581
83	0x3cc4641c	0.023973517
84	0x3dd0c265	0.10193328
85	0x3e3adf58	0.18249261
86	0x3ecb4578	0.39701438
87	0xbeaec676	-0.3413579
88	0x3c548270	0.012970552
89	0xbe64ce8a	-0.22344413
90	0xbeaf5058	-0.34240985
91	0xbc9624d6	-0.018328112
92	0xbec98d01	-0.3936539
93	0x3e9bba4f	0.3041558
94	0x3d769195	0.06019743
95	0xbe6e0096	-0.23242411
96	0x3e6b4877	0.22976862
97	0xbedd645f	-0.4324064
98	0xbe37f8a0	-0.17965937
99	0xbdb2cab9	-0.087300725

classifier.weight f4 [1, 100]
0	0xbd9cd1d5	-0.0765721
1	0xbd5f1858	-0.054466575
2	0xbc85b56c	-0.01632186
3	0x3d9b651f	0.07587647
4	0x3dc5c419	0.09656543
5	0x3d9478db	0.07249614
6	0xbd4e09fe	-0.050302498
7	0xbd68dbff	-0.05685043
8	0x3db2ba41	0.08726931
9	0x3d10e1f6	0.035371743
10	0x3c5546e6	0.013017392
11	0x3cb3f67b	0.021968117
12	0xbda498db	-0.08036967
13	0xbcca000b	-0.024658224
14	0x3dc524e9	0.09626181
15	0xbcca0a88	-0.024663225
16	0x3aae6cb3	0.0013307541
17	0xbd982901	-0.07429696
18	0xbd544c26	-0.051830433
19	0x3ac779b5	0.0015218767
20	0xbd7e6d4a	-0.062115945
21	0xbb6fee87	-0.003661068
22	0x3d3309fc	0.043710694
23	0xbdb902e8	-0.090337574
24	0x3cff566f	0.031169144
25	0xbd6b590d	-0.057457972
26	0xbd47e7dd	-0.048805106
27	0x3d421707	0.04738524
28	0x3db4d902	0.088304535
29	0xbc9b6bd1	-0.01897231
30	0xbd0f5aa5	-0.034998555
31	0xbda6a23b	-0.08136412
32	0xbd39280a	-0.0452042
33	0xbdb35498	-0.08756369
34	0xbca1791d	-0.019711072
35	0x3d025e36	0.031828128
36	0xbdade52f	-0.08490979
37	0x3db26a87	0.08711725
38	0x3d89369b	0.06699868
39	0xbdbf3ca6	-0.0933774
40	0xbd3a4a05	-0.045480747
41	0x3d2939c6	0.041314863
42	0xbc42f3b0	-0.01189892
43	0xbbec68ba	-0.007214633
44	0xbd142597	-0.03616866
45	0x3da47fd7	0.08032196
46	0xbd42fd49	-0.047604833
47	0x3dbc20d3	0.09185948
48	0x3c2d642a	0.010582963
49	0x3ca4ad54	0.02010218
50	0x3d9fc561	0.07801319
51	0xbbffef88	-0.007810537
52	0xbd458151	-0.04821903
53	0xbbf9230f	-0.0076030563
54	0x3db4fcb8	0.08837265
55	0xbd8b80e6	-0.06811695
56	0x3cf0e5d3	0.029406464
57	0xbdc4078f	-0.09571754
58	0x3d56c112	0.05243022
59	0x3d175582	0.03694678
60	0x3c5a8d67	0.013339377
61	0x3d556143	0.05209471
62	0x3c458a40	0.012056887
63	0x3d62a742	0.05533529
64	0xbda21fb6	-0.07916205
65	0xbbc020ed	-0.0058633
66	0x3d35b45e	0.044361465
67	0x3dcbf17b	0.09958168
68	0x3d645c0c	0.055751845
69	0xbd83469b	-0.06409951
70	0x3dbac852	0.09120239
71	0xbcb6ae20	-0.022299826
72	0xbc558090	-0.01303114
73	0xbda80000	-0.08203125
74	0xbc80f42c	-0.01574143
75	0x3da2bc8d	0.079461195
76	0x3cbc33fa	0.022974003
77	0xbd624297	-0.055239286
78	0x3d0867f2	0.033302255
79	0xbcd53044	-0.026023991
80	0x3dc1467f	0.09437274
81	0xbdb1c1d2	-0.086795464
82	0xbce3f66e	-0.027827468
83	0xbdc57a2e	-0.096424446
84	0xbd006301	-0.031344417
85	0x3d24cc53	0.04023392
86	0x3dd6e133	0.10492172
87	0x3c8994e8	0.016794637
88	0x3dc7e328	0.097601235
89	0x3ca04738	0.01956521
90	0x3d94be46	0.07262854
91	0x3dc8ecc9	0.09810788
92	0x3dab3275	0.08359233
93	0xbd416699	-0.047216985
94	0x3dce14f2	0.10062589
95	0x3d8e8936	0.06959765
96	0xbd2d4239	-0.042299483
97	0xbd217a1a	-0.039423086
98	0xbd9e852d	-0.07740245
99	0x3ccbfb3d	0.024900073

exp_avg f4 [100, 5]
0	0x39ba3a88	0.00035520294
1	0x397e186e	0.00024232428
2	0x397e181e	0.00024232312
3	0x380a3808	3.2953947e-05
4	0x38189cbd	3.6385598e-05
5	0x39d5f11a	0.0004080616
6	0x391d31ba	0.00014991211
7	0x391d31f2	0.00014991293
8	0x33452100	4.589765e-08
9	0x379337d0	1.7549755e-05
10	0x00000000	0.0
11	0x00000000	0.0
12	0x00000000	0.0
13	0x00000000	0.0
14	0x00000000	0.0
15	0x00000000	0.0
16	0x00000000	0.0
17	0x00000000	0.0
18	0x00000000	0.0
19	0x00000000	0.0
20	0x00000000	0.0
21	0x00000000	0.0
22	0x00000000	0.0
23	0x00000000	0.0
24	0x00000000	0.0
25	0xb9b041a8	-0.00033618254
26	0xb97088f6	-0.00022939206
27	0xb97088af	-0.00022939102
28	0xb802dc1e	-3.1199415e-05
29	0xb81078a2	-3.4444623e-05
30	0x39c7925e	0.0003806529
31	0x390bf92e	0.000133489
32	0x390bf943	0.0001334893
33	0xb4faeae0	-4.6737023e-07
34	0x37869668	1.6044083e-05
35	0x398a4fc8	0.00026380853
36	0x393cb0d1	0.00017994946
37	0x393cb099	0.00017994865
38	0x37cd428c	2.4468893e-05
39	0x37e2a794	2.7019334e-05
40	0x00000000	0.0
41	0x00000000	0.0
42	0x00000000	0.0
43	0x00000000	0.0
44	0x00000000	0.0
45	0x00000000	0.0
46	0x00000000	0.0
47	0x00000000	0.0
48	0x00000000	0.0
49	0x00000000	0.0
50	0xb9d05877	-0.00039738763
51	0xb7a372db	-1.9484598e-05
52	0xb7a37369	-1.9484856e-05
53	0x37bd051f	2.253294e-05
54	0x35e237b0	1.6854519e-06
55	0xb8d605de	-0.00010205408
56	0xb891f4cf	-6.959738e-05
57	0xb891f4a4	-6.959707e-05
58	0xb71ebb99	-9.461212e-06
59	0xb72f504f	-1.0449511e-05
60	0x00000000	0.0
61	0x00000000	0.0
62	0x00000000	0.0
63	0x00000000	0.0
64	0x00000000	0.0
65	0x38f01910	0.0001144876
66	0x38a3bbad	7.807403e-05
67	0x38a3bb7c	7.8073674e-05
68	0x37321346	1.0614114e-05
69	0x3744ab2c	1.1722364e-05
70	0x00000000	0.0
71	0x00000000	0.0
72	0x00000000	0.0
73	0x00000000	0.0
74	0x00000000	0.0
75	0x00000000	0.0
76	0x00000000	0.0
77	0x00000000	0.0
78	0x00000000	0.0
79	0x00000000	0.0
80	0x3804b542	3.1640062e-05
81	0xb68fd2de	-4.2862803e-06
82	0xb68fd2a4	-4.286254e-06
83	0xb634299e	-2.6846315e-06
84	0xb57d18fc	-9.42862e-07
85	0x3a180b28	0.0005800002
86	0x395572ae	0.00020355984
87	0x395572e8	0.00020356069
88	0xb6680d40	-3.4578406e-06
89	0x37c23d9a	2.3155288e-05
90	0xb91df845	-0.00015065174
91	0x37dfeea2	2.6694794e-05
92	0x37dfec58	2.6693728e-05
93	0x37beb7ce	2.2735356e-05
94	0x37081872	8.111923e-06
95	0x369ea398	4.7278118e-06
96	0xb5619bd8	-8.4045814e-07
97	0xb5619981	-8.404241e-07
98	0xb540ab35	-7.177471e-07
99	0xb4896e81	-2.559864e-07
100	0x00000000	0.0
101	0x00000000	0.0
102	0x00000000	0.0
103	0x00000000	0.0
104	0x00000000	0.0
105	0x378f57f8	1.7087892e-05
106	0x37430430	1.1623881e-05
107	0x374303f5	1.1623827e-05
108	0x35d3b372	1.577295e-06
109	0x35ea2a67	1.7446699e-06
110	0x38b8739a	8.795336e-05
111	0xb783b54e	-1.5700844e-05
112	0xb783b2bc	-1.5699647e-05
113	0xb75fdaf3	-1.3342814e-05
114	0xb6b1667f	-5.286943e-06
115	0x39fa3e71	0.00047730238
116	0x399647c5	0.00028663702
117	0x39964780	0.000286635
118	0x389a6279	7.361634e-05
119	0x3830c22d	4.214251e-05
120	0x00000000	0.0
121	0xb62655a1	-2.478577e-06
122	0xb6265520	-2.4785477e-06
123	0xb60c878c	-2.0940524e-06
124	0xb596bf75	-1.1231592e-06
125	0x398bc878	0.00026661507
126	0x393eb36a	0.00018186649
127	0x393eb332	0.00018186567
128	0x37cf72f7	2.4729858e-05
129	0x37e511e1	2.7307253e-05
130	0x00000000	0.0
131	0x00000000	0.0
132	0x00000000	0.0
133	0x00000000	0.0
134	0x00000000	0.0
135	0xb98349d6	-0.0002504128
136	0xb91af84d	-0.00014779084
137	0xb91af7f6	-0.00014778957
138	0xb82aed0b	-4.0751922e-05
139	0xb7bc9034	-2.2478496e-05
140	0xb9d6bcc3	-0.000409579
141	0xb9928312	-0.00027944945
142	0xb99282e6	-0.00027944817
143	0xb81f6796	-3.8005026e-05
144	0xb82ffeca	-4.1960542e-05
145	0x38b870bf	8.794804e-05
146	0x387bb104	6.0007922e-05
147	0x387bb0b5	6.0007635e-05
148	0x3708eea8	8.161798e-06
149	0x37172c51	9.01062e-06
150	0x00000000	0.0
151	0x36017664	1.929141e-06
152	0x36017a06	1.9293525e-06
153	0xb5d4a72f	-1.5843888e-06
154	0xb4933e1f	-2.7426083e-07
155	0x3a07d982	0.00051822525
156	0x39782457	0.0002366466
157	0x3978241a	0.00023664572
158	0x385ddba4	5.2895062e-05
159	0x3805b33c	3.1876596e-05
160	0xb7f6d841	-2.9426186e-05
161	0x36247d77	2.4510935e-06
162	0x3624875e	2.4516698e-06
163	0xb7b41a4a	-2.1469914e-05
164	0xb4aaf8fd	-3.184613e-07
165	0x00000000	0.0
166	0x00000000	0.0
167	0x00000000	0.0
168	0x00000000	0.0
169	0x00000000	0.0
170	0xba443853	-0.00074851996
171	0x38221e9e	3.8652324e-05
172	0x38221e3b	3.8651964e-05
173	0x385929d1	5.1775776e-05
174	0x378dd1de	1.6906237e-05
175	0xbaadefff	-0.0013270377
176	0xb81bce5b	-3.7147063e-05
177	0xb81bcea6	-3.7147336e-05
178	0x388e4a25	6.784898e-05
179	0x3748a52f	1.1959389e-05
180	0x39ce98bb	0.00039405175
181	0x3986ba85	0.0002569744
182	0x3986ba4d	0.00025697277
183	0x3817a24a	3.615235e-05
184	0x3820c95e	3.833451e-05
185	0x386de0cc	5.671456e-05
186	0x356904ff	8.6806534e-07
187	0x3568dd55	8.6748815e-07
188	0x380d1ad5	3.364201e-05
189	0xb5468de0	-7.3967203e-07
190	0x3799ca55	1.833324e-05
191	0xb716d13f	-8.989416e-06
192	0xb716d359	-8.989905e-06
193	0x373c9255	1.1239744e-05
194	0xb5f3bc51	-1.8159718e-06
195	0x37ca8b66	2.4145189e-05
196	0x37b3486c	2.1372187e-05
197	0x37b34a5c	2.137309e-05
198	0xb654fb6b	-3.1736806e-06
199	0x35d08fe9	1.5539091e-06
200	0x00000000	0.0
201	0x368018c9	3.8175826e-06
202	0x36801837	3.8175162e-06
203	0x36167b34	2.2423455e-06
204	0x35bffbd2	1.4303898e-06
205	0xb948ef98	-0.00019162742
206	0xb90919d5	-0.00013074961
207	0xb90919ab	-0.000130749
208	0xb7952b26	-1.7782277e-05
209	0xb7a4b0d8	-1.9632673e-05
210	0x3867c06b	5.5253895e-05
211	0x381e03ee	3.7673795e-05
212	0x381e03be	3.767362e-05
213	0x36abd738	5.121252e-06
214	0x36bdcc39	5.6564136e-06
215	0xb7adba66	-2.0710006e-05
216	0x36761d85	3.667404e-06
217	0x36761b00	3.6672573e-06
218	0x36518022	3.121801e-06
219	0x3595828b	1.1139358e-06
220	0x393037bc	0.0001680543
221	0x38e5b9a9	0.00010954153
222	0x38e5b94a	0.00010954084
223	0x37813877	1.5404292e-05
224	0x3789112d	1.633967e-05
225	0x00000000	0.0
226	0x00000000	0.0
227	0x00000000	0.0
228	0x00000000	0.0
229	0x00000000	0.0
230	0x3983ec10	0.00025162147
231	0x391e6c3d	0.00015108376
232	0x391e6bf8	0.00015108276
233	0x3822bd21	3.879995e-05
234	0x37ba54af	2.2212362e-05
235	0xb9fe9a3a	-0.00048561563
236	0xb9922e5a	-0.00027881825
237	0xb9922e09	-0.0002788159
238	0xb89c25bf	-7.4456904e-05
239	0xb82aa1a7	-4.068171e-05
240	0x00000000	0.0
241	0xb5c67845	-1.4787153e-06
242	0xb5c679eb	-1.4787632e-06
243	0xb35f127c	-5.1938045e-08
244	0xb4884967	-2.538538e-07
245	0x00000000	0.0
246	0x00000000	0.0
247	0x00000000	0.0
248	0x00000000	0.0
249	0x00000000	0.0
250	0x00000000	0.0
251	0x00000000	0.0
252	0x00000000	0.0
253	0x00000000	0.0
254	0x00000000	0.0
255	0x3818489e	3.6307254e-05

exp_avg_sq f4 [100, 5]
0	0x39affb4f	0.0003356584
1	0x335177df	4.8770627e-08
2	0x335176c6	4.876963e-08
3	0x359b7313	1.1581891e-06
4	0x33838ec6	6.126133e-08
5	0x3940b567	0.00018378125
6	0x32c87a00	2.3338544e-08
7	0x32c8795f	2.3338258e-08
8	0x351f646b	5.9378243e-07
9	0x330640fa	3.1258402e-08
10	0x00000000	0.0
11	0x00000000	0.0
12	0x00000000	0.0
13	0x00000000	0.0
14	0x00000000	0.0
15	0x00000000	0.0
16	0x00000000	0.0
17	0x00000000	0.0
18	0x00000000	0.0
19	0x00000000	0.0
20	0x00000000	0.0
21	0x00000000	0.0
22	0x00000000	0.0
23	0x00000000	0.0
24	0x00000000	0.0
25	0x39627b42	0.00021598957
26	0x330c4933	3.2662864e-08
27	0x330c4884	3.2662243e-08
28	0x354758cd	7.42625e-07
29	0x332802d8	3.9118135e-08
30	0x3927f0f7	0.00016016127
31	0x32aa2205	1.9806075e-08
32	0x32aa2195	1.9805876e-08
33	0x35092a81	5.109833e-07
34	0x32e711b6	2.6899993e-08
35	0x394cf733	0.00019547045
36	0x32f2abb6	2.8250593e-08
37	0x32f2aa6c	2.8250007e-08
38	0x353522b5	6.747826e-07
39	0x331960f3	3.5711263e-08
40	0x00000000	0.0
41	0x00000000	0.0
42	0x00000000	0.0
43	0x00000000	0.0
44	0x00000000	0.0
45	0x00000000	0.0
46	0x00000000	0.0
47	0x00000000	0.0
48	0x00000000	0.0
49	0x00000000	0.0
50	0x34f9cf05	4.653049e-07
51	0x2f017633	1.1774474e-10
52	0x2f01776c	1.1774909e-10
53	0x3066ee2a	8.4011964e-10
54	0x2e2bf38d	3.9097215e-11
55	0x3758fcf2	1.2933497e-05
56	0x31113495	2.1130167e-09
57	0x31113404	2.1129845e-09
58	0x333dadee	4.416318e-08
59	0x311e9997	2.3079332e-09
60	0x00000000	0.0
61	0x00000000	0.0
62	0x00000000	0.0
63	0x00000000	0.0
64	0x00000000	0.0
65	0x3845faec	4.720215e-05
66	0x31e59080	6.681205e-09
67	0x31e58f3e	6.681062e-09
68	0x342f4f77	1.6327054e-07
69	0x3214cb47	8.660954e-09
70	0x00000000	0.0
71	0x00000000	0.0
72	0x00000000	0.0
73	0x00000000	0.0
74	0x00000000	0.0
75	0x00000000	0.0
76	0x00000000	0.0
77	0x00000000	0.0
78	0x00000000	0.0
79	0x00000000	0.0
80	0x341336e1	1.3710407e-07
81	0x2ddf40eb	2.5380994e-11
82	0x2ddf41ca	2.5381381e-11
83	0x306e32e8	8.665624e-10
84	0x2e41e15e	4.4083286e-11
85	0x39a7cd97	0.00032005899
86	0x3330d580	4.117237e-08
87	0x3330d4b4	4.1171646e-08
88	0x358b38fb	1.037289e-06
89	0x336b2eb4	5.4757678e-08
90	0x328a2ccb	1.6085684e-08
91	0x30104090	5.2478644e-10
92	0x3010405a	5.2478344e-10
93	0x30da5dca	1.5888244e-09
94	0x2edab98b	9.946451e-11
95	0x2db92893	2.1050084e-11
96	0x2b7faeaa	9.0836594e-13
97	0x2b7fad64	9.0834827e-13
98	0x2bc3bbd8	1.390772e-12
99	0x29e1bd78	1.0024875e-13
100	0x00000000	0.0
101	0x00000000	0.0
102	0x00000000	0.0
103	0x00000000	0.0
104	0x00000000	0.0
105	0x36a82ff3	5.012372e-06
106	0x3039823c	6.748768e-10
107	0x30398113	6.7486033e-10
108	0x3295e88e	1.7451637e-08
109	0x30804169	9.331816e-10
110	0x31aedb90	5.089028e-09
111	0x2f64b548	2.0800883e-10
112	0x2f64b0dc	2.0799312e-10
113	0x303e7ed0	6.930181e-10
114	0x2e5237d5	4.779806e-11
115	0x39ea2fc0	0.00044667535
116	0x338d0bbf	6.567961e-08
117	0x338d0ae1	6.567803e-08
118	0x35d7638c	1.604772e-06
119	0x33aefd8d	8.148627e-08
120	0x00000000	0.0
121	0x2e2fded2	3.9988297e-11
122	0x2e2fddad	3.998728e-11
123	0x2f3b4dba	1.7035165e-10
124	0x2d344dfb	1.02491305e-11
125	0x39517e36	0.0001997881
126	0x32f7fc65	2.886936e-08
127	0x32f7fb09	2.8868742e-08
128	0x353922d3	6.8968546e-07
129	0x331cc3f1	3.6499788e-08
130	0x00000000	0.0
131	0x00000000	0.0
132	0x00000000	0.0
133	0x00000000	0.0
134	0x00000000	0.0
135	0x38acef93	8.246223e-05
136	0x3256b7e5	1.2498252e-08
137	0x3256b6ef	1.2498034e-08
138	0x3498bcfa	2.8449705e-07
139	0x3277d254	1.4425115e-08
140	0x39ae2fc8	0.00033223466
141	0x3356b4f0	4.999032e-08
142	0x3356b3de	4.9989346e-08
143	0x359960b3	1.1427531e-06
144	0x3381538c	6.022228e-08
145	0x38003661	3.0568222e-05
146	0x3193c954	4.3011514e-09
147	0x3193c87b	4.301055e-09
148	0x33e34108	1.058234e-07
149	0x31c113b0	5.6192775e-09
150	0x00000000	0.0
151	0x2dad1e17	1.9681186e-11
152	0x2dad27a3	1.9685425e-11
153	0x2d666bce	1.3097924e-11
154	0x2ade367e	3.9472933e-13
155	0x39c750b3	0.00038016363
156	0x33586f85	5.0392845e-08
157	0x33586e54	5.0391762e-08
158	0x35acbc25	1.2869756e-06
159	0x338c0cfb	6.521619e-08
160	0x319bd3ee	4.5351873e-09
161	0x2f3521a2	1.6473803e-10
162	0x2f352745	1.6475805e-10
163	0x30c26eac	1.4146813e-09
164	0x2d788f20	1.4128948e-11
165	0x00000000	0.0
166	0x00000000	0.0
167	0x00000000	0.0
168	0x00000000	0.0
169	0x00000000	0.0
170	0x36846e07	3.9467154e-06
171	0x311d91c4	2.2929365e-09
172	0x311d9015	2.2928408e-09
173	0x32cb56ea	2.3671834e-08
174	0x30bff80e	1.396758e-09
175	0x370d2eb6	8.415131e-06
176	0x30be959a	1.3866839e-09
177	0x30be95fe	1.386695e-09
178	0x3289c757	1.6039548e-08
179	0x304ec142	7.5217e-10
180	0x39d71ed6	0.0004103097
181	0x336982fb	5.4368666e-08
182	0x336981bd	5.4367536e-08
183	0x35b30396	1.3337583e-06
184	0x339753bf	7.046719e-08
185	0x3251bb73	1.2208022e-08
186	0x2c55bfad	3.0375522e-12
187	0x2c557a01	3.0336846e-12
188	0x3195ba8f	4.35768e-09
189	0x2c109d02	2.0550788e-12
190	0x317a9547	3.6464642e-09
191	0x2f46b750	1.8073121e-10
192	0x2f46bb0a	1.8074445e-10
193	0x30f1d5f6	1.7595869e-09
194	0x2e740eb4	5.5492236e-11
195	0x31bd9ce4	5.5184604e-09
196	0x3080f6ae	9.383336e-10
197	0x3080fa93	9.384443e-10
198	0x312f93ed	2.5549938e-09
199	0x2f155843	1.3582828e-10
200	0x00000000	0.0
201	0x2eb2f875	8.138638e-11
202	0x2eb2f74a	8.13843e-11
203	0x2fdcd866	4.0171527e-10
204	0x2dd13741	2.3785087e-11
205	0x3880210b	6.10967e-05
206	0x32222490	9.437954e-09
207	0x322223ce	9.437782e-09
208	0x3461229d	2.096735e-07
209	0x323d5657	1.1020879e-08
210	0x378823de	1.6229165e-05
211	0x311a55be	2.2458688e-09
212	0x311a54dc	2.2458186e-09
213	0x3371b3fa	5.6275873e-08
214	0x314dc1a9	2.994151e-09
215	0x2fdc65e1	4.0090156e-10
216	0x2d569058	1.2196542e-11
217	0x2d569029	1.2196502e-11
218	0x2e43215a	4.436749e-11
219	0x2c3da1c3	2.6948311e-12
220	0x38bc8c4b	8.99067e-05
221	0x32482ebe	1.165216e-08
222	0x32482d8d	1.1651889e-08
223	0x349d34c3	2.9281918e-07
224	0x328519f9	1.5495049e-08
225	0x00000000	0.0
226	0x00000000	0.0
227	0x00000000	0.0
228	0x00000000	0.0
229	0x00000000	0.0
230	0x39136225	0.00014055574
231	0x32ae8356	2.031599e-08
232	0x32ae8265	2.0315563e-08
233	0x3504b568	4.943781e-07
234	0x32dcc0ac	2.5698988e-08
235	0x39bc0810	0.0003586416
236	0x335b4e89	5.106134e-08
237	0x335b4da1	5.1060514e-08
238	0x35a23606	1.2085663e-06
239	0x33834e00	6.114351e-08
240	0x00000000	0.0
241	0x2c8588a8	3.7952592e-12
242	0x2c858ad7	3.7955017e-12
243	0x2d87471e	1.5379305e-11
244	0x2b79007a	8.846323e-13
245	0x00000000	0.0
246	0x00000000	0.0
247	0x00000000	0.0
248	0x00000000	0.0
249	0x00000000	0.0
250	0x00000000	0.0
251	0x00000000	0.0
252	0x00000000	0.0
253	0x00000000	0.0
254	0x00000000	0.0
255	0x37249026	9.808724e-06

exp_avg f4 [100]
0	0xb9e82d74	-0.00044284353
1	0xb926333d	-0.00015850081
2	0x00000000	0.0
3	0x00000000	0.0
4	0x00000000	0.0
5	0x39dbccde	0.00041923573
6	0xb9160df6	-0.00014310316
7	0xb9ac6804	-0.00032883894
8	0x00000000	0.0
9	0x00000000	0.0
10	0xb8ee2f5d	-0.000113575465
11	0x39055885	0.00012716845
12	0x00000000	0.0
13	0xb91596e6	-0.00014265961
14	0x00000000	0.0
15	0x00000000	0.0
16	0x3796cd0e	1.797688e-05
17	0xb949eab4	-0.00019256287
18	0xb91fa2dd	-0.00015224093
19	0x36a144e1	4.8061925e-06
20	0x00000000	0.0
21	0xb7b2057a	-2.1221804e-05
22	0x38bb5f79	8.934638e-05
23	0xba013964	-0.00049295113
24	0x376b4103	1.4022228e-05
25	0xb9ae3e7d	-0.00033234424
26	0x00000000	0.0
27	0x398f11d7	0.00027288377
28	0x3a05e0da	0.0005107053
29	0xb8e5ff1e	-0.0001096709
30	0x3731ff17	1.0609415e-05
31	0xb9b9b384	-0.000354197
32	0x374c3662	1.21720095e-05
33	0x00000000	0.0
34	0xb9d366a3	-0.00040321526
35	0xb9ee335a	-0.00045433157
36	0xba001077	-0.0004885266
37	0x37ede0cc	2.835728e-05
38	0x373d1335	1.126975e-05
39	0x37b24598	2.125166e-05
40	0xb77be9f2	-1.50152355e-05
41	0x397a8f41	0.00023895224
42	0xb8905bf7	-6.883585e-05
43	0xb7af5b90	-2.0904263e-05
44	0xb95a5258	-0.00020820776
45	0x00000000	0.0
46	0xb9883781	-0.00025981295
47	0x3a02b31e	0.0004985797
48	0x34bab7c0	3.4778895e-07
49	0x00000000	0.0
50	0x00000000	0.0
51	0xb83d976e	-4.520214e-05
52	0xb9923cb4	-0.00027892517
53	0xb838772c	-4.3980006e-05
54	0x3a062085	0.000511654
55	0xba6d288d	-0.0009046875
56	0x39c6c7a0	0.00037914235
57	0xbae09231	-0.0017133412
58	0x00000000	0.0
59	0x00000000	0.0
60	0x38a0ab00	7.661246e-05
61	0x39a3e224	0.0003125827
62	0xb83a6127	-4.4436336e-05
63	0x00000000	0.0
64	0x00000000	0.0
65	0xb80c472d	-3.344489e-05
66	0x00000000	0.0
67	0x00000000	0.0
68	0xb74d77f6	-1.2246883e-05
69	0xb9c26201	-0.00037075582
70	0xbaadb02d	-0.0013251357
71	0x00000000	0.0
72	0xb8950ee5	-7.107648e-05
73	0xb9f77546	-0.00047198887
74	0x00000000	0.0
75	0x39f0f229	0.0004595679
76	0x390fce85	0.00013714477
77	0x38105bfb	3.441794e-05
78	0x38e577e7	0.000109419045
79	0x36c6d5d6	5.9257536e-06
80	0x36474510	2.969351e-06
81	0x00000000	0.0
82	0xb562801b	-8.437798e-07
83	0xb98975a7	-0.00026218334
84	0xb93df40e	-0.00018115362
85	0x39740344	0.0002327087
86	0x3a1f1473	0.0006068416
87	0x00000000	0.0
88	0x37606b10	1.3376368e-05
89	0x00000000	0.0
90	0xba0bc7d1	-0.0005332204
91	0xba8ba697	-0.0010654506
92	0x00000000	0.0
93	0xb98f3453	-0.0002731407
94	0x3a20826c	0.000612295
95	0x39db044c	0.00041774136
96	0xb77bcabe	-1.500797e-05
97	0x39876c1c	0.00025829754
98	0x3893ed38	7.053692e-05
99	0x37091228	8.170064e-06

exp_avg_sq f4 [100]
0	0x38631b47	5.414642e-05
1	0x37e92029	2.779074e-05
2	0x00000000	0.0
3	0x00000000	0.0
4	0x00000000	0.0
5	0x38116b08	3.4670375e-05
6	0x37c8a09d	2.391665e-05
7	0x3804572d	3.155244e-05
8	0x00000000	0.0
9	0x00000000	0.0
10	0x331fd3ec	3.7212814e-08
11	0x360a00f4	2.0564157e-06
12	0x00000000	0.0
13	0x37002f57	7.640417e-06
14	0x00000000	0.0
15	0x00000000	0.0
16	0x3326e2bd	3.8856104e-08
17	0x384b90fd	4.8534002e-05
18	0x3398fd93	7.1241764e-08
19	0x2e892243	6.236125e-11
20	0x00000000	0.0
21	0x355bcefe	8.188507e-07
22	0x330576bd	3.1074467e-08
23	0x3896e794	7.195692e-05
24	0x32033a4c	7.638459e-09
25	0x38074361	3.224926e-05
26	0x00000000	0.0
27	0x3756056c	1.2756656e-05
28	0x385fcdbf	5.335896e-05
29	0x36a63874	4.9537575e-06
30	0x30216fc2	5.8730276e-10
31	0x38720a89	5.7707108e-05
32	0x326844e5	1.3519842e-08
33	0x00000000	0.0
34	0x3598e69f	1.1392002e-06
35	0x35410f37	7.1920243e-07
36	0x3882e5ae	6.241664e-05
37	0x3151bb73	3.0520055e-09
38	0x334367c6	4.5496357e-08
39	0x33f6065b	1.1456424e-07
40	0x329aba43	1.8012662e-08
41	0x37241cbe	9.781854e-06
42	0x3630e7f9	2.636107e-06
43	0x3108b600	1.989406e-09
44	0x37660ad8	1.3711593e-05
45	0x00000000	0.0
46	0x37be4e7c	2.2686312e-05
47	0x38634b77	5.41913e-05
48	0x303d8e21	6.8959777e-10
49	0x00000000	0.0
50	0x00000000	0.0
51	0x35d64fbd	1.5967449e-06
52	0x37c62e7f	2.362509e-05
53	0x35cd6ba4	1.5305018e-06
54	0x385cc5d5	5.2636333e-05
55	0x37c233c6	2.3150711e-05
56	0x361eeafc	2.3680614e-06
57	0x37156f3f	8.906994e-06
58	0x00000000	0.0
59	0x00000000	0.0
60	0x34c23b92	3.617866e-07
61	0x377c4a17	1.5037621e-05
62	0x3353e3bc	4.933439e-08
63	0x00000000	0.0
64	0x00000000	0.0
65	0x35992d88	1.141264e-06
66	0x00000000	0.0
67	0x00000000	0.0
68	0x330dea15	3.3042017e-08
69	0x3824a94c	3.9258317e-05
70	0x371a53bc	9.198611e-06
71	0x00000000	0.0
72	0x363fcde0	2.8581053e-06
73	0x3875bf3a	5.8590645e-05
74	0x00000000	0.0
75	0x3832625f	4.2530122e-05
76	0x360739fb	2.0150317e-06
77	0x330b279a	3.2399477e-08
78	0x32fc067e	2.9339613e-08
79	0x323cb823	1.0984908e-08
80	0x33b96ea7	8.6348614e-08
81	0x00000000	0.0
82	0x32194db5	8.923441e-09
83	0x33c3e18e	9.121423e-08
84	0x37369033	1.0881619e-05
85	0x371a1602	9.184239e-06
86	0x38a240cf	7.7368335e-05
87	0x00000000	0.0
88	0x30f898af	1.808777e-09
89	0x00000000	0.0
90	0x35defb4a	1.6613424e-06
91	0x352998ee	6.317995e-07
92	0x00000000	0.0
93	0x37bf382e	2.2795135e-05
94	0x38939dcf	7.0389004e-05
95	0x37f74c48	2.9480216e-05
96	0x32c952cc	2.3437131e-08
97	0x359a8a5e	1.1514164e-06
98	0x335058b6	4.8509456e-08
99	0x2f90fa3d	2.6371252e-10

exp_avg f4 [1, 100]
0	0x3a1d93d8	0.0006011105
1	0xbba50fa8	-0.0050372668
2	0x00000000	0.0
3	0x00000000	0.0
4	0x00000000	0.0
5	0xbac5700c	-0.00150633
6	0xbb8d4c62	-0.004312084
7	0xb98e492a	-0.00027138862
8	0x00000000	0.0
9	0x00000000	0.0
10	0xbb334abc	-0.0027357778
11	0x3b2e0bd2	0.0026557338
12	0x00000000	0.0
13	0xbab6b04f	-0.0013938042
14	0x00000000	0.0
15	0x00000000	0.0
16	0x3aceec81	0.0015787036
17	0xba90a8a2	-0.0011036585
18	0x390d32cd	0.00013465733
19	0x3989f2ad	0.00026311484
20	0x00000000	0.0
21	0xbac32c73	-0.0014890566
22	0x38942abd	7.0651506e-05
23	0x3ac86d2c	0.0015291325
24	0x384dd9f0	4.907878e-05
25	0xb9d57c28	-0.0004071903
26	0x00000000	0.0
27	0xba565a04	-0.00081768655
28	0x391fd854	0.0001524401
29	0x3afaddf2	0.0019139631
30	0xb719e45c	-9.17268e-06
31	0xbb993b5e	-0.0046762666
32	0xb7379007	-1.0941184e-05
33	0x00000000	0.0
34	0x3a8f9469	0.0010954264
35	0xbaeb4142	-0.0017948525
36	0xbac8257a	-0.0015269958
37	0x388b7606	6.65002e-05
38	0x36388e10	2.7500828e-06
39	0xb7eff61d	-2.8605626e-05
40	0x3896a3cf	7.183069e-05
41	0x3a735325	0.0009282104
42	0x39185c50	0.00014530239
43	0x3987e44b	0.00025919298
44	0xbb63d4e8	-0.0034764353
45	0x00000000	0.0
46	0x3b0e522c	0.0021716459
47	0xb9e7d710	-0.00044219987
48	0x37a714ad	1.991758e-05
49	0x00000000	0.0
50	0x00000000	0.0
51	0xb9c25d00	-0.00037071854
52	0xba946a0e	-0.0011323111
53	0x39a686b0	0.00031762337
54	0x3b83bf36	0.004020597
55	0x3b37a17d	0.0028019839
56	0x3b0c0e55	0.0021370847
57	0x3a1fbf7d	0.00060939026
58	0x00000000	0.0
59	0x00000000	0.0
60	0xbb4bdab4	-0.00311057
61	0xbb809c8a	-0.003924911
62	0xbb6db396	-0.0036270372
63	0x00000000	0.0
64	0x00000000	0.0
65	0xbb07ec6a	-0.002074028
66	0x00000000	0.0
67	0x00000000	0.0
68	0xb832c139	-4.261846e-05
69	0xb936fdb8	-0.0001745139
70	0xba987c72	-0.0011633767
71	0x00000000	0.0
72	0x3af8fda0	0.0018996485
73	0xbb441603	-0.0029920347
74	0x00000000	0.0
75	0x3a078bc6	0.0005170669
76	0xbb286089	-0.0025692305
77	0x37de1624	2.6474772e-05
78	0x3a1793ee	0.0005782236
79	0xb86b4cf6	-5.610004e-05
80	0x38bb7b54	8.9398265e-05
81	0x00000000	0.0
82	0x3736c02d	1.089279e-05
83	0x38e1a2eb	0.00010759182
84	0x3af380c2	0.0018577802
85	0x3a5a6949	0.0008331729
86	0x3ac29ac6	0.0014847151
87	0x00000000	0.0
88	0x36817476	3.8580574e-06
89	0x00000000	0.0
90	0xba0354d2	-0.00050098926
91	0xba0b8761	-0.0005322602
92	0x00000000	0.0
93	0xbaeeef9f	-0.0018229372
94	0x3a7f3ce4	0.00097365514
95	0xba8bb42e	-0.0010658556
96	0x377a8026	1.4930998e-05
97	0xb9c6a2b4	-0.00037886726
98	0xb81874f3	-3.634854e-05
99	0x37d7e4b9	2.5736505e-05

exp_avg_sq f4 [1, 100]
0	0x3a91143a	0.001106865
1	0x3b46fbeb	0.0030362557
2	0x00000000	0.0
3	0x00000000	0.0
4	0x00000000	0.0
5	0x3c0eb2b6	0.0087096
6	0x3a1e3899	0.00060356554
7	0x3a87ad4e	0.0010351331
8	0x00000000	0.0
9	0x00000000	0.0
10	0x38a48f69	7.8468416e-05
11	0x3afa55fe	0.0019099114
12	0x00000000	0.0
13	0x3c7a2aa9	0.01526896
14	0x00000000	0.0
15	0x00000000	0.0
16	0x3828b061	4.0218587e-05
17	0x393edb89	0.00018201595
18	0x359f2629	1.1857529e-06
19	0x35ef4e7e	1.7829732e-06
20	0x00000000	0.0
21	0x3c6aa916	0.01432254
22	0x3455a890	1.9898494e-07
23	0x393af477	0.00017829413
24	0x32ab8328	1.9966663e-08
25	0x3c0b9078	0.008518331
26	0x00000000	0.0
27	0x3ac76e2a	0.0015215327
28	0x3b3f9843	0.0029235042
29	0x3b42b766	0.0029711365
30	0x301603b5	5.457495e-10
31	0x3b580dcf	0.0032967215
32	0x30b74beb	1.333658e-09
33	0x00000000	0.0
34	0x36c2521c	5.7912093e-06
35	0x37959fcb	1.7836594e-05
36	0x3b228e51	0.0024804065
37	0x3297f14e	1.7688446e-08
38	0x3326ff56	3.8882114e-08
39	0x35cc167d	1.5205729e-06
40	0x33b4f71b	8.4268514e-08
41	0x3c0859c7	0.008322186
42	0x3c7d3f2f	0.015456959
43	0x35f7c21b	1.8459426e-06
44	0x3b52b335	0.0032150273
45	0x00000000	0.0
46	0x3b264668	0.0025371555
47	0x3aa07583	0.0012242052
48	0x350a6ef8	5.1570487e-07
49	0x00000000	0.0
50	0x00000000	0.0
51	0x3c00b5b3	0.0078558205
52	0x3c278698	0.010224961
53	0x3b667315	0.003516381
54	0x3983cda2	0.00025139475
55	0x38bb18c2	8.921466e-05
56	0x3847e1a3	4.7655438e-05
57	0x358e49bc	1.0601284e-06
58	0x00000000	0.0
59	0x00000000	0.0
60	0x3b7d9288	0.0038692076
61	0x3b5064a5	0.003179827
62	0x38978db9	7.226639e-05
63	0x00000000	0.0
64	0x00000000	0.0
65	0x3b14657a	0.0022643493
66	0x00000000	0.0
67	0x00000000	0.0
68	0x34ec1f6b	4.3981285e-07
69	0x3b53324c	0.0032226024
70	0x363aa986	2.7814835e-06
71	0x00000000	0.0
72	0x3b1906af	0.002334993
73	0x3babe0e8	0.005245317
74	0x00000000	0.0
75	0x3bf85620	0.0075786263
76	0x3b4b19fa	0.0030990825
77	0x321fd019	9.302334e-09
78	0x36158bf3	2.2284191e-06
79	0x335f896a	5.204621e-08
80	0x34ad4663	3.2274974e-07
81	0x00000000	0.0
82	0x32beae5e	2.2198204e-08
83	0x330f4def	3.3365662e-08
84	0x3a4a32ef	0.0007713278
85	0x3b76bde4	0.0037649805
86	0x3c21f824	0.0098858215
87	0x00000000	0.0
88	0x2f42f6ce	1.773188e-10
89	0x00000000	0.0
90	0x34f53dc8	4.5679758e-07
91	0x33a9fb24	7.915358e-08
92	0x00000000	0.0
93	0x3c5d87e7	0.013521171
94	0x3b598038	0.0033187997
95	0x3a8636f9	0.0010239772
96	0x3488a9f5	2.5455634e-07
97	0x3686623c	4.004947e-06
98	0x32955b32	1.7387354e-08
99	0x314de479	2.9961298e-09
