lightning_logs/version_1/checkpoints/epoch=7-step=16.ckpt (torch, 820623 bytes, 15 tensors)

feature_extractor.0.weight f4 [128, 7]
000000 25 8e 63 3e f1 bc aa 3e a9 5d 8f be d3 90 a7 3e
       0.22222193 0.33347276 -0.28001145 0.3272768
000010 56 51 8e 3d e4 a4 8e 3e fa 0e 4e 3d 99 00 39 3e
       0.06949107 0.27860177 0.05030725 0.18066634
000020 b3 0c 5d bd 19 e5 94 3e 00 fa 64 3d 97 a5 34 be
       -0.05396719 0.29081038 0.05590248 -0.17641293
000030 b9 42 c7 3d d5 56 31 be f2 2b 38 bd 00 3a 1d be
       0.09729523 -0.1731828 -0.044963785 -0.15354156
000040 6b 4d 80 3e e9 92 98 be 8d 0f 32 be 8e b6 da bd
       0.25059065 -0.29799584 -0.17388745 -0.10679351
000050 76 de 68 be b4 fc 0e 3d 2d 22 bf be b6 70 ae 3e
       -0.22741112 0.034908965 -0.37330762 0.34070367
000060 26 87 a5 be a5 42 94 3e 06 1c 82 3d 46 38 fa bd
       -0.32329673 0.28957096 0.06353001 -0.122177646
000070 65 49 70 3e 95 a2 70 3d f6 e7 9b 3e 8a 48 27 3d
       0.23465498 0.0587488 0.3045041 0.040840663
000080 e2 19 f5 bd e6 e9 cf 3d 68 5f d2 bd e1 54 22 3e
       -0.119678274 0.101520345 -0.102721035 0.15852691
000090 77 42 ab 3e a6 42 5d 3e ae 8d 28 be e5 11 60 3e
       0.33449146 0.21607456 -0.16460297 0.21881826
0000a0 d0 05 91 3d c1 7f 47 3e 38 61 6e be 7a 20 bf be
       0.07081187 0.19482328 -0.23279274 -0.37329465
0000b0 af a7 17 be 2f 8d 95 be 84 ab 9d 3e 82 f9 d9 3d
       -0.1481006 -0.29209277 0.3079492 0.10643293
0000c0 9b e3 1d 3e e6 ca f4 3d 24 0a d3 bb e2 79 97 3e
       0.15418856 0.11952762 -0.006440418 0.29585177
0000d0 64 f0 89 be fe e0 bb 3c 33 16 84 be d6 be ee 3d
       -0.26941216 0.022934433 -0.25798187 0.11657493
0000e0 da 96 04 be df 7c eb 3d 22 56 a6 bd df 49 a0 3e
       -0.1294817 0.11498427 -0.08121897 0.3130636
0000f0 e6 d2 65 be 63 4d 66 be 3a 81 66 be 5f d8 ad 3e
       -0.22443733 -0.22490458 -0.22510234 0.3395414
000100 a0 da ff 3d 99 2b ba 3e fe b7 9e be 76 f5 be be
       0.12492871 0.36361387 -0.3099975 -0.37296647
000110 25 0a 97 be 65 b2 81 be b0 c2 1e 3e 50 c5 0a 3e
       -0.29499927 -0.25331417 0.15503955 0.13551831
000120 5e 25 9f 3e a4 2c 49 be b6 92 84 be 58 ef 4c 3e
       0.31083196 -0.19645935 -0.25893182 0.20013177
000130 68 28 1d be 8d a1 69 3e 9c 0b b9 bd 8e 40 5c 3e
       -0.15347445 0.22815533 -0.090354174 0.21509
000140 d9 94 96 be fb c3 43 be db b8 ed 3d 87 54 a5 3d
       -0.29410437 -0.1911773 0.11607524 0.08072763
000150 57 c6 c9 bd 55 52 66 3e 98 8a 82 3e 00 ac 8c be
       -0.098522834 0.22492345 0.25496364 -0.27474976
000160 49 4d 4f be 6b 45 b1 3e a7 9c 02 be 7f ab 09 be
       -0.20244326 0.34623274 -0.1275507 -0.13444327
000170 c0 44 ba be 91 7b 5f be 4c 64 bd 3d ce 4a 54 bd
       -0.36380577 -0.2182448 0.09247646 -0.05182915
000180 53 7e 8d be 6e 99 e2 3b 03 ff 84 be 6f 52 a3 be
       -0.2763544 0.006915263 -0.25975809 -0.3189883
000190 92 2c 57 be a6 60 aa be 04 75 78 be 24 5c c0 3e
       -0.21013096 -0.33276862 -0.24263388 0.37570298
0001a0 19 f3 8d 3d 2e 83 eb 3d c3 8e b5 be c4 ef 7b be
       0.06931133 0.1149963 -0.3546048 -0.24603182
0001b0 6c 7e fd bd a8 67 7a 3d 30 3c a9 be 58 a3 24 be
       -0.12377629 0.06113401 -0.33053732 -0.16077936
0001c0 1e e3 66 be a3 d0 25 39 9d d8 0d be bd 56 ca bc
       -0.22547576 0.0001581335 -0.13852163 -0.024699563
0001d0 a0 5e 82 be 42 2d 84 be 52 56 60 be 22 65 03 be
       -0.25462818 -0.2581578 -0.21907929 -0.12831548
0001e0 6a bd 98 be 3c d5 a1 3e 41 88 97 bd 84 06 a7 3e
       -0.2983201 0.31607997 -0.07399035 0.3262216
0001f0 22 fb f2 3d 1b 6c a3 be 7c 35 86 3e b8 91 d3 bd
       0.11864306 -0.31918415 0.2621268 -0.10330528
000200 ed e4 15 be 2e 64 a1 be 47 25 c1 be 44 fa db 3d
       -0.1463811 -0.31521744 -0.37723753 0.10741094
000210 b7 49 ab bd 20 22 17 3e 20 d0 9e be 1b db 8f 3e
       -0.08363669 0.14759111 -0.31018162 0.28096852
000220 7e 0d 8e be 83 a9 85 bd 7e 12 a1 3d 55 8c 47 3e
       -0.2774467 -0.065264724 0.07864855 0.19487126
000230 17 c0 9b 3e c9 bf ae 3e 4b b8 98 be f3 0d c8 3d
       0.3041999 0.34130695 -0.29828104 0.097682856
000240 e5 d9 23 be d6 f2 1d bd 6d 56 8f be ca d9 af 3e
       -0.16001089 -0.038561665 -0.27995625 0.34345847
000250 f2 50 8e be aa 87 4e 3e 8d 23 07 3e fa c6 f9 3d
       -0.2779613 0.20168939 0.13197155 0.12196155
000260 ed f5 50 be 38 24 b0 3e a2 91 af 3d 34 6d 48 3d
       -0.20406313 0.34402633 0.08572699 0.04893227
000270 62 95 aa be 16 b8 21 3e 21 45 6b bd af 39 32 be
       -0.33317095 0.1579288 -0.057438973 -0.17404817
000280 14 c2 a5 3e 2a 56 a7 3d 42 ab 58 be 43 70 41 be
       0.32374632 0.08170731 -0.2115908 -0.1889048
000290 7c ca 7f bc 18 9a 5a 3e 1d f5 c0 bd 82 65 5a be
       -0.015612241 0.21347845 -0.09421752 -0.21327785
0002a0 6a fc 04 be 21 5b 90 be 1e cc 08 3e 66 e6 94 3e
       -0.12986913 -0.28194526 0.13359115 0.2908203
0002b0 74 13 b7 be 93 fe af 3d 7c ad 45 3e 19 45 8d 3d
       -0.3575703 0.08593478 0.1930446 0.06897945
0002c0 60 04 0a be 01 58 4a 3e f2 df 48 3e a8 34 0e 3e
       -0.13478231 0.19760133 0.19616678 0.13887274
0002d0 69 b3 88 bd 04 9d cd bd 2d 49 1c 3d 30 ae 8d bd
       -0.06674845 -0.10039714 0.038155723 -0.06917989
0002e0 0a b3 e1 bd 2e ea 79 3e 8e 91 a7 3e 50 65 0f bd
       -0.11020477 0.24405739 0.32728237 -0.03500873
0002f0 f2 5c a8 bd c0 3c ce 3b cc 22 a9 bc b4 e7 b6 3d
       -0.08220853 0.006293863 -0.020646475 0.089309126
000300 e9 47 d5 3d 80 ac b0 be 53 c0 10 be 65 cb a1 3e
       0.104141064 -0.34506607 -0.14135866 0.3160049
000310 76 e3 14 3e 65 d0 a6 bc 62 45 67 be 68 db 6a be
       0.14539894 -0.020363042 -0.22585061 -0.2293526
000320 53 61 ac be 41 8f f8 bd 5e a0 04 3e 74 f2 75 3e
       -0.33668002 -0.121366985 0.129518 0.2401827
000330 d8 fc 31 3e a7 d8 a9 be 9c 72 67 be 6a 1e 6f bd
       0.17381608 -0.33173105 -0.22602314 -0.058378614
000340 7b c0 bb 3e ab e3 64 3d cd 99 c5 bd 5b f6 21 3e
       0.36670288 0.055881184 -0.09648476 0.15816633
000350 d9 ab 14 be 30 3d 7c be d6 61 8c 3e 95 d2 31 be
       -0.1451868 -0.24632716 0.27418393 -0.17365487
000360 58 e0 a0 bd b7 96 c0 be 0d 9c 80 3e 0e 2c 92 3e
       -0.0785529 -0.37614986 0.25119057 0.28549236
000370 7a 34 0d 3e 1a dc 86 be d2 8c be be 2c 61 9c be
       0.1378955 -0.263398 -0.37216812 -0.30542886
000380 cb 84 8f 3e 33 a0 39 3e 4d 66 a3 3e 45 78 4b 3e
       0.28031 0.18127517 0.31913987 0.19870098
000390 b0 56 c5 3d bc 2c 57 bb 30 e0 92 be c9 13 a5 be
       0.09635675 -0.003283306 -0.28686666 -0.32241657
0003a0 18 cb b5 be 34 a5 1d 3e ab f1 3c be a5 a0 99 bd
       -0.3550651 0.15395051 -0.18451564 -0.07501344
0003b0 ce 69 5d be 50 54 8a bd 1c d9 87 be 24 62 7d be
       -0.21622393 -0.067543626 -0.2653283 -0.24744469
0003c0 b8 15 00 3e be cc e3 bd 35 0f 70 3e ed 72 f6 bd
       0.12508285 -0.11123036 0.23443301 -0.12033639
0003d0 05 61 8d be 8f a8 8e bd 02 89 39 be f2 70 f1 bd
       -0.27613083 -0.06965744 -0.1811867 -0.11789121
0003e0 42 4e b9 be 49 63 56 3e 3e f6 87 be e7 18 40 3e
       -0.36192518 0.20936312 -0.26555055 0.187595
0003f0 f4 44 2e 3e 53 16 8a 3e 01 58 93 be 51 df 8b 3e
       0.17018491 0.26970157 -0.2877808 0.27318814

feature_extractor.0.bias f4 [128]
000000 75 f7 f0 3a 96 57 9a 3d 1a 47 06 3e 97 80 b7 be
       0.0018384295 0.07536237 0.1311306 -0.35840294
000010 75 7a 0a 3d 03 16 e9 bc 3c 80 56 be 16 28 96 be
       0.03380819 -0.028452879 -0.20947355 -0.29327458
000020 01 0c ab 3e bc fa 9c 3e 0c d3 33 3e db 3a b8 3e
       0.33407596 0.30660045 0.17560977 0.35982403
000030 66 3d 1d be e1 9b 81 bd 31 ae 14 3e 4d 14 84 bd
       -0.15355453 -0.0632856 0.14519574 -0.064491846
000040 e5 82 9a bd 7e 67 a0 be 7b af d1 3d 66 97 69 be
       -0.075444974 -0.31328958 0.10238548 -0.2281166
000050 9e f0 31 3c b4 73 bc 3e cf 70 ec bd 7f d3 f8 bd
       0.01086059 0.36807024 -0.11544954 -0.12149715
000060 2c 66 6b 3e 51 f4 0d be 6d d1 0e bd 20 9a b5 3e
       0.22988194 -0.1386273 -0.034867693 0.3546915
000070 c2 8d 20 be c7 f9 8a be d8 c3 56 be 3f 53 d9 bd
       -0.15679076 -0.2714369 -0.20973146 -0.10611581
000080 b0 12 38 be c8 2c 4a be 93 66 1b 3e 40 7b 88 3d
       -0.17975879 -0.19743645 0.15175848 0.06664133
000090 a8 e7 f8 bd dd 26 96 be 93 22 f5 bd ee cf 25 be
       -0.1215356 -0.29326525 -0.11969485 -0.161926
0000a0 f6 33 fc bd b2 24 ad be 83 e4 aa 3d 58 1d 8e be
       -0.12314598 -0.3381706 0.083443664 -0.27756763
0000b0 6c 41 97 be 3d 82 9e be dd 15 20 3e 28 22 68 be
       -0.295421 -0.3095874 0.1563334 -0.2266928
0000c0 67 ee 21 be 85 af 96 3e de 0c 4d 3e 01 62 5d 3e
       -0.158136 0.29430786 0.2002444 0.21619417
0000d0 c0 46 b7 be 42 61 8b be fd c6 10 be 10 97 9f 3e
       -0.35796165 -0.2722264 -0.14138408 0.3116994
0000e0 1f 82 1d 3d c7 db 91 be 50 5a 34 3b d0 2f 95 be
       0.03845417 -0.2848799 0.002751965 -0.2913804
0000f0 6e a3 a7 bd 48 f4 d8 bd 80 a7 a8 3e 00 a3 f3 3d
       -0.081854686 -0.10593468 0.32940292 0.11896324
000100 78 9a 87 bd f7 1f 81 3d 1a 18 df bd 5c 0f 16 3e
       -0.066212595 0.06304925 -0.10893269 0.14654297
000110 82 ac 16 3e 9d 42 d1 3d 8c 2b 19 be 8d 39 a5 3e
       0.14714244 0.102177836 -0.14958018 0.3227047
000120 6a 9e 5f bd 03 a1 19 be e4 4f 71 3e da e3 9d 3e
       -0.054594435 -0.15002827 0.23565632 0.308379
000130 5c 31 c0 3e cf fc e5 3d 78 35 06 be db 01 45 3e
       0.37537658 0.1122986 -0.13106334 0.19238989
000140 93 13 a5 3e 8e e9 be be 59 35 44 bd 0e 52 84 be
       0.32241496 -0.37287563 -0.04790244 -0.25843853
000150 2a 2e 8d 3d 54 e6 1e 3e 10 8d a2 bd f0 f5 0a bd
       0.06893571 0.1551755 -0.07937062 -0.03392595
000160 20 1d 2d 3e c0 39 82 bd 25 83 a2 be 8c 13 9a 3e
       0.16905642 -0.06358671 -0.3174068 0.30093038
000170 34 ec 42 be 6f 12 27 bd a7 e1 05 3d 93 87 c2 bc
       -0.19035417 -0.040789064 0.032685902 -0.023746287
000180 52 4a b7 be 8a 1a 33 3e 49 44 30 be a1 5d 46 be
       -0.3579889 0.17490593 -0.17213549 -0.19371654
000190 00 ff b8 3d c6 87 49 be 7b dd 31 be 33 9d 00 be
       0.090330124 -0.196807 -0.17369644 -0.12559967
0001a0 76 4c 0f be eb 76 22 be dd a2 d1 bd d3 7e c8 3d
       -0.13994011 -0.15865676 -0.10236142 0.09789815
0001b0 a1 27 9c be cc 54 69 be 03 7c bd 3b 28 86 5b 3d
       -0.30498984 -0.22786254 0.0057826056 0.05359474
0001c0 8c 00 53 3e b3 bf 88 be db 0b f5 3d 79 63 5b 3e
       0.20605677 -0.26708755 0.11965152 0.21424665
0001d0 b4 e6 55 3e 0d d4 b3 be 9e 4b 15 be ed 8c a5 be
       0.20888788 -0.3512272 -0.14579627 -0.3233408
0001e0 75 1d 75 be b0 d5 56 3e 3b 31 68 bd a5 da 23 3e
       -0.23937018 0.20979953 -0.056687575 0.16001375
0001f0 a4 c2 62 be 06 63 67 3d 8f 7c 68 be 52 73 43 3e
       -0.22144562 0.05649092 -0.22703765 0.1908696

feature_extractor.2.weight f4 [512, 128]
000000 46 f9 1e bd 52 e3 b7 bc 0d d3 9d bd 0a c1 ce 39
       -0.038811944 -0.022447262 -0.0770627 0.00039435207
000010 15 a5 ab 3d ae 97 2f 3d 5c 18 48 bd 58 e2 89 3a
       0.08381096 0.042869262 -0.048851356 0.0010519726
000020 e4 f2 22 bc 6a fd 91 bd db cc 8d 3d da f0 8a 3a
       -0.009945605 -0.07128413 0.06923839 0.0010600344
000030 71 48 99 3c 7a b9 1c bd 4f 35 30 bd 20 c9 6e 3c
       0.0187113 -0.03826282 -0.04301959 0.014574319
000040 34 e5 02 3d c8 ea 9a 3c 92 17 32 bd a0 a7 af 3d
       0.031956866 0.01891078 -0.04347951 0.08576894
000050 10 27 58 bc f5 1f 60 bd ac 82 2c bd ff 32 b2 3d
       -0.013192907 -0.054717977 -0.042116806 0.08701133
000060 37 61 c7 ba 8b 0b 47 bc d4 64 17 bd 09 36 c0 bc
       -0.0015211467 -0.012148748 -0.03696139 -0.023463266
000070 23 82 9b bd d2 69 90 bd b4 a2 53 3d 0c d0 9a 3d
       -0.07593181 -0.070514336 0.051668838 0.07559213
000080 92 a8 ac 3d bd 76 85 bd 8d d6 3f 3d 9c 30 68 bd
       0.0843059 -0.06516788 0.04683547 -0.056686983
000090 d7 58 57 3d 3f d3 80 3d 2d ee 8b 3d 73 00 7f 3d
       0.05257496 0.06290292 0.06832538 0.062256288
0000a0 6b 16 62 3d c0 7d e1 3a 0b 51 1f 3d 01 c3 ff bc
       0.05519716 0.0017203614 0.038895648 -0.031220915
0000b0 63 01 1e 3d 7c d2 e9 bc 44 ed d2 ba c1 9b 9d bd
       0.03857554 -0.02854275 -0.0016092439 -0.07695723
0000c0 c5 12 cc bc f1 d4 3e bd 99 6d f7 bc 9e eb 67 bd
       -0.024911294 -0.046589796 -0.030203627 -0.056621186
0000d0 19 d1 a2 bd eb c2 ba 3b e6 b0 6b 3d 5b 8c a4 3d
       -0.079500385 0.0056995056 0.05754175 0.08034583
0000e0 0c 0a 52 3d 0d d7 42 bd 83 57 b3 bd 86 53 09 3d
       0.051279113 -0.04756837 -0.08756926 0.03352692
0000f0 47 cf 47 3d 6f ab 9b bd a3 f1 00 3d b6 03 98 3d
       0.04878166 -0.07601058 0.031480443 0.07422583
000100 87 66 a2 3b f9 4d 5c bd 68 5e 94 3d 0c 47 13 3d
       0.00495607 -0.053785298 0.07244569 0.035956427
000110 2d 69 6f 3d b0 39 75 bd 49 be 4e 3d 50 7e 78 bd
       0.058449913 -0.05986947 0.05047444 -0.060667336
000120 df 4a b2 3d cc 62 1b bd 74 75 59 3d 8b 14 90 3c
       0.08705687 -0.037936017 0.053090528 0.01758792
000130 a3 cc b9 3c fd e7 5e bc bc b3 14 3d 83 6c 17 bd
       0.022680586 -0.013605115 0.03630422 -0.03696872
000140 12 3a ae bd 03 cc 09 bd 98 d2 8d 3d 43 c0 ba bc
       -0.0850717 -0.033641826 0.06924933 -0.022796756
000150 3d 36 dc 3c de 1b 0a bd ad 6d 87 3d 36 ad 58 3d
       0.026881332 -0.033717982 0.06612716 0.05289956
000160 c0 ef f9 3c 07 15 3d bd 93 ea 93 bd 2f 2b 2c 3b
       0.03050983 -0.04616263 -0.07222476 0.0026270857
000170 89 66 54 bd 36 8c 94 3d 0a 2c ae bd 58 b4 20 3d
       -0.051855598 0.072533056 -0.085044935 0.03923449
000180 59 cd b4 3d 5d a0 30 3d 9a 42 f5 3c be 10 ae bd
       0.088282295 0.043121684 0.029938985 -0.08499287
000190 52 ef ad 3d f4 ea 77 bc 6d 2a a9 bd 00 45 b1 3d
       0.08492912 -0.015131701 -0.08260045 0.08655739
0001a0 72 06 11 bd 97 d4 d0 bb 60 66 a5 3d 24 0a 7c bd
       -0.035406537 -0.006372999 0.08076167 -0.06153311
0001b0 79 47 82 bd 82 44 69 3c 74 7c 44 bc ff e8 9b 3c
       -0.063612886 0.014237525 -0.011992563 0.019032
0001c0 12 6e 98 bd da 3b 2d 3b d8 96 21 bd a7 66 32 bd
       -0.07442869 0.002643338 -0.039450496 -0.04355493
0001d0 f9 ee a5 bd 45 99 40 3d 04 51 81 3c a4 0a 99 bd
       -0.08102221 0.04702117 0.015785702 -0.07472733
0001e0 a3 f7 8f 3d c9 b2 d9 3c 85 9b 85 3c 05 60 59 bd
       0.07029655 0.02657451 0.016309509 -0.053070087
0001f0 ac 45 5c 3c 04 4e ae 3d 6f a8 75 3d b8 31 90 bd
       0.013444345 0.08510974 0.059975084 -0.07040733
000200 66 10 a7 3d 43 46 e0 3b 8f c1 2e 3d da 8d 8a 3d
       0.08157425 0.0068443133 0.04266506 0.06765337
000210 3c 46 9a 3d 84 cb 8c bd 97 6d a3 3d 38 6e 76 bd
       0.075329274 -0.06874755 0.07979887 -0.060163707
000220 82 cc f7 3b 52 1a 7c bd 47 5c 9e bc 77 7d 72 bb
       0.007562221 -0.06154854 -0.01933111 -0.0037001052
000230 58 b7 31 bc 3f 8e 3e bc a7 7a 16 3c 12 1c b7 3d
       -0.010846935 -0.011630594 0.009184516 0.08940901
000240 94 d4 5a 3d 57 6c 4d 3d de 2f 18 3d 1a 6e 8a 3d
       0.053425387 0.05015215 0.037155025 0.067592815
000250 2b ac 4f bb 26 ac f3 3b aa 66 a5 3c fe 62 99 bd
       -0.0031688313 0.007436293 0.020190556 -0.074895844
000260 59 d0 8e bd fa bb 26 3c 3a af 03 bd bd aa 8a ba
       -0.06973333 0.010176653 -0.03214953 -0.0010579448
000270 2a 91 94 bc 05 bb 7a 3c bc b0 70 3d d3 8a f0 bc
       -0.018135626 0.015303378 0.058762297 -0.029363072
000280 0b e8 90 3d b7 3a 92 3d 58 0f 87 bd 77 10 87 bd
       0.07075509 0.07140105 -0.065947235 -0.06594937
000290 ae 40 90 bd 31 7c 44 bd eb 76 0a bd 60 88 8a bb
       -0.07043587 -0.04797 -0.033804815 -0.004227683
0002a0 7d 44 ab bc fb d1 2d bd c9 65 d3 bc 12 58 05 bd
       -0.020906681 -0.04243658 -0.02580537 -0.032554694
0002b0 9f 33 b1 3d 05 83 01 bd ec 94 80 bd 39 a3 1b 3d
       0.08652424 -0.03161909 -0.062784046 0.037997458
0002c0 18 9b 3c bb e3 ef 8a 3d 92 cc 62 3d b3 50 a7 3d
       -0.0028778967 0.06784036 0.055370875 0.08169689
0002d0 44 55 83 bd 9f bb 65 3d b6 0b 9b 3d 00 ee 30 bd
       -0.064127475 0.056087133 0.07570593 -0.043195724
0002e0 d9 26 a7 3d 62 d7 8b 3d 33 74 ed 3a 04 16 37 3d
       0.081617065 0.068281904 0.0018116295 0.04469873
0002f0 1a f5 ec bc 55 c5 9b bd 0e 79 b8 3c 2d 23 e2 3c
       -0.028925467 -0.076059975 0.02251866 0.027604664
000300 d3 9e 6c bd a7 e9 2e 3d 9f 3d 9a bd f3 55 a0 3d
       -0.057768654 0.042703297 -0.075312845 0.078288935
000310 b0 3f b4 3d bd ac c7 3c f7 41 5b bd 83 68 34 3d
       0.0880121 0.02437436 -0.053529706 0.044044983
000320 30 a7 8a 3c f8 3c cd 3c d7 9c f2 3c fb 72 8a 3d
       0.016925424 0.025053486 0.029615803 0.06760212
000330 75 74 16 bd 67 bb a1 bc 7c 29 d9 3c e0 dc 26 3c
       -0.036732156 -0.01974268 0.02650904 0.010184497
000340 9d 99 96 3d 6f 24 35 bd 0b 71 5c bb c6 02 83 3c
       0.07353518 -0.0442242 -0.0033636715 0.015992533
000350 cd d7 ae bc fb 4b 7f 3d 49 2a 2d 3c da e7 a2 bd
       -0.021343136 0.06232832 0.010569164 -0.079543784
000360 fc 50 f6 bb a0 68 1d bd 08 b8 0c 3c 7b 83 0e bc
       -0.0075169783 -0.038429856 0.008588798 -0.00869834
000370 c2 17 b3 bd d3 1c 76 bc ee 2a 02 bc b3 08 cd bc
       -0.08744766 -0.015021521 -0.007944806 -0.025028562
000380 e3 04 a6 3d 14 45 8c bc e2 f4 68 3d 02 e8 c6 3c
       0.08106401 -0.017122783 0.056874163 0.024280552
000390 d0 8a 99 bd a2 67 ac 3c 9b cc 95 3d fc f0 66 bd
       -0.074971795 0.02104551 0.07314416 -0.056382164
0003a0 55 55 60 bd 36 f2 b2 3d 57 f8 91 3d d0 f1 44 bd
       -0.05476888 0.08737604 0.07127445 -0.048082173
0003b0 a0 9a 5d 3d 28 da 22 bc dc 25 b0 bd 70 1d 02 3c
       0.05410254 -0.009939708 -0.08600971 0.007941589
0003c0 ba f8 f2 3c 58 ff d4 bc 53 f7 fd 3c 74 7c 9a bd
       0.029659618 -0.026000664 0.031001722 -0.07543269
0003d0 7e 8f 7b 3d 62 74 98 3d b2 82 4c 3d b1 70 8a 3c
       0.06141614 0.07444073 0.04992933 0.016899439
0003e0 af f2 eb 3c 5d f1 82 bd 37 d6 ad bc 5e c4 dc bb
       0.028802244 -0.06393693 -0.02122031 -0.006737276
0003f0 75 aa 49 bd 7c 9a 85 bd d8 5b 7b 3d 6c a2 7e 3d
       -0.049234826 -0.06523606 0.061366886 0.062166616

feature_extractor.2.bias f4 [512]
000000 ab 1b 8b bb c8 db 4e 3d 44 62 89 bd ee 38 6c bd
       -0.0042452416 0.05050257 -0.06708196 -0.05767148
000010 71 72 a2 bd 37 10 ac 3c b4 1e 49 3d 3e eb 19 3d
       -0.07931984 0.021003826 0.049101546 0.03757786
000020 ca 0d 2b 3d 68 44 57 3c 16 45 33 3d ed 84 cb 3b
       0.041761197 0.013138868 0.043767057 0.0062109143
000030 97 02 19 bd ef c0 3b bc 76 57 b8 bc bc 57 a6 bd
       -0.037355985 -0.011459573 -0.022502642 -0.08122203
000040 07 04 49 3d f3 a2 b2 bc cf c6 ae 3c 90 30 52 bd
       0.049076106 -0.021806216 0.021335034 -0.051315844
000050 80 c1 62 bd 62 cd 48 3d ca 0b f3 3c fc 51 01 3b
       -0.055360317 0.049023993 0.029668707 0.0019732704
000060 fe d9 78 3c 18 fa 16 bd b0 39 28 bc f8 58 37 3d
       0.015188692 -0.0368596 -0.01026766 0.04476258
000070 8e e6 b5 bd 7e ba 5e bc ef 8b 96 3d 10 c5 ce bb
       -0.088818654 -0.013594268 0.07350909 -0.006310113
000080 d0 c4 8b bd 8d 24 aa 3d 93 e9 95 3d 34 39 7d bd
       -0.068246484 0.08307753 0.07319941 -0.06182213
000090 89 20 05 bb 81 11 8f bd c1 c6 60 3d 9c b2 95 3c
       -0.0020313582 -0.069857605 0.054877046 0.018273644
0000a0 10 8b 9d 3d 64 a4 11 3d fe cd ef 3b 54 52 93 3d
       0.0769254 0.035557166 0.0073182574 0.07193437
0000b0 35 68 7b bd f9 15 84 bd e8 25 dc 3c 81 6a 1c bd
       -0.061378676 -0.064495035 0.026873544 -0.038187508
0000c0 68 b0 6d 3d ba c0 84 3c e0 c9 e5 3c 07 83 93 3d
       0.058029562 0.01620518 0.028050363 0.07202726
0000d0 ca 81 4d 3c f8 48 87 bd 9a f3 8c bd fe ac 72 bd
       0.012543151 -0.066057146 -0.06882401 -0.05924701
0000e0 7f 56 dc 3c 03 d4 06 3c bd 7e a7 bd 91 da 8d bd
       0.026896713 0.0082292585 -0.0817847 -0.06926454
0000f0 81 7d 59 3d c9 ba 9c bd 49 d5 b2 3c e0 7a ed 3b
       0.053098205 -0.07652814 0.021830218 0.007247314
000100 09 2d ee bc 2d 8d 97 bd 07 52 df bc 6d e2 69 bd
       -0.029074209 -0.07399974 -0.027260793 -0.057100702
000110 39 9e e9 3b 10 04 11 3d b2 88 fa bc 38 6b af bc
       0.0071294573 0.035404265 -0.03058276 -0.02141343
000120 bb bd 54 3d f8 db 2f bd 10 47 66 bc bf 3e 62 3c
       0.051938754 -0.042934388 -0.014055029 0.013808905
000130 2b 54 9e 3d 60 80 0b bd 86 70 de bc f5 37 c5 3c
       0.077308975 -0.034057975 -0.027153265 0.024074534
000140 72 86 0b bd f5 a1 ba bc 8c 7c b0 bd ee 8d 59 bd
       -0.034063764 -0.022782305 -0.086175054 -0.05311387
000150 9c 30 87 bd 21 36 8a bc 3d 94 78 3d d9 27 93 bd
       -0.066010684 -0.016871514 0.060688246 -0.07185335
000160 ba 12 54 3d 7a 4d b0 bd bf 59 af 3d ec 2c 6a ba
       0.05177567 -0.086085275 0.085620396 -0.00089330855
000170 5c f2 9f bd 4e 4d 12 bc 21 e7 3c bd de 58 9d bd
       -0.07809898 -0.008929564 -0.04611886 -0.07682966
000180 37 83 63 bd 78 b9 62 bd 56 87 a2 3d 87 da a1 bc
       -0.055545058 -0.055352658 0.079359695 -0.019757522
000190 8d bf 26 bd a5 68 57 3c 8d 7c c6 bc 64 cb 9b 3d
       -0.04071002 0.013147508 -0.024229312 0.07607153
0001a0 b7 01 1a 3d 9d cd 92 3d a1 33 bc 3c df d1 6a bc
       0.03759929 0.07168124 0.022973837 -0.014332264
0001b0 d8 d9 fc bc 06 a8 70 3d 3a 51 ab 3c 13 bd 0c bd
       -0.030865595 0.05875399 0.020912755 -0.034360003
0001c0 a0 c6 65 3d 50 ad 06 3d 1c 8b 4f bd 3c 73 81 bd
       0.056097627 0.032880127 -0.050669774 -0.06320807
0001d0 df 87 1c 3d b1 b2 ad ba a7 e8 91 3c dc 75 fb bb
       0.038215514 -0.0013252107 0.017811133 -0.007673962
0001e0 b0 f7 a2 bd 80 0e 34 bd 87 eb b4 bd c7 30 12 3d
       -0.07957399 -0.04395914 -0.08833986 0.03569105
0001f0 5d 02 c5 3c 58 fe 60 bd 7c d4 73 bd 02 9c 52 3d
       0.024048978 -0.05493006 -0.059528813 0.051418312
000200 40 20 b8 3b ea bb 93 bd 13 76 7e 3c f4 4d 06 bc
       0.005619079 -0.07213576 0.015531081 -0.008197296
000210 9f 3a cb 3c e2 57 a1 3c a2 e9 50 ba a2 fc 97 bd
       0.024808226 0.019695226 -0.00079693843 -0.07421233
000220 cd 1e 8c bc 01 e4 e7 3b 23 71 83 3d 1a 34 aa 3d
       -0.01710453 0.0070767407 0.064180635 0.08310719
000230 f0 db 99 3d 62 25 ac bd eb df 0e bd 20 7e 41 bb
       0.07512653 -0.08405568 -0.034881514 -0.002952464
000240 97 8f 4e bd 54 5a 26 bd 40 a9 20 bb 0d 82 80 bc
       -0.050429907 -0.040613487 -0.0024514943 -0.015687013
000250 50 bf 87 3d 0d 3c a1 bd a8 b1 fd 3b 7d 27 61 bd
       0.06628287 -0.07872782 0.0077421255 -0.0549693
000260 8e 07 1d bd f9 45 c9 3c 23 3f 2c 3d 86 06 a5 bd
       -0.038337283 0.024569498 0.0420524 -0.08057885
000270 2d 68 a5 bd d5 23 61 bd c5 de 28 bd 22 b6 92 3d
       -0.080765106 -0.054965813 -0.041228075 0.07163645
000280 86 5c 8a bd 5b b9 a6 3d 60 05 1b bb 58 ec 29 bd
       -0.06755929 0.081408225 -0.0023654327 -0.04148516
000290 eb 03 25 bd c1 b4 8c 3d c1 42 00 3d 2c 47 87 3d
       -0.04028694 0.068704136 0.03131366 0.06605372
0002a0 cc 52 1a bd 7c af ab 3d 86 6e 96 bc 2b a9 1f 3c
       -0.037676618 0.0838308 -0.018363249 0.009744923
0002b0 90 5d 11 3d 0f ea 4f bd 4e 72 54 3d 44 e0 34 bc
       0.03548962 -0.050760325 0.051866822 -0.011039797
0002c0 20 3d b1 bd 5e 3d 3c 3d db a4 a1 bd e6 c1 ad bd
       -0.08654237 0.04595696 -0.07892772 -0.08484249
0002d0 e9 3e 20 3d 2a 03 95 bd ab fd 42 bd fe e5 3d 3d
       0.039122496 -0.07275994 -0.047605198 0.046361916
0002e0 45 e8 a5 3d 21 9a 6e bd d7 82 ad bb 40 fe f0 ba
       0.081009425 -0.058252458 -0.0052951383 -0.0018386319
0002f0 d8 73 a3 3c 73 28 a5 3d 11 f5 b2 bd 3f c3 83 bc
       0.0199527 0.08064356 -0.08738149 -0.016084312
000300 22 3f b6 3c c0 1a a9 bc 99 69 d2 3c 59 0e b0 bc
       0.022246901 -0.020642638 0.025685119 -0.021491216
000310 90 8f 28 bc f2 ee ee bb 08 41 93 3d e1 bf 61 3d
       -0.010288134 -0.007291668 0.07190138 0.05511463
000320 10 0c 7a bd e3 7b 70 bd c8 05 93 3d 6f 53 13 bd
       -0.06104666 -0.058711898 0.07178837 -0.03596824
000330 e9 30 8f 3d 47 b4 2e bd 44 3a 57 bd 82 75 9b bb
       0.06991751 -0.042652395 -0.0525458 -0.0047442326
000340 e1 a1 f1 3c 90 65 75 3d 9f a2 21 3d c1 b0 91 3d
       0.029496135 0.05991131 0.03946173 0.07113791
000350 c1 ee 9e bd a6 10 4e 3d 89 6f dc 3c 99 f9 3d bd
       -0.077603824 0.050308846 0.026908653 -0.046380613
000360 d1 5f 94 ba 83 9a 89 bd 34 a1 83 3c 4e ea a9 bc
       -0.001132006 -0.06718924 0.016068079 -0.020741608
000370 02 46 00 bd c8 68 e4 3c 78 ca ad 3d 2f 8c 91 bd
       -0.031316765 0.027881995 0.084858835 -0.07106816
000380 dc b0 8f bd 5f 78 ad 3d b4 dd 51 3d b1 ef ba bb
       -0.07016155 0.084702246 0.051236823 -0.005704843
000390 31 ef b5 3c d1 a8 8c 3d 7d 22 3d bd 4f aa 95 bd
       0.022208782 0.06868137 -0.04617547 -0.073078744
0003a0 b7 e2 97 bd cd cf ca 3b a8 11 b7 bc 9c d6 e3 bc
       -0.07416289 0.0061893226 -0.022347286 -0.027812295
0003b0 ac ff 61 3c d6 a6 79 3d 03 2b 8b 3d 62 82 76 bc
       0.013793867 0.060950123 0.06795313 -0.015045734
0003c0 45 29 a6 bd 89 3d 70 3d 44 b9 78 bc 3e 5f b3 bd
       -0.0811334 0.058652434 -0.0151808895 -0.087584004
0003d0 4d 7c 42 3d c2 3a 51 bd d7 c2 8c 3d 38 3b 1e 3d
       0.047481824 -0.051081426 0.068731 0.038630694
0003e0 88 c8 3b bc 0a 26 2c 3d 2b d5 92 3d be 76 50 bd
       -0.011461385 0.042028464 0.07169565 -0.05089449
0003f0 6a 3c ad bd 90 99 92 bd f5 79 1a bd 4f 43 a9 bd
       -0.08458789 -0.07158196 -0.037713964 -0.08264791

classifier.weight f4 [1, 512]
000000 15 42 b0 3b 8c d8 1e bd 74 14 a5 bc 3e 04 6f bc
       0.0053789713 -0.038780734 -0.020151354 -0.014588414
000010 bd 4b 07 bd bd 0c 22 bd 36 5b a4 3c 88 a7 9b 3b
       -0.033031214 -0.03956293 0.020063024 0.004750196
000020 cd ec 07 bd 27 ec bf bc 0d d9 22 3d 2a 45 02 3d
       -0.033184815 -0.023428036 0.039757777 0.03180424
000030 18 90 d5 3b e2 9d 2e 3d d5 7a 27 3d a6 24 58 bb
       0.0065174215 0.042631038 0.040888626 -0.0032980829
000040 ab 83 e2 3c 91 b9 0e 3d 89 de 27 3d f7 b9 9a 3c
       0.027650675 0.03484494 0.04098371 0.018887503
000050 88 70 cd bc bd a4 2d bb 2a d0 c4 bc f6 e0 bf 3c
       -0.025078073 -0.0026495897 -0.024025042 0.0234227
000060 03 06 86 3c 30 10 9e bc 23 bd 22 3d 44 6b 09 3c
       0.016360288 -0.019294828 0.039731156 0.0083873905
000070 57 8c 78 3b 96 3a 89 bc cb 17 b2 bc 87 36 b9 3c
       0.0037925446 -0.016751569 -0.021739861 0.022609008
000080 ea 28 16 bc 7d ec ca 3c 15 ab 19 3c da 34 af 3c
       -0.009165028 0.02477097 0.009379168 0.021387506
000090 ce 0f 1d 3d a8 cd 03 3b 51 8c 22 3b 95 a3 22 ba
       0.03834515 0.0020111594 0.0024802873 -0.0006204185
0000a0 fb a2 af 3c 21 f7 d8 3a 0a f6 f7 3b e1 f0 f6 bb
       0.02144002 0.0016553142 0.007567172 -0.007536039
0000b0 83 0b 2e bb 36 48 8e bc 11 c6 f1 bc 15 0a fc 3c
       -0.0026557154 -0.017368417 -0.02951339 0.030766526
0000c0 95 2a e1 bc df 44 95 3c 06 32 c7 3c 1a 0f 16 bd
       -0.027486125 0.018221317 0.024315845 -0.036635496
0000d0 8f b9 9d bc b0 36 9f 3c a3 22 28 bc 92 36 0b 3d
       -0.01925352 0.019435257 -0.010262164 0.03398759
0000e0 60 c6 1d 3d a7 04 ce 3b 0c 05 01 bd 09 9e 14 bd
       0.038519263 0.0062871757 -0.031498954 -0.036283527
0000f0 22 dc ea 3c 42 ee 84 bc 6f 20 1a 3d 9d ef 63 3c
       0.02866942 -0.016226891 0.037628587 0.013912109
000100 b3 59 4a bc 60 5c 2d 3b a0 b6 04 3c 81 7f a7 3c
       -0.0123504875 0.0026452765 0.008100182 0.02044654
000110 27 9a 25 3d fe 3a 2f 3c 61 c3 19 3d c2 aa 38 3c
       0.040430214 0.010695217 0.037539843 0.011271181
000120 9b 49 90 bc d4 6a 56 bc 2c 16 c5 3c 23 e3 d8 3c
       -0.017613223 -0.013086993 0.024058424 0.026475495
000130 2f 57 21 bd 0b ad db 3c 90 93 4a bb 0e 15 b0 3c
       -0.039389785 0.026815912 -0.0030910708 0.021494415
000140 ed 25 2f 3d 5d 4c 21 3d 4e b4 0a 3c ca ee bc ba
       0.04276078 0.039379466 0.00846584 -0.0014414426
000150 b6 7e 24 bd b0 61 14 3d 6f 17 12 bc 4e c8 da 3c
       -0.040159903 0.036225975 -0.00891672 0.02670684
000160 ab 8e c4 bc 9d dc 2a bd 5b 53 bd 3b bd 7e 0c bd
       -0.02399381 -0.0417143 0.005777759 -0.034300555
000170 2e cf 5f 3c 98 b3 1a 3c 0a 6a 29 bd 0b e2 24 3d
       0.013660235 0.009442233 -0.041360892 0.040254634
000180 c8 e9 6c 3c 19 04 db bc 25 86 51 3b 3b 2f 9f 3c
       0.014460035 -0.026735352 0.0031970826 0.0194317
000190 d9 9a d4 3c 49 76 de 3b a9 05 b6 3b a4 7e 5f 3c
       0.025952743 0.006789003 0.005554874 0.013641033
0001a0 ab a3 f9 3c 7e 79 26 bd a3 7d ff bc ad fa 9c bc
       0.03047355 -0.040643208 -0.031187838 -0.0191625
0001b0 96 d9 eb 3c 46 85 f2 3c 60 17 c5 bc f9 ff 2c bd
       0.028790276 0.029604565 -0.024058998 -0.042236302
0001c0 84 8a 19 bc b3 e8 b9 bc 9c 95 38 3c cc 23 93 bc
       -0.009371404 -0.022693967 0.011266138 -0.017961405
0001d0 1a d0 f2 b9 de 81 23 bd 24 4e ec bc c3 35 8d 3c
       -0.00046312885 -0.039918773 -0.028845854 0.01723755
0001e0 65 ad cc bc ff 8e a4 bb 4c 73 d7 3c 18 a4 bf bb
       -0.024985025 -0.0050219293 0.026300095 -0.005848419
0001f0 8f 8b 14 3d fe 46 19 3c 82 1c 1c 3d 71 f4 f2 3b
       0.036265906 0.009355305 0.038113125 0.0074143936
000200 55 cf 00 bd 65 05 29 bd de a4 0c bd 06 8f 0b 3d
       -0.031447727 -0.04126491 -0.034336917 0.034071945
000210 0b 53 31 3d 38 33 2f 3c 3f cf da 3c 50 b3 c2 3c
       0.043292087 0.010693364 0.02671015 0.023767143
000220 3d 0e ad 3c ab 16 2b bc 26 01 28 3a e9 ba c5 3c
       0.021124953 -0.010442416 0.00064088625 0.024136977
000230 33 53 3e 3c 59 f6 a7 3c 5c 76 60 3b 81 7f 1a bd
       0.011616516 0.02050321 0.0034250235 -0.037719253
000240 dd 90 ed bc b5 3d a1 bc 26 25 f9 3c 9d eb 2d 3c
       -0.02899974 -0.019682745 0.030413222 0.010615257
000250 55 ea 17 bd 9f b4 b4 3b 7b c9 6e 3c 17 d2 58 3c
       -0.03708871 0.005514696 0.014574404 0.013233683
000260 6f 86 0d bd 1d 90 21 bc 1f 9e c2 3c ce 21 23 3d
       -0.034552034 -0.009861019 0.023757039 0.03982716
000270 cb 9e a8 b9 b5 61 19 3c 9a 1c ad bc fd 70 42 bc
       -0.00032161767 0.009361674 -0.021131802 -0.011867759
000280 2e 7e 12 3c e3 62 d2 3c f5 44 0f 3d 12 29 e8 3b
       0.008941216 0.025681918 0.034977872 0.007084974
000290 17 0d 2e 3c d5 0c 8a 3c 5f d3 25 3c ca 38 23 3d
       0.010623238 0.016851822 0.010121196 0.03984908
0002a0 ea d5 da 3b 70 5c e3 bc 56 fe 04 3c 62 7e 23 bd
       0.0066783326 -0.027754039 0.008117279 -0.03991545
0002b0 ef 37 84 3c 93 a6 0f bc ca 84 32 bd 74 91 21 bd
       0.016139952 -0.008767742 -0.04358367 -0.039445356
0002c0 39 bc e2 3c 0c 69 cd 3c ad 73 30 bd ce 88 dc bb
       0.027677642 0.025074504 -0.043079067 -0.0067301756
0002d0 ce 08 f4 3c fc ba 55 3b 31 e0 68 3b 77 57 d5 3c
       0.029789355 0.0032612672 0.003553402 0.026042683
0002e0 b5 ea bd 3b 33 c6 0f 3d e8 91 2b 3d bd 83 7c b9
       0.0057958015 0.035101127 0.041887194 -0.00024081669
0002f0 ab 9e 1d 3d d3 26 18 bd f4 86 0c bd e8 a2 33 bd
       0.038481396 -0.0371464 -0.03430839 -0.04385653
000300 3e 6b bf 3c 46 ac f4 3c e7 16 85 bc c0 f1 07 3c
       0.023366567 0.029867303 -0.016246272 0.008297384
000310 3a 64 04 bb 7f 7a c2 bb 6d 54 fc bc d0 33 ff bc
       -0.0020201341 -0.005935013 -0.030801976 -0.031152636
000320 63 12 90 3c 30 3f 66 3c af 60 91 bb 81 e8 b0 bc
       0.017586892 0.014053151 -0.0044365744 -0.021595242
000330 65 8c de bc a8 ab 02 bd 7d 72 ea bc f5 ea 01 3d
       -0.027166555 -0.031901985 -0.028619045 0.031718213
000340 2d de c2 bc 63 d3 4f 3c 73 e2 b0 ba 95 2b ae bc
       -0.023787582 0.012684676 -0.0013495222 -0.021261016
000350 7a 4a f1 3c 0d 52 9d 3c 4f 4d c5 3c 02 d2 91 3c
       0.029454459 0.019204164 0.024084715 0.017800335
000360 36 b5 23 3d d8 dc bc 3c 07 df c6 bc ae 68 99 bc
       0.039967738 0.023054525 -0.02427627 -0.018726673
000370 f0 2d 10 3d 98 e9 d1 3c 2f a4 14 bd 1c 86 d3 3c
       0.03520006 0.025624081 -0.03628939 0.025820784
000380 6f 07 ad bc 9d fb 24 3d f8 de e5 bc ec e8 36 3c
       -0.021121709 0.04027902 -0.028060421 0.011163931
000390 0b cd d3 3c b2 7a 31 3d 95 c4 40 bb dc 64 00 3c
       0.025854608 0.043329902 -0.0029414047 0.007836547
0003a0 63 4f bb bb f5 d0 23 bd 17 9e b0 3c 10 1d 1b 3b
       -0.0057162507 -0.0399942 0.021559758 0.0023668446
0003b0 8a c3 14 bd 0a 94 20 bd 01 1c 07 bd c5 72 ce 3c
       -0.036319293 -0.03920368 -0.03298569 0.02520121
0003c0 dd 08 ed 3c c2 67 0f 3d 97 bf 2d bd 8b b5 37 bc
       0.02893489 0.03501106 -0.042419042 -0.011212717
0003d0 e3 4c 07 3d 46 93 27 bd 74 24 67 39 7c aa 27 bd
       0.03303231 -0.040911935 0.00022043457 -0.04093407
0003e0 31 16 f2 bc 80 41 15 bd 36 be 1c 3b a9 d8 9f bc
       -0.029551597 -0.03643942 0.0023917085 -0.019512491
0003f0 fe 19 ed 3b f4 71 15 bd 40 82 ad 3c 0a 05 f8 3c
       0.0072357645 -0.036485627 0.021180272 0.03027584

exp_avg f4 [128, 7]
000000 4a 2a 4f b9 b2 eb 1b ba 77 42 a6 38 7c 98 4a 37
       -0.00019756812 -0.0005947902 7.927877e-05 1.2075641e-05
000010 84 9d 4a 37 7c 4b 69 38 19 a7 75 37 e0 a8 f9 38
       1.2076813e-05 5.562183e-05 1.4642043e-05 0.00011904701
000020 b2 71 fb 39 7e 1e 32 39 ab 73 5f 36 9f 73 5f 36
       0.0004795916 0.00016986762 3.3296917e-06 3.329689e-06
000030 10 67 10 b8 dd e1 f4 b6 48 a6 08 b6 e0 e3 b0 b9
       -3.442826e-05 -7.2980606e-06 -2.0362368e-06 -0.00033739116
000040 58 0e 1a b9 77 40 e5 b5 84 56 e5 b5 8c 6e e1 37
       -0.00014691928 -1.7080591e-06 -1.7087009e-06 2.6873568e-05
000050 38 37 ac 36 9d b1 1d 36 00 00 00 00 51 9c b1 35
       5.1324278e-06 2.3498208e-06 0.0 1.3233022e-06
000060 43 84 c7 33 16 93 c7 33 01 15 5a b4 63 13 0d b3
       9.290718e-08 9.2934144e-08 -2.0310473e-07 -3.2846753e-08
000070 aa 6e 95 b9 f5 7e 48 ba bc 0b 16 b9 b8 09 2a 35
       -0.00028501946 -0.00076483126 -0.00014309486 6.334408e-07
000080 d4 64 2a 35 e6 17 85 38 58 b1 84 37 7f 5d 1b 39
       6.347666e-07 6.3463856e-05 1.5818208e-05 0.00014816782
000090 fd 75 22 3a 7d 62 f7 38 c9 75 48 b6 18 76 48 b6
       0.0006197391 0.00011796223 -2.9870882e-06 -2.9871062e-06
0000a0 a8 23 09 b8 f7 14 00 b7 b2 d3 16 37 f8 4d 3e 36
       -3.2696553e-05 -7.634276e-06 8.989986e-06 2.835759e-06
0000b0 3d b9 08 b7 94 fe ae b3 a0 eb ae b3 66 25 84 35
       -8.149361e-06 -8.148814e-08 -8.145366e-08 9.845651e-07
0000c0 f4 13 41 34 55 05 80 39 98 98 1b 3a 5d fc 92 39
       1.7981785e-07 0.00024418035 0.0005935519 0.00028035315
0000d0 f0 18 ad 36 dd 17 ad 36 e1 03 41 b8 d9 44 0e b7
       5.158705e-06 5.15858e-06 -4.60184e-05 -8.479889e-06
0000e0 54 f3 91 b7 a9 5b a7 b8 1e 80 1a b7 86 2a 2c 36
       -1.7398655e-05 -7.9802536e-05 -9.208945e-06 2.565475e-06
0000f0 3e 27 2c 36 e3 88 37 37 13 94 2b 36 0a 6b f0 37
       2.565284e-06 1.0939521e-05 2.5567176e-06 2.8660073e-05
000100 ae 1e 97 b8 4a f0 13 b9 c7 ba d8 b6 31 bc d8 b6
       -7.2059556e-05 -0.00014108527 -6.4590454e-06 -6.45921e-06
000110 c6 c6 31 37 be 3a b1 35 74 e2 34 b9 5b 25 a7 b9
       1.0596303e-05 1.3204624e-06 -0.00017250498 -0.00031880554
000120 60 29 d0 38 fc 33 e9 36 e9 3e e9 36 48 a3 0b 38
       9.9259196e-05 6.949993e-06 6.951265e-06 3.329225e-05
000130 c9 91 29 37 08 7a 12 39 a9 85 18 3a 8b a5 67 39
       1.0107128e-05 0.00013969105 0.0005818257 0.00022091546
000140 30 42 23 36 6e 38 23 36 7a 60 16 b8 18 0f 03 b7
       2.432742e-06 2.432174e-06 -3.5852638e-05 -7.811723e-06
000150 c2 aa b5 b7 ca d2 6d 39 c0 89 ee b5 1f 2c 7e b6
       -2.1656397e-05 0.00022680606 -1.7772472e-06 -3.7874631e-06
000160 f0 2e 7e b6 e8 ea cb b5 3a ba 36 b5 19 23 b9 b6
       -3.787627e-06 -1.5193045e-06 -6.807128e-07 -5.5175155e-06
000170 f8 df ae b5 92 96 76 b7 31 5d cc b4 fb 6f cc b4
       -1.3029194e-06 -1.46978e-05 -3.8065767e-07 -3.8079438e-07
000180 80 dd f3 b4 93 bb 58 b4 c9 6d 22 37 96 63 c2 b7
       -4.542344e-07 -2.0184807e-07 9.681514e-06 -2.3172975e-05
000190 e3 cd 89 37 40 1b 96 35 3e 16 96 35 a4 81 49 36
       1.6427546e-05 1.1183802e-06 1.1182344e-06 3.0026795e-06
0001a0 61 2c 6d 35 5a ed 28 37 fc f1 9a 37 12 51 1c b8
       8.835396e-07 1.0068843e-05 1.8470913e-05 -3.72688e-05
0001b0 62 9a 13 b6 b7 95 13 b6 57 6c 7e b6 1c a5 a3 b5
       -2.199457e-06 -2.1991852e-06 -3.7912012e-06 -1.21925e-06
0001c0 5d 33 cf b8 81 6d ae 39 dd 70 32 b9 5a fb 5f b7
       -9.880096e-05 0.00033269453 -0.00017017448 -1.3350358e-05
0001d0 cd fc 5f b7 06 e7 16 b8 be 13 2b b7 96 3b c6 b4
       -1.3350696e-05 -3.5977944e-05 -1.0196991e-05 -3.6923728e-07
0001e0 00 00 00 00 10 09 66 33 f0 af 3c b2 eb ef 3c b2
       0.0 5.355929e-08 -1.0983044e-08 -1.0997591e-08
0001f0 e8 4e 87 b2 9a 39 4d b1 6e ae 3a b9 02 09 9d b9
       -1.575195e-08 -2.986417e-09 -0.00017803322 -0.00029952085
000200 88 b1 b5 36 6f 58 00 37 58 5a 00 37 32 53 9a 37
       5.4148877e-06 7.649985e-06 7.650429e-06 1.8396971e-05
000210 ed 16 c2 36 78 1c 7b b5 00 00 00 00 f0 b2 56 34
       5.7843195e-06 -9.3546214e-07 0.0 1.99954e-07
000220 f2 99 cb 33 7d 9c cb 33 00 e8 bf b1 80 3a 23 30
       9.4809266e-08 9.481389e-08 -5.585207e-09 5.938219e-10
000230 87 e7 98 b8 f4 ea e0 b7 b3 30 9e b8 4f 9a 6c b6
       -7.29105e-05 -2.681229e-05 -7.543098e-05 -3.525656e-06
000240 cc 94 6c b6 47 c9 8d 36 90 f0 4a 35 7f 04 26 39
       -3.5253352e-06 4.225559e-06 7.560093e-07 0.00015832669
000250 0b 35 a5 39 4b d4 da 38 f5 22 01 35 0f 18 01 35
       0.00031510773 0.00010434593 4.8107114e-07 4.8091255e-07
000260 7b dd 96 b7 e7 e2 90 b6 f7 55 96 b8 ce d9 1c b9
       -1.7984528e-05 -4.3179493e-06 -7.1685696e-05 -0.00014958458
000270 09 c4 92 38 5c 13 c7 36 64 17 c7 36 03 17 57 37
       6.998337e-05 5.932916e-06 5.933385e-06 1.28203565e-05
000280 42 b7 78 36 0e cf f7 37 17 97 d6 37 b9 b9 42 b8
       3.706155e-06 2.9541112e-05 2.5581145e-05 -4.6426172e-05
000290 32 18 41 b6 41 15 41 b6 2c 8c 8a b6 8a 67 b8 b5
       -2.8773325e-06 -2.8771613e-06 -4.1290386e-06 -1.3739202e-06
0002a0 53 e9 8b 36 b4 64 21 b6 84 96 a9 35 56 71 c9 34
       4.1696853e-06 -2.4049486e-06 1.2635287e-06 3.752163e-07
0002b0 a8 6e c9 34 0c f3 ae 35 3a cb b0 34 18 22 2d b5
       3.751968e-07 1.3034746e-06 3.293042e-07 -6.4497135e-07
0002c0 52 26 58 36 4a 50 28 36 44 fc 84 35 f2 fe 84 35
       3.2208814e-06 2.5080685e-06 9.908185e-07 9.908965e-07
0002d0 a6 48 63 b4 12 d2 ea b2 d8 71 f5 37 06 0d 7d 38
       -2.1167452e-07 -2.7336714e-08 2.9259289e-05 6.033203e-05
0002e0 bc 86 97 b8 8f 25 5c b6 59 26 5c b6 4e 3b e8 b6
       -7.225337e-05 -3.2804417e-06 -3.2804876e-06 -6.9210428e-06
0002f0 ca 10 17 b6 ce 3b e9 b8 d8 73 79 39 9a d3 b7 39
       -2.2510526e-06 -0.00011121445 0.00023789646 0.00035062135
000300 d6 50 77 37 c1 50 77 37 1c 47 73 b7 74 62 46 b5
       1.4741168e-05 1.4741149e-05 -1.4500485e-05 -7.3904016e-07
000310 76 2f a9 39 5d 47 1d 3a 08 65 ca b9 0a 56 e3 b7
       0.00032269553 0.00059997087 -0.00038603717 -2.7100574e-05
000320 d4 58 e3 b7 f4 97 4e b8 33 0b 7d b7 e6 e9 7f 39
       -2.7101873e-05 -4.9255745e-05 -1.5082583e-05 0.00024405829
000330 f3 0a 11 3a 98 79 43 b9 0c d3 a3 b7 c0 d5 a3 b7
       0.00055329426 -0.00018641946 -1.952939e-05 -1.953065e-05
000340 64 85 32 b8 c2 0b 69 b7 76 dc ed b8 1a a9 5c 38
       -4.2562737e-05 -1.389062e-05 -0.00011342105 5.2609576e-05
000350 24 d0 3a 39 ea d8 eb 36 fe da eb 36 c3 17 9e b6
       0.0001781588 7.028798e-06 7.02904e-06 -4.711533e-06
000360 1a ad c8 34 0e 6a 06 39 d1 7d 2e 3a 5c a7 3a 39
       3.737885e-07 0.00012818744 0.00066563213 0.00017800689
000370 46 02 58 b6 93 fd 57 b6 f9 83 36 b8 91 ed 18 b7
       -3.2187831e-06 -3.2185096e-06 -4.351509e-05 -9.115219e-06
000380 04 bb 6d 39 ee a1 53 3a c6 08 e4 38 d4 81 02 b6
       0.0002267175 0.00080731406 0.000108735214 -1.944708e-06
000390 f7 9d 02 b6 4a 48 80 b8 d8 58 75 b7 6a a8 de b4
       -1.9463457e-06 -6.1169805e-05 -1.46238235e-05 -4.147326e-07
0003a0 ef 92 02 35 3c 0d 6c b4 38 ff fc 32 49 e4 fc 32
       4.864259e-07 -2.1984027e-07 2.9452721e-08 2.9440473e-08
0003b0 7a f2 6f 33 a6 c0 71 32 3a d5 e1 37 2e 15 43 b8
       5.5867055e-08 1.40718495e-08 2.6921382e-05 -4.6511348e-05
0003c0 8b 1b 96 b7 6f 8f 02 b6 c6 8c 02 b6 90 6f 40 36
       -1.789422e-05 -1.9455e-06 -1.945345e-06 2.8675167e-06
0003d0 38 a0 0e 35 69 ba 4d 37 d4 d8 44 b7 24 6c b3 37
       5.313227e-07 1.2262354e-05 -1.1732995e-05 2.138882e-05
0003e0 58 3a 99 35 31 34 99 35 1b 96 72 36 6c 34 8d 35
       1.1416369e-06 1.1414578e-06 3.6148183e-06 1.0520575e-06
0003f0 22 6e 77 39 28 92 5a 3a cc 99 b4 38 f3 13 0d b7
       0.00023596783 0.0008337819 8.611716e-05 -8.4089e-06

exp_avg_sq f4 [128, 7]
000000 23 fe af 30 fb 9e 10 35 a8 71 96 32 fc 02 33 2f
       1.2805156e-09 5.387553e-07 1.7513983e-08 1.6281015e-10
000010 53 04 33 2f 93 7e fb 30 12 e5 fd 2e a0 0a cf 30
       1.6281491e-10 1.8298628e-09 1.1545799e-10 1.5064252e-09
000020 71 99 3d 33 0a 74 b9 31 ee de 53 2b c8 db 53 2b
       4.4144546e-08 5.3974007e-09 7.5271636e-13 7.5267266e-13
000030 7c 4c 49 2f 6a 14 11 2d c5 17 b2 30 9f 70 3b 33
       1.8308016e-10 8.246829e-12 1.295796e-09 4.364176e-08
000040 c1 8b 61 32 5d 9d 6d 2c 41 9c 6d 2c 06 34 c0 2f
       1.31285e-08 3.376708e-12 3.3766464e-12 3.4961561e-10
000050 e6 3d 49 2d a2 75 18 2b 00 00 00 00 58 de 7b 2a
       1.1439271e-11 5.4164496e-13 0.0 2.2370419e-13
000060 6e 5a 04 27 ac 61 04 27 8d dd bd 27 5f 10 30 25
       1.8367702e-15 1.8371628e-15 5.2698244e-15 1.5271113e-16
000070 81 e2 a8 32 3a a1 6f 35 7e b2 52 33 50 bc 21 2e
       1.9660776e-08 8.9269054e-07 4.9056773e-08 3.6774417e-11
000080 68 c2 21 2e 8c 3b 40 31 9e 1f 16 2f 61 81 09 32
       3.677983e-11 2.7973526e-09 1.3653653e-10 8.003867e-09
000090 80 4f ae 32 42 c2 6c 30 ec f7 ab 2c 9a f1 ab 2c
       2.0292418e-08 8.6132357e-10 4.887637e-12 4.8869355e-12
0000a0 8b c4 35 2e d6 d0 34 2c a8 b2 d8 2e 02 78 78 2c
       4.13292e-11 2.5695466e-12 9.8542785e-11 3.5309537e-12
0000b0 08 9b e0 2e dd e4 e9 2a 69 d8 e9 2a b2 9f 0e 2c
       1.021388e-10 4.154792e-13 4.153928e-13 2.0268062e-12
0000c0 f8 f3 44 2a 41 c2 1e 33 b1 dc 6d 34 7e b2 17 33
       1.7492941e-13 3.6963915e-08 2.2152632e-07 3.5319765e-08
0000d0 1e 41 95 2c fb 39 95 2c c1 97 80 30 fa c0 05 2e
       4.242064e-12 4.241272e-12 9.356357e-10 3.0412096e-11
0000e0 67 9b 23 30 67 47 1d 33 68 1d 0f 31 a8 66 9b 2c
       5.9519895e-10 3.661935e-08 2.0825954e-09 4.416762e-12
0000f0 6f 68 9b 2c e5 b7 0c 2f 71 70 ce 2c fa 7a 77 30
       4.4169594e-12 1.2798258e-10 5.8673556e-12 9.0032837e-10
000100 83 94 8a 33 72 5e a2 32 2c 3b 9b 2c af 41 9b 2c
       6.45314e-08 1.8902231e-08 4.4119344e-12 4.4126573e-12
000110 12 c0 b5 2f 8d 66 2a 2d 5a db 4f 31 95 18 e0 34
       3.3060182e-10 9.686152e-12 3.0247151e-09 4.1741137e-07
000120 35 52 4f 32 11 de c3 2e 62 e1 c3 2e 59 92 cf 30
       1.20676775e-08 8.90702e-11 8.9076094e-11 1.5102827e-09
000130 29 e8 bf 2e 06 71 4a 31 c4 e3 9e 33 95 7c aa 31
       8.726914e-11 2.9459115e-09 7.398879e-08 4.9618145e-09
000140 a3 8f 0f 2b 8a 8e 0f 2b 04 51 48 2f 50 ab 23 2d
       5.100314e-13 5.100162e-13 1.8218677e-10 9.303516e-12
000150 e2 82 f3 2f 5d 0e 49 34 fc 18 c7 31 d7 6e 2c 2d
       4.429444e-10 1.8724809e-07 5.7945027e-09 9.801679e-12
000160 85 72 2c 2d 7d 51 34 30 4f a6 05 2e 63 4b a7 2c
       9.8024965e-12 6.559942e-10 3.038841e-11 4.754795e-12
000170 60 21 7e 2d 3a 0f a4 2e 22 28 94 2a 92 1b 94 2a
       1.4445639e-11 7.460561e-11 2.631793e-13 2.6309212e-13
000180 ff e5 f1 2a ba e1 5b 29 b7 d3 4d 2f 16 b5 0b 30
       4.2969792e-13 4.8823555e-14 1.8719858e-10 5.0825244e-10
000190 01 1f 82 30 d5 9b 25 2c 71 97 25 2c 06 50 f2 2c
       9.467557e-10 2.3534414e-12 2.3531977e-12 6.886938e-12
0001a0 fd 0f 50 2b 61 1d 98 2e 19 8c e3 2e 31 07 6d 30
       7.3918633e-13 6.9173785e-11 1.0347651e-10 8.623032e-10
0001b0 90 a8 85 2c fc a5 85 2c fc d3 49 2d 17 b5 9a 2b
       3.7988016e-12 3.7985153e-12 1.1472597e-11 1.0992621e-12
0001c0 12 c8 df 32 9c 59 80 34 f0 77 e2 32 45 fe 56 2f
       2.6051598e-08 2.3907057e-07 2.6364404e-08 1.9553521e-10
0001d0 21 fc 56 2f 48 37 8e 30 cc e6 ae 2e 41 0d e0 2b
       1.9552761e-10 1.0347572e-09 7.953602e-11 1.5919836e-12
0001e0 00 00 00 00 2a 74 46 2b fd c3 07 27 70 dd 07 27
       0.0 7.050494e-13 1.884126e-15 1.8855055e-15
0001f0 f3 ce b3 28 87 bf 41 26 1f 1f d9 31 a5 8f 82 32
       1.9962742e-14 6.7219894e-16 6.3190693e-09 1.5199314e-08
000200 36 bd 37 30 8b 56 02 2d 54 5a 02 2d 8b b2 a3 2e
       6.6843897e-10 7.408861e-12 7.409701e-12 7.4440974e-11
000210 21 dd a8 2c 08 37 4d 2d 00 00 00 00 c6 5f 6f 2d
       4.7993974e-12 1.166512e-11 0.0 1.3606843e-11
000220 27 f3 36 29 d6 fa 36 29 2c e4 c9 2a 27 49 4c 28
       4.062302e-14 4.0629684e-14 3.5863099e-13 1.1340137e-14
000230 59 b2 c3 30 fb a8 61 32 5f ce da 30 88 59 87 2c
       1.4238807e-09 1.3135145e-08 1.5920242e-09 3.8468707e-12
000240 75 5f 87 2c b9 2b 48 2e b1 70 28 2c 32 a2 b2 31
       3.8475286e-12 4.551357e-11 2.3936792e-12 5.1989213e-09
000250 38 1f a6 32 d1 4b 0e 31 54 00 a2 2a cd 05 a2 2a
       1.933914e-08 2.0706816e-09 2.8777208e-13 2.8781006e-13
000260 95 80 97 2e 5b 36 5a 2c 6b 73 a3 2f 28 46 be 31
       6.889526e-11 3.1009837e-12 2.9731537e-10 5.5377036e-09
000270 01 77 08 30 20 b0 ad 2c ff b1 ad 2c 7d da b7 2d
       4.9645626e-10 4.9365095e-12 4.9367173e-12 2.090172e-11
000280 f0 a9 e7 2b 5b 68 46 2f 27 2f 0a 2f e1 e4 1f 30
       1.6460704e-12 1.804507e-10 1.2567779e-10 5.816912e-10
000290 d4 0e 20 2c 25 0a 20 2c 9a 5e b7 2c a4 94 1a 2b
       2.2745599e-12 2.2742999e-12 5.2116757e-12 5.491807e-13
0002a0 d2 44 21 2d da b5 99 2a f7 16 97 2c 1e c8 02 29
       9.167072e-12 2.7304445e-13 4.2942277e-12 2.9039373e-14
0002b0 ff c7 02 29 ae 7c 72 2a fc 4c 43 28 7b 9b 1f 2e
       2.9039268e-14 2.1537175e-13 1.0841368e-14 3.629051e-11
0002c0 a4 e5 45 2c 84 17 01 2e f7 cd be 29 84 d5 be 29
       2.812286e-12 2.935209e-11 8.473424e-14 8.474734e-14
0002d0 ae 6d 64 2b 04 72 ee 28 f1 5a 55 2f 8f a7 a3 30
       8.1154083e-13 2.6472754e-14 1.9404546e-10 1.1907434e-09
0002e0 91 20 18 31 fa 3f ab 2c fd 40 ab 2c 87 a9 ae 2d
       2.2137423e-09 4.867215e-12 4.8673275e-12 1.9856795e-11
0002f0 71 fd 12 2c 20 34 ab 31 85 70 86 32 36 97 01 33
       2.0888536e-12 4.982681e-09 1.5650821e-08 3.017268e-08
000300 81 f5 86 2e 0e f8 86 2e eb 48 b8 2e d3 ec eb 2c
       6.137225e-11 6.137678e-11 8.380304e-11 6.7053945e-12
000310 61 7f ad 32 3f 56 45 34 d6 04 67 33 03 32 8c 2f
       2.0197776e-08 1.8378431e-07 5.3788277e-08 2.5501387e-10
000320 57 35 8c 2f 68 4d 5e 30 92 30 a7 2e 0a ba 55 32
       2.5503752e-10 8.087313e-10 7.6029086e-11 1.2440532e-08
000330 96 f6 00 35 ec f1 a3 32 b7 ae 8c 2f 02 b2 8c 2f
       4.8042546e-07 1.908571e-08 2.5589994e-10 2.5592334e-10
000340 23 09 af 30 e6 70 ef 2e 00 1e 95 30 3d 37 3f 32
       1.2735523e-09 1.08885165e-10 1.0849703e-09 1.1130223e-08
000350 1c 91 11 32 99 8b 74 2d bd 90 74 2d 32 58 28 2e
       8.473105e-09 1.3900791e-11 1.39019326e-11 3.827711e-11
000360 b7 ea fb 2b dc 59 25 32 7d ea 61 32 f2 43 82 31
       1.7899769e-12 9.624696e-09 1.315004e-08 3.7912224e-09
000370 fa 24 1f 2c fb 18 1f 2c c5 18 c6 2e 96 e2 31 2c
       2.2615785e-12 2.2609126e-12 9.0083975e-11 2.5278993e-12
000380 94 a8 f7 31 0a 1a e2 34 26 0a 32 32 1f 2a c8 2d
       7.2078112e-09 4.2114726e-07 1.0363271e-08 2.2756073e-11
000390 89 35 c8 2d 44 02 a5 30 dc 06 8a 2e fc 5d d9 2c
       2.2761142e-11 1.2005974e-09 6.276732e-11 6.1779453e-12
0003a0 bb bd db 2a d7 f9 9e 2b 6b 37 28 28 04 33 28 28
       3.9033867e-13 1.129592e-12 9.33789e-15 9.336936e-15
0003b0 66 52 e3 29 d8 e1 a3 27 a2 6b 01 30 da 5c ad 30
       1.0095119e-13 4.548645e-15 4.708288e-10 1.2613797e-09
0003c0 94 e2 a7 2f 73 b6 38 2b 1d b1 38 2b e9 4a 0e 2d
       3.0538116e-10 6.562313e-13 6.5615726e-13 8.088399e-12
0003d0 66 e7 93 2a 99 ba 10 2e 79 60 2f 2e ab a7 85 2f
       2.627301e-13 3.290754e-11 3.9876078e-11 2.4311694e-10
0003e0 ac 0b 3a 2b fb 04 3a 2b f8 de 56 2c f8 3c a6 2a
       6.609667e-13 6.6087386e-13 3.0535002e-12 2.952983e-13
0003f0 98 9a 9d 31 84 09 46 35 9d f4 a1 32 a7 e0 a0 2e
       4.5868767e-09 7.3774595e-07 1.8854104e-08 7.315864e-11
